pred_training/trained_rnn_models/T3_resnet50/pred_rnn/cosine_False_0.001_0.9mammograms_pred_rnn_0.505_4.pth (torch, 43277 bytes, 10 tensors)

init_net.0.weight f4 [64, 15]
000000 4d a0 f6 ba 5b 0e 0a 3e 80 d0 53 be a8 65 3d be
       -0.0018816084 0.13482039 -0.20685005 -0.1849581
000010 02 3e c6 bd e2 05 8a 3d 17 2b a3 bb b2 0d 4c 3e
       -0.09679796 0.06739403 -0.004979502 0.199271
000020 9a b5 b6 bc cc 32 88 3d 3d 8d 9b bd 0e 59 4a bd
       -0.022303391 0.06650314 -0.075952984 -0.049401335
000030 01 dd 75 be f4 70 2a be d0 2c d4 bd 82 8c 18 3c
       -0.24010088 -0.1664465 -0.1036011 0.009310843
000040 45 41 cb 3d 4f 4c 1a 3e 98 78 2e be ee 22 e0 bd
       0.099245586 0.15068172 -0.1703819 -0.10944162
000050 7c f3 ba 3d 8c 80 55 3e 7e e0 53 bd ec 90 40 3e
       0.09128472 0.20849818 -0.051727764 0.18805283
000060 c2 eb 25 bd e8 d9 d9 3c 15 04 69 3e 71 bd 6e be
       -0.04050804 0.026593164 0.22755463 -0.23314454
000070 9f 3f 22 be 72 4e 82 bd d4 21 c8 bd e0 f9 5d 3e
       -0.15844582 -0.063626185 -0.09772077 0.21677351
000080 05 dd 26 be f8 ef ec bd 54 cc 33 be 35 07 71 be
       -0.1629525 -0.11569208 -0.17558414 -0.23537906
000090 2d 81 16 be 5f 29 5d 3e c6 9b e5 3d e0 74 f9 3d
       -0.14697714 0.21597813 0.11211352 0.12180495
0000a0 e1 8a 58 3c 91 f0 03 be b8 ed 2d 3d 73 b8 70 be
       0.013216705 -0.12884738 0.042463034 -0.23507862
0000b0 a5 f4 39 be bf b1 04 be 51 61 22 3e 95 e2 16 3e
       -0.1815973 -0.1295843 0.15857436 0.14734872
0000c0 59 45 e4 bd 48 93 14 bc 02 98 24 3e d6 d6 7f 3e
       -0.111460395 -0.009068318 0.16073611 0.24984297
0000d0 e4 48 cc 3d 28 11 0b 3d b5 8d 2c 3e e7 87 17 be
       0.0997484 0.03395191 0.16850932 -0.14797936
0000e0 6b d3 3f 3d 42 87 47 be e8 5e 32 be f1 f1 04 be
       0.046832483 -0.1948519 -0.17419016 -0.12982918
0000f0 88 b4 e8 3d b4 c8 ce 3d 61 79 18 be 44 7f 9b 3d
       0.113625586 0.10096875 -0.14890052 0.07592633
000100 c4 47 0d 3e 34 ee 01 bd 62 01 1c 3c dc 78 6e 3d
       0.13796908 -0.03172131 0.009521814 0.05822073
000110 30 a3 1f 3e c9 1b 77 3e ce 52 46 be 35 a0 bc bd
       0.15589595 0.24131693 -0.19367525 -0.092102446
000120 df 3b ca 3d 85 18 55 3e a6 f3 5f 3e 47 21 63 3e
       0.09874701 0.20810135 0.21870288 0.22180663
000130 e7 a4 4d 3d 68 b3 5f be b8 65 bd 3c 99 00 21 be
       0.05020609 -0.21845782 0.023119792 -0.15722884
000140 a6 d7 6f be a8 e5 64 3e 68 b4 43 3e 8d 5b 80 be
       -0.23422107 0.22353232 0.19111788 -0.25069848
000150 c6 af 40 3d 8c 69 2d bd 9f 67 29 bd 54 94 eb bd
       0.04704263 -0.042336985 -0.041358586 -0.11502901
000160 97 80 c6 3d 94 6e 18 be d9 db bc 3d 08 04 02 3e
       0.09692495 -0.14885932 0.0922162 0.1269685
000170 30 17 38 3e 8a 74 c0 3d 79 b6 7e be e6 f1 26 be
       0.17977595 0.09397228 -0.24874295 -0.16303214
000180 8f 48 00 3e 2d 65 57 3d 73 c3 48 be 3d 31 14 be
       0.12527679 0.052586723 -0.19605808 -0.14471908
000190 cc 1a 72 3e 49 67 2d 3e 11 79 e0 bd f7 16 82 bd
       0.23643035 0.16933931 -0.109605916 -0.063520364
0001a0 cb 27 75 be ee 05 94 bb 96 cd 41 be 13 83 46 be
       -0.23940961 -0.0045173084 -0.18926081 -0.19385938
0001b0 ce e1 62 bc e2 8f 1a 3d f2 c9 d2 bd 5c b5 18 3e
       -0.013847781 0.037734874 -0.10292424 0.14912933
0001c0 3a 9c 1c be f6 83 69 3e 6c 5d 30 3e cf 05 59 be
       -0.1529397 0.22804245 0.17223138 -0.21193622
0001d0 5f 1a 80 bd d0 cc 39 3c 74 31 16 3d bf 26 74 3d
       -0.0625503 0.011340335 0.036668256 0.059607264
0001e0 cb 2b ca 3d aa 0d 78 3c 46 1f fb bd fe 8d f3 3d
       0.09871634 0.0151399765 -0.12261824 0.11892317
0001f0 f0 dd 76 be 22 89 18 be c6 ad 80 bd 52 b7 fa bd
       -0.241081 -0.14896062 -0.06283145 -0.12241997
000200 e4 0e b4 bd ed ee 52 be 0c f9 5a bd e9 11 5c 3d
       -0.08791903 -0.20598955 -0.053460166 0.053728018
000210 d6 a7 27 be 9f c2 51 bc 2d 3a 38 3e 7f 85 d1 bc
       -0.16372618 -0.012802749 0.17990942 -0.025576351
000220 74 3e d5 3b 9b 9a b5 bc c9 55 50 3d d7 a2 23 3e
       0.006507689 -0.022168448 0.05086306 0.15980087
000230 2a c7 73 3e 58 a2 22 3e ae 44 74 3e 25 26 95 bc
       0.23806444 0.15882242 0.23854324 -0.018206665
000240 e3 2f 67 be fa 02 f4 bd 52 38 2f 3e dd 14 df ba
       -0.22576861 -0.1191463 0.17111328 -0.0017019768
000250 8c e7 00 be c0 36 45 be 54 a8 70 be 14 47 59 be
       -0.12588328 -0.19259167 -0.23501712 -0.2121852
000260 eb 32 51 bd 7b 22 0d 3e ed 22 0b 3e 60 33 78 be
       -0.05107395 0.13782685 0.13587542 -0.24238348
000270 77 5e 20 3e d9 61 49 be 4c a4 59 bd 05 b4 d0 bd
       0.15661035 -0.19666232 -0.0531352 -0.10190586
000280 0e 48 46 bd 11 1d 4a bd dc ef 66 be 7a 60 5e be
       -0.04840856 -0.049344126 -0.22552437 -0.2171649
000290 2b 15 21 bd df cf 47 3b 31 23 e9 bd bc a9 c2 3d
       -0.039326828 0.003048889 -0.11383665 0.095050305
0002a0 47 a2 67 be f2 f1 8a bc 8e 52 62 3e 7f cd d0 bd
       -0.22620498 -0.016961072 0.22101805 -0.10195445
0002b0 ee 6d 68 3e 0e 72 ba 3d 23 3f 68 be 69 d4 22 3e
       0.22698185 0.091037855 -0.22680335 0.1590134
0002c0 ff 78 ed bc dc 9d e5 bd 86 85 4e 3e 74 f7 4f be
       -0.02898836 -0.1121175 0.20168123 -0.2030924
0002d0 43 38 dd 3c 64 ed 57 bd 54 af 37 3e a1 ad 8f 3d
       0.027004367 -0.052716628 0.17937976 0.07015539
0002e0 f4 51 f7 3d 24 c6 b5 3d ef 24 78 bd 15 93 58 bd
       0.12076178 0.08875683 -0.060582098 -0.052874643
0002f0 04 17 54 be 3a 71 0b 3e 48 55 4c 3e 21 15 30 3e
       -0.20711905 0.13617411 0.19954407 0.1719556
000300 f9 89 35 be e0 86 34 3c f9 6a 35 be af b3 0d be
       -0.17728414 0.011018485 -0.17716588 -0.13838075
000310 e2 e7 15 be 87 0c b0 3d 62 5c 19 be 0e ac b3 bb
       -0.14639238 0.085961394 -0.14976647 -0.005483157
000320 02 39 2d 3c d0 fd 25 3e 96 8a 42 be 92 ab 30 be
       0.010572674 0.16210103 -0.18998179 -0.17252949
000330 69 6f 15 be f2 21 34 3e 4e 06 b9 bd 62 1b 59 3e
       -0.14593281 0.17591074 -0.09034406 0.21201852
000340 85 62 ba 3d e0 59 02 3d ba f5 f5 ba 32 84 4b bd
       0.09100822 0.031823993 -0.0018765249 -0.04968662
000350 be 20 01 3d e4 0f 6b bd df 75 e7 ba b3 58 03 3d
       0.031525366 -0.0573882 -0.001765903 0.032067012
000360 cb 4d 49 be 38 e3 06 be 66 cd 4f 3e ec da 50 be
       -0.19658582 -0.13172615 0.20293197 -0.20396012
000370 4e d6 93 bc 14 95 7e 3e 93 ee b9 3d 23 c6 e8 3b
       -0.018046524 0.24861556 0.090787075 0.007103698
000380 a3 06 5f be 17 fb fe 3d 90 4f 37 be b1 17 92 bd
       -0.21779875 0.12450235 -0.17901444 -0.07133425
000390 6d b1 ac bd 9e 71 18 bd 3a 29 34 3b d9 45 54 3e
       -0.08432279 -0.03721773 0.0027490393 0.2072977
0003a0 98 84 00 3d f0 81 66 3e 62 6d 1d 3e fc b3 22 be
       0.03137645 0.22510505 0.15373757 -0.15888971
0003b0 f3 d9 e6 3d 3d ec 35 be cb 22 da bd 31 63 97 3d
       0.11272039 -0.17765899 -0.106511675 0.07391966
0003c0 79 ce a9 3d 33 32 41 3e 7c 6b a5 bd 33 f0 d2 39
       0.08291335 0.18866806 -0.08077142 0.00040233284
0003d0 f8 7d 04 3e b4 e2 78 be ed 46 3a 3e 4c cf 54 be
       0.12938678 -0.2430523 0.18191119 -0.20782202
0003e0 da 18 63 3b 15 04 2f bd 68 8a 07 be 58 13 08 3d
       0.0034652264 -0.042728502 -0.13236392 0.033221573
0003f0 5a d8 54 3e 72 f1 95 bd 2d ca 18 be 3e f3 bd bd
       0.20785657 -0.07321443 -0.14920874 -0.092749104

init_net.0.bias f4 [64]
000000 98 ec 37 be 56 95 5c 3d 06 e7 69 3e 14 23 7d be
       -0.17961347 0.053853355 0.22842035 -0.24720412
000010 e9 05 80 be 7e 07 05 3d 64 85 41 3e 00 99 1c be
       -0.2500451 0.03247785 0.1889854 -0.1529274
000020 8e 00 63 3d d6 ed 33 3e ce 5b 9e 3d a8 af 61 3d
       0.05542045 0.17571196 0.07732354 0.05509916
000030 78 49 80 3e 67 ca 27 3e 5c c1 10 be 53 00 b2 3c
       0.25056052 0.16385804 -0.14136261 0.02172867
000040 d4 bb 03 3e e3 2e 62 3e a1 28 80 be 39 a4 0b 3e
       0.1286462 0.22088198 -0.25030997 0.13636865
000050 f5 07 95 bd df 16 7c be e8 8e 64 3d f9 75 0c be
       -0.07276908 -0.246181 0.05580035 -0.13716878
000060 e4 85 11 3d 2e 05 27 be 79 11 42 be ed ff af bc
       0.03552808 -0.1631057 -0.18951978 -0.02148434
000070 c9 ca ac bd ce 74 16 3e 5c 63 af 3c c3 b6 48 3e
       -0.08437116 0.14692995 0.021409683 0.19600968
000080 ea db 41 3d ae 82 a5 bd 80 2f 2e 3e f5 46 67 3c
       0.047328867 -0.08081566 0.17010307 0.014116039
000090 77 4a 41 3d 55 84 a5 bd 75 6c 31 3a 91 9b 48 bd
       0.047190156 -0.08081881 0.00067681755 -0.048976485
0000a0 d9 d6 af bc 0b d7 48 be e8 82 d3 ba c4 8a 55 be
       -0.021464752 -0.19613282 -0.0016137036 -0.20853716
0000b0 db e2 5e bd db c1 14 3e fe 3f 33 be c9 95 2d be
       -0.054415565 0.14527075 -0.1750488 -0.1695167
0000c0 c4 26 7c bd e7 39 8d bd 7a a5 2f 3d ec 05 2c 3d
       -0.061560407 -0.068958096 0.04288242 0.041997835
0000d0 72 a5 02 3e 24 4a 31 be 34 42 91 bc 8f ca 0f 3e
       0.12758425 -0.17313439 -0.017731763 0.14042114
0000e0 52 94 5e 3e b1 44 97 bc 55 de 14 be 64 cd 93 3d
       0.21736267 -0.018465372 -0.14537938 0.072169095
0000f0 37 a1 12 3e 87 ce 20 be 78 37 15 be aa 82 e3 3d
       0.14319311 -0.15703784 -0.14571941 0.111089066

init_net.2.weight f4 [64, 64]
000000 73 ac 0b bc 2c 70 eb bd 37 b4 8f bd 34 0c 4a 3d
       -0.008525002 -0.114960045 -0.07016795 0.049328044
000010 ec 0c 29 bd 48 f1 ab 3d 83 d5 c4 3d 7b fe 90 3c
       -0.04127209 0.0839563 0.09611037 0.01769947
000020 ae a5 1d bc b5 59 1e bd 37 1b ca bb 9d 21 b5 3c
       -0.009622021 -0.03865977 -0.006167795 0.022110755
000030 df 74 be bd f2 1d ef bc 48 45 cf bd 28 ee 98 3d
       -0.09299635 -0.029189084 -0.10120636 0.074673
000040 a3 ce 9e bd 59 5f e3 3d 6b 87 00 bd 7d da 8e bd
       -0.077542566 0.111021705 -0.031379145 -0.06975267
000050 50 6a 6f 3d d1 8f 94 3c 9b 4b ac 3d 3d 00 50 3d
       0.058450997 0.018134983 0.08412858 0.050781477
000060 d3 0f f0 bd 87 96 9d 3d 36 d9 bb bc 77 7c 5c bd
       -0.11721768 0.076947264 -0.022930723 -0.053829636
000070 10 3b 9e 3d 40 b6 b5 3d 9a 0d db bd 90 d3 34 bc
       0.07726109 0.08872652 -0.10695954 -0.011036769
000080 07 9c cc 3d 94 02 41 3d 76 e7 d1 3d eb 05 2b bd
       0.09990697 0.0471216 0.10249226 -0.04175369
000090 97 76 89 bd 82 45 d6 3d fd b6 4f 3d 5a 1c ef 3d
       -0.06712072 0.10462476 0.05071162 0.116753295
0000a0 90 39 50 bd a4 ff 9f bd e3 fa 69 bc 55 a6 ea bd
       -0.050836146 -0.078124315 -0.014281007 -0.114575066
0000b0 8a 3f 43 3d 10 c3 b7 3d de 1b ef 3c 3d 52 45 bc
       0.047668017 0.08972752 0.029188093 -0.012043533
0000c0 aa 07 77 3d 71 2b 9e bd b1 9d f3 3d 99 e4 f7 bd
       0.060310043 -0.077231295 0.118953116 -0.121041484
0000d0 43 df ee bd 64 86 eb bc 5c 8b cb 3d 60 89 47 3c
       -0.116636775 -0.028750606 0.0993869 0.012178749
0000e0 9a 2c 3f 3d 68 c0 b6 bd 42 ac 35 3d b2 96 5f bc
       0.046673395 -0.08923417 0.04435373 -0.013646768
0000f0 34 87 47 3d d3 fb af 3d 09 9f 58 3d af 90 29 bc
       0.048712924 0.085929535 0.052886043 -0.010349437
000100 3b 97 f5 bb be ee 9b bd dd fa 33 bd 5c 08 a2 3d
       -0.0074948347 -0.07613896 -0.043940414 0.07911751
000110 49 b1 47 bd 85 17 9b 3d 81 53 44 bd 0e 23 e8 bc
       -0.048753057 0.07572845 -0.047931198 -0.028337028
000120 be 72 2a 3b ff 50 e4 bd 34 f2 96 ba 1a 2f 46 bc
       0.0026008333 -0.11148261 -0.0011516274 -0.012096191
000130 9a 24 2f bc 2a 35 c4 bc ed 74 c4 3d a9 f3 b7 3d
       -0.010689879 -0.023951132 0.09592614 0.08982021
000140 ab 72 a8 bd f9 85 69 3d b4 59 c3 bd 73 a5 d3 bd
       -0.08224996 0.057012532 -0.09538594 -0.10334291
000150 94 69 18 3d 96 42 ec 3a 22 a2 66 bd 9c 36 f0 bd
       0.037210062 0.0018025215 -0.056306966 -0.11729166
000160 f9 cc 40 bd d8 a3 26 3d 40 7d e6 bd 6d 99 f1 bd
       -0.047070477 0.040683597 -0.11254358 -0.11796842
000170 77 18 7d 3c c2 6d b3 bd ac 22 da bd a5 60 3f bd
       0.015447727 -0.08761169 -0.106511444 -0.046723027
000180 8b 33 a0 bc f4 6e e2 bd e6 4c a6 bd c0 20 06 3c
       -0.019555828 -0.11056319 -0.08120136 0.008186519
000190 7b f2 ea bd 6d 07 8c bc a6 c4 a0 bd d7 6f ac bd
       -0.11472031 -0.017093385 -0.07850008 -0.08419769
0001a0 f9 10 44 3d 8c be bf bd a7 b8 bc bd c3 29 8e 3d
       0.04786775 -0.09362516 -0.09214907 0.06941559
0001b0 42 49 bb 3c 6d 24 e3 3d 72 e3 04 bd a3 70 70 bd
       0.02286208 0.11090932 -0.03244347 -0.05870117
0001c0 9c 33 37 bc 43 48 26 3a d4 ac be 3d 7e aa f7 bd
       -0.011181738 0.00063431653 0.09310308 -0.12093066
0001d0 9e 54 09 bc 1d 75 5c 3d 47 2e 89 bd 12 2e 7d bd
       -0.008381991 0.053822625 -0.0669828 -0.061811514
0001e0 75 d8 71 3d 9f 64 ee bd 01 ed ec 3c 47 6c c0 bd
       0.05904432 -0.11640286 0.028921606 -0.09395652
0001f0 9a aa 78 3d 06 0f d5 bd 77 3c 99 3d 30 e1 eb bd
       0.060709573 -0.10403256 0.07482236 -0.115175605
000200 48 74 d1 bd ef c1 e3 3a 98 50 c4 3d 1c 6e d5 bd
       -0.10227257 0.0017376522 0.095856845 -0.10421392
000210 b0 57 5e bd 78 c0 da 3d 49 fa a7 bc f0 76 4e 3d
       -0.054282844 0.10681242 -0.020505087 0.050406396
000220 78 b8 ef bd 3b f3 1c bd 37 28 7d bd ce fb d1 3d
       -0.117051065 -0.0383179 -0.06180593 0.10253106
000230 e5 88 4e 3d 53 12 b6 bd 2b af a0 3c 45 f1 b7 ba
       0.05042352 -0.08890214 0.019614777 -0.0014033696
000240 f1 12 4d bd 17 9d 8e bd 25 71 25 bd 42 44 c4 3d
       -0.050066892 -0.06963556 -0.040391106 0.09583332
000250 b6 a3 b2 bd 57 82 b1 bd 1e 52 1a bd 67 96 09 3b
       -0.08722632 -0.086674385 -0.03767597 0.0020994188
000260 15 a0 07 3d 47 79 6e 3b 5d 25 f0 bc c5 3b 97 bd
       0.03311165 0.0036388205 -0.029314691 -0.07384447
000270 0e e2 b2 bc 91 ab 48 bd cf 45 c9 3d fa a8 f2 bd
       -0.021836307 -0.048991743 0.09827768 -0.11848636
000280 ea f6 9e bd 80 bb ca bd 21 45 b6 bc ac 08 c2 3d
       -0.07761939 -0.09899044 -0.02224976 0.0947431
000290 0d 69 da 3d a0 ed d8 bd 71 31 ad bb ba 29 92 3d
       0.10664568 -0.10592198 -0.005285435 0.07136865
0002a0 0c 9e 5b 3d 33 18 cc 3d 36 93 5e bb ff 71 a7 bd
       0.053617522 0.09965553 -0.0033962256 -0.0817604
0002b0 34 c7 a4 3d e3 ff 2a bd 7f fa 80 3d 26 d0 f5 bc
       0.080458075 -0.04174794 0.06297778 -0.03000648
0002c0 8f c4 53 3d 04 1d e0 3d 1b 83 e7 3d c9 ee e2 bd
       0.051701125 0.10943034 0.11304303 -0.11080701
0002d0 65 07 a5 bd 46 0f 4e bd 40 e8 9e bd b9 14 ef 3d
       -0.08058051 -0.050307535 -0.07759142 0.116738744
0002e0 89 56 31 bc c7 68 a5 bd 2f e2 5d bd 46 ca 89 bd
       -0.010823854 -0.08076625 -0.054170784 -0.06728034
0002f0 06 07 4b 3d 4e 59 d9 bd a8 57 e8 bd 5b a2 f5 bd
       0.049567245 -0.10612737 -0.11344844 -0.119938575
000300 d3 8e 56 3d b0 5e 77 3d 25 92 9a bd d0 b9 f7 3c
       0.0523823 0.060393035 -0.07547406 0.03023997
000310 ac 0f b8 3d dc de 92 3c a1 6a cf bc 06 48 13 3c
       0.08987364 0.017928533 -0.0253194 0.00898934
000320 de 72 55 bc 83 df 7b 3d 7a 07 a9 bd 67 8f 7d 3d
       -0.013027875 0.061492454 -0.08253379 0.061904337
000330 62 11 8d 3d f5 f8 95 bd 91 7b cb 3d 27 d3 f4 3d
       0.06888081 -0.073228754 0.09935678 0.119543366
000340 80 2b 43 bd 86 f7 08 bd 39 a8 78 3d df 92 c2 bd
       -0.047648907 -0.03343918 0.060707305 -0.0950067
000350 ba 2e 45 3d e9 ae e8 3c e2 3f 9e 3d a0 43 d8 bd
       0.048140265 0.028403716 0.077270284 -0.105597734
000360 04 ed ce bd b3 14 60 3d f6 f6 33 3d de 4d e7 bd
       -0.10103801 0.05470724 0.043936692 -0.11294149
000370 95 ef 8a bd c6 de e3 bd 3d 4b b2 bd 71 ea 5f bd
       -0.06783978 -0.11126475 -0.08705757 -0.05466694
000380 16 4d ce 3d 68 66 c6 bc e5 3e 8f 3d 3e 40 ed 3d
       0.10073297 -0.024218753 0.06994418 0.11584519
000390 ca 31 63 3d 64 0c df bd ec 2c 7b 3d 96 eb 3e 3d
       0.055467404 -0.10891035 0.061322138 0.04661139
0003a0 4b 45 c1 3d 35 b9 f5 bd 8b 6a 99 3d b3 06 cc 3d
       0.09437045 -0.11998216 0.074910246 0.09962215
0003b0 42 8d e7 bd 0a cd 52 3c f6 eb d4 3d f5 10 b5 bd
       -0.1130624 0.012866268 0.103965685 -0.08841125
0003c0 3d f7 23 3d 83 53 5c 3d 1f 3d 04 3d 96 6d f8 3d
       0.040030707 0.05379058 0.032284852 0.12130277
0003d0 8b d1 cc 3d c6 c9 d5 3d ba 1f 78 bc b1 07 d1 3d
       0.10000905 0.10438876 -0.015144283 0.10206545
0003e0 9b 87 e7 bd aa f9 85 bd ae 14 d4 bc e5 99 12 bd
       -0.113051616 -0.0654176 -0.025888767 -0.035791297
0003f0 e8 d0 e6 3d ab 10 6b 3d 53 7b a0 3d 97 7f a9 3d
       0.112703145 0.057388943 0.07836022 0.08276289

init_net.2.bias f4 [64]
000000 d3 f7 77 bd ca 5a ed bd 1f 19 86 3d aa 00 e6 3d
       -0.060539078 -0.11589582 0.0654776 0.112305954
000010 50 66 17 bd ea 37 e1 bd 3b 85 16 3d 86 3b af bd
       -0.036962807 -0.10996993 0.036748152 -0.08556275
000020 c7 6b a3 bd 0c 5e 09 3d d3 3c 52 bc ff 77 08 bc
       -0.07979541 0.033536956 -0.012831884 -0.008329391
000030 6f 8c df 3d 85 ad ae bc 2f 0c 99 3d 48 ab 19 bd
       0.109154575 -0.021322975 0.07473027 -0.037516862
000040 87 75 b8 3d 06 88 17 3d 22 55 dc 3d 1f 7e 37 3d
       0.090067916 0.036994956 0.10758425 0.044798013
000050 9c dd 36 bd dd 7b 5e 3d 2a c5 d3 3d c2 9d c5 3c
       -0.044644937 0.054317344 0.103403404 0.024123076
000060 37 21 65 3d 0a c6 b0 bd 0b d6 86 3d 20 ce ea bd
       0.05593988 -0.08631523 0.06583794 -0.114650965
000070 87 cf dd 3d 07 c9 50 3d b5 e9 f2 3b 80 27 ea bd
       0.10830598 0.050972965 0.007413114 -0.11433315
000080 8e e9 e4 3d b6 70 a0 3d af 60 e7 3d cb 98 46 3d
       0.111773595 0.07833998 0.11297738 0.04848556
000090 aa f1 26 3d 59 c8 01 bd 67 56 49 bd a3 9f 47 3d
       0.040757813 -0.031685207 -0.049154665 0.048736226
0000a0 41 17 2e 3d f8 e5 87 bb 58 da 9c 3c 1f d7 29 3d
       0.042502645 -0.0041472875 0.019147083 0.04146492
0000b0 68 88 ed bd 43 59 dc bd a5 1a 04 bd f2 29 aa 3d
       -0.11598283 -0.10759213 -0.032251973 0.08308782
0000c0 aa 34 71 3d 61 48 f1 bd d9 99 16 bd d7 e5 46 bc
       0.058888115 -0.11781383 -0.036767814 -0.012139759
0000d0 9e 75 26 3d 94 a6 cb 3d 75 b0 a5 3a 9d 33 c3 bd
       0.040639512 0.09943882 0.0012641089 -0.09531329
0000e0 e6 e2 eb 3b 98 80 40 bd 2a 94 98 bd 56 4f 8a 3d
       0.0071986793 -0.046997637 -0.07450135 0.067534134
0000f0 81 40 7c bc db b0 67 3d 05 f4 c6 3d dd 60 44 3c
       -0.015396238 0.056565147 0.09714512 0.011985985

rnn.weight_ih_l0 f4 [64, 7]
000000 e3 61 8c 3d 90 ea 77 bd f2 18 8b 3d 86 0a 9f 3b
       0.06854608 -0.06052643 0.06791867 0.0048535494
000010 7d c4 a5 3d d4 a3 e4 3d 96 2e c2 bd 8e 81 ec 3d
       0.08094118 0.1116406 -0.09481542 0.11548148
000020 85 47 c3 3d d1 bb c8 bd 80 21 12 3d a2 25 cb bd
       0.09535126 -0.09801448 0.03567648 -0.09919287
000030 9a c6 32 3d 14 a4 aa 3c a8 e4 ed bd c5 99 37 3d
       0.043646432 0.020830192 -0.11615878 0.04482438
000040 13 e4 08 bd 78 62 f8 3d 93 1c f3 3d c6 6e 30 3d
       -0.033420634 0.121281564 0.118706845 0.04307439
000050 37 69 c5 3d 89 0e 34 3d fe ec 01 3e a4 0c 38 bc
       0.09639209 0.043959174 0.12688062 -0.0112334825
000060 d3 60 f6 3c b0 33 a4 bc f5 b5 42 3c c8 77 d9 bc
       0.030075466 -0.020044178 0.011884202 -0.026546374
000070 95 44 45 bd bf e8 88 3d a4 dc 55 3d 9b 01 5c bd
       -0.048161108 0.06685018 0.052212372 -0.05371247
000080 70 a2 db bd 17 6e 61 3d f8 77 eb bd 0a 5d b2 bb
       -0.10724342 0.05503663 -0.114974916 -0.00544322
000090 7c ff 06 be e8 a5 d0 3d da e5 ca 3d 7f 3d cd bd
       -0.13183397 0.10187894 0.09907122 -0.10021495
0000a0 4f da 10 be d1 85 c1 bd c5 a5 09 3d fc 6a 3b bd
       -0.14145778 -0.094493516 0.033605356 -0.045756325
0000b0 01 5e ed bc 59 b0 fc bc 5d 02 b8 3c 74 11 2b bd
       -0.028975489 -0.030845808 0.022462064 -0.04176469
0000c0 a0 eb 8a 3d 3f 46 b2 bd 23 c8 8f bc 0d df d0 3d
       0.06783223 -0.08704805 -0.017551487 0.101987936
0000d0 03 9c 89 bd 34 53 bf 3d b7 ab 67 3d 42 de 36 bd
       -0.0671921 0.093420416 0.056560244 -0.044645555
0000e0 33 ef 2c 3d 28 de 83 bd 4d 70 20 3c 93 22 0d 3d
       0.042220306 -0.06438857 0.0097924 0.0344568
0000f0 1e e3 d7 3d 28 a1 4f bd 40 86 5e bd c9 c6 78 bd
       0.10541366 -0.0506908 -0.05432725 -0.06073645
000100 28 ec 00 be dd 90 c9 3c 9f 48 ce bd db f6 05 bd
       -0.12590086 0.024605209 -0.10072445 -0.032706123
000110 89 17 80 bd e2 73 0f 39 59 29 17 3d 87 de c3 bd
       -0.06254489 0.00013680712 0.036904667 -0.09563928
000120 e4 1f 13 bd 59 9e 3f bc fa 0c 90 bd 4e 2b aa 3c
       -0.035919085 -0.011695468 -0.07033725 0.020772602
000130 d3 f9 20 3d 58 94 b1 bd 1b 78 b5 3d a8 11 b1 3d
       0.03930075 -0.086708724 0.08860799 0.08645946
000140 4a ba 15 bd f5 65 94 3c cd a1 f0 3b bc 15 b7 bc
       -0.036554612 0.018115023 0.007343507 -0.022349231
000150 64 41 a7 bd de ae c7 3d 2b 3f 75 3d c8 3d d0 bd
       -0.08166769 0.0975015 0.059874695 -0.10168034
000160 58 40 c1 bd cb 0f e6 3d 9f 1a 88 3c 35 30 e5 bc
       -0.09436101 0.11233481 0.016614256 -0.027977088
000170 bd b9 ab 3d 76 2b 0f 3d 12 e3 32 3d 48 70 c5 3d
       0.08385036 0.034953557 0.043673582 0.096405566
000180 b4 fe 08 bc bc 7e ee 3d 24 e6 ae bd f2 92 84 bd
       -0.008361507 0.116452664 -0.085399896 -0.0647334
000190 65 e2 a8 3c 35 f7 71 bc 6f b6 8e 3d 13 92 b4 bc
       0.020615766 -0.014768411 0.0696839 -0.02204231
0001a0 ab 43 e5 3c b8 fe ce bc 9b 89 db 3d 8e c1 02 bc
       0.027986368 -0.025267944 0.107196055 -0.007980717
0001b0 5b 8d f3 3a 2a 9f b6 3d 75 91 08 3e c1 b7 03 3e
       0.0018581556 0.08917077 0.13336737 0.12863065
0001c0 21 bb f3 bd 1b 0c bb bd 2a 70 d8 bc f5 c8 cd bc
       -0.119009264 -0.09133168 -0.026420671 -0.025120238
0001d0 54 b0 8f 3d f6 f5 f1 3c 36 f9 f2 bc 0b 18 42 3b
       0.07016054 0.029536229 -0.029659849 0.0029616382
0001e0 e3 0f 5b 3d 2d cf d6 3d 68 21 81 3d d9 00 7a bd
       0.053481948 0.104887344 0.063052 -0.061035965
0001f0 43 7d 01 bd 12 48 80 3d ca 7a 49 bc 4c 9f 9e bd
       -0.0316136 0.06263746 -0.012297342 -0.07745227
000200 67 2d f1 bd e0 c4 8e 3c de 3e 11 bd 83 4a 90 bd
       -0.11776238 0.017427862 -0.035460345 -0.07045462
000210 cc fa bf 3c 9e c9 f2 3d 49 e0 f5 3d f8 12 8e 3d
       0.023435019 0.11854862 0.120056696 0.06937212
000220 76 f2 bb bd 65 b1 8e 3d 22 18 ab 3d 25 31 68 3d
       -0.09177105 0.06967429 0.08354212 0.056687493
000230 55 b8 f8 bc 5d 5b 17 bd f9 27 87 bd 1f 99 e0 bc
       -0.030361334 -0.036952365 -0.06599421 -0.027416764
000240 5f 03 a6 bc 21 23 60 bd eb 28 19 be 66 fb 2f 3d
       -0.02026528 -0.054721 -0.14957015 0.04296436
000250 38 4c 9f bd cf 58 ba bd 7d 84 4a 3d 36 6f cb bd
       -0.077782094 -0.0909897 0.049442757 -0.09933321
000260 27 db 0a 3e 3a 60 08 3e e2 a0 1e bd f3 05 09 bd
       0.13560162 0.13317958 -0.03872765 -0.03345294
000270 60 a3 be bd db 90 f6 3b b9 05 b4 3c 47 03 a3 bd
       -0.09308505 0.0075245923 0.021975385 -0.079596095
000280 3a 14 de 3c a5 ba 99 bb d3 46 3f bd 2e b2 dc b9
       0.027109254 -0.004691439 -0.046698403 -0.00042094424
000290 7e 8b f1 bd af ae af bd fe 7e 95 3b 4d b6 dc 3d
       -0.11794184 -0.0857824 0.004562258 0.107769586
0002a0 6f b6 93 bd 4b 9d 9c 3d a5 70 36 3c e9 6b 56 bd
       -0.07212531 0.07647189 0.011135255 -0.052349005
0002b0 5d 53 b3 38 d6 91 69 3d 15 85 54 3c e2 81 dc 3d
       8.550913e-05 0.057023846 0.012971182 0.10766961
0002c0 c6 ce 0b bd 34 66 a6 bd 8e 2c e1 3d d0 e0 0e bd
       -0.03413274 -0.081249624 0.10994826 -0.034882367
0002d0 cb 81 86 3d cd 03 91 3d a2 6f b0 3c a3 2c dc bd
       0.06567725 0.07080803 0.021537606 -0.10750701
0002e0 12 a2 f4 bd cc 96 6c 3d 22 60 f3 3c 5d 7e 7f 3d
       -0.11944975 0.057761 0.029708926 0.06237637
0002f0 09 60 e9 bd 33 10 89 bc 13 41 c6 3d 5f ea 82 3d
       -0.113952704 -0.016731357 0.09680381 0.06392359
000300 45 0e cf 3d fc f9 c3 3d 51 00 20 bd 84 9d b6 bd
       0.101101436 0.09569165 -0.0390628 -0.089167625
000310 d4 a1 94 bd a7 82 09 3d 9c d1 45 bd 73 22 ff 39
       -0.07257429 0.033571865 -0.048295602 0.00048663057
000320 5a 34 9e 3c dd 7c 8a 3d 76 7f 7a 3d 6b 3d 8e 3d
       0.019312073 0.06762097 0.061156712 0.06945308
000330 26 c1 de 3b 0a ad 8c 3d 3a 58 69 bd cb 4e 47 bd
       0.0067979274 0.06868942 -0.056968905 -0.048659127
000340 da f3 96 bc be 22 8e bd ab 3f de 3d f0 30 00 bd
       -0.018426824 -0.0694022 0.108519875 -0.03129667
000350 09 e3 10 3d c9 79 78 bb be 03 e1 ba ab 2f a2 bd
       0.035372768 -0.0037914386 -0.0017167253 -0.07919248
000360 13 2a a0 bc 57 da de bd ad ce 59 bd d2 c2 bf 3d
       -0.019551313 -0.10881489 -0.053175617 0.09363331
000370 96 b5 e9 bd 1f 27 a5 3c 26 4f d0 3c 79 79 e4 bd
       -0.11411588 0.020160256 0.025428366 -0.111559816
000380 59 01 c3 3c f4 68 98 3d 6b 7a b4 3d 40 81 ba 3c
       0.023804354 0.07441893 0.08812412 0.02276671
000390 37 2e c3 3d 9c d9 c2 3c 60 23 7c 3d 95 30 13 3d
       0.09530299 0.023785405 0.061557174 0.035935003
0003a0 3a 71 a7 bd e0 cb da bc d7 77 af bd ad c0 c1 3d
       -0.08175893 -0.026708543 -0.085677795 0.09460578
0003b0 b5 18 89 3d a4 86 36 bd ac da b5 bc f3 bf 3b 3d
       0.066941656 -0.044561997 -0.022198997 0.045837354
0003c0 9a 44 d9 bd 54 64 61 3b fc ae 6e 3d 37 1e fc 3c
       -0.10608788 0.0034392076 0.058272347 0.030776126
0003d0 35 d4 85 3a b4 46 a0 3d 74 1b 8c 3d 8e 85 dd bd
       0.0010210337 0.078259856 0.06841174 -0.10816489
0003e0 e7 a6 92 3d 2e 29 c4 bd 05 05 ad 3d 18 5b ec 3d
       0.0716074 -0.09578167 0.08448223 0.11540812
0003f0 d4 40 37 3c a2 66 55 bd cd b6 80 bd b5 44 5d bd
       0.01118489 -0.05209983 -0.062848665 -0.054020602

rnn.weight_hh_l0 f4 [64, 64]
000000 8c 99 bf 3d f0 cb c7 3c 70 57 c9 3b d1 2d cb 3c
       0.093554586 0.024389237 0.0061444566 0.02480212
000010 71 7b 93 bd 02 40 be bc 44 90 6f bb 1d 8e 9c bd
       -0.07201279 -0.02322388 -0.0036554495 -0.076442935
000020 f3 5f 9b bb 5f e3 89 bc 2a 8c 30 bd 20 8e 18 bd
       -0.0047416626 -0.016832052 -0.04310242 -0.037244916
000030 c0 dc f9 bd 36 8c ed 3d d0 43 74 3d 6c db b3 3d
       -0.12200308 0.11599009 0.059634984 0.08782086
000040 56 3e d4 bd 86 5a f4 bd 16 6c b8 3d f0 93 ac bc
       -0.10363452 -0.119313285 0.09004991 -0.021066636
000050 f3 e5 ad 3c 2d 9c 75 3d b6 f9 11 3c a4 1f 8c bb
       0.021227812 0.059963394 0.008909633 -0.004276233
000060 e6 c8 93 3d 73 86 c6 3d 8b f8 0c bd a3 34 d3 bd
       0.07216053 0.09693613 -0.034416717 -0.10312774
000070 e6 cb 88 bd dd 7e b3 3d 52 f9 27 3c b2 db d6 3d
       -0.066795155 0.087644316 0.010252314 0.10491122
000080 d4 c7 34 bd a3 c4 ea bd 31 93 1c 3d 4c 01 58 bd
       -0.044135883 -0.11463287 0.03822631 -0.05273561
000090 f2 28 95 bd 46 67 9e 3d 77 61 11 3c f5 fb 17 bc
       -0.072832 0.077345416 0.008873335 -0.00927638
0000a0 61 37 f3 3d ca 19 d9 3d c2 dd c9 bd 70 e3 e3 bd
       0.11875797 0.10600622 -0.0985675 -0.11127365
0000b0 d5 03 77 bd 90 ca c0 bd dc bf 84 bd a9 e8 a5 3d
       -0.06030639 -0.09413636 -0.06481907 0.08101017
0000c0 c2 3a a7 bd 6f b4 e6 3d ed 9e 21 3d cc 35 c1 3b
       -0.08165504 0.11264884 0.039458204 0.0058963057
0000d0 56 1e a0 3c 6a 2d d4 3c 0e 16 1f 3d 51 c6 cb bd
       0.019545715 0.025900561 0.038839392 -0.09949935
0000e0 b0 dc f1 ba c9 1e a8 3d ad 5a fb 3d 7c 09 bd bb
       -0.0018452611 0.08208997 0.122731544 -0.005768953
0000f0 8d 6e b0 bd 0c 43 63 3d bf dd e5 bd 66 37 df 3d
       -0.08614836 0.055483863 -0.11223935 0.10899238
000100 eb 3b 95 3d 56 39 5d 3d cd 53 8f 3c e7 d3 b5 3d
       0.07286819 0.054009758 0.017496014 0.08878308
000110 ea 81 4c bd e2 46 d2 bd 22 f2 84 bd 97 06 b8 3d
       -0.049928583 -0.10267426 -0.06491496 0.08985632
000120 2c f7 77 bd 3a dc c5 bd d3 1b e0 3c 36 65 9c bd
       -0.060538456 -0.096611455 0.027357018 -0.07636492
000130 2f b1 88 bb 51 a3 9e bd d3 c8 da 3c 26 88 a0 bc
       -0.0041715126 -0.07745994 0.026707089 -0.01959617
000140 af 00 74 3c b0 c4 69 3d fc 08 9f bd 11 6e 29 bd
       0.014892741 0.05707234 -0.077653855 -0.041364733
000150 76 70 ac bd fa b1 d2 3d 29 0c 37 bd 82 a0 3c 3d
       -0.08419888 0.102878526 -0.04468933 0.04605151
000160 a7 f7 e4 3c 73 b3 f6 bd c7 17 b0 bd 70 a6 02 bd
       0.027950121 -0.12045946 -0.08598285 -0.03189701
000170 1c c6 be bd 28 24 82 3d b3 8c 9c 3d b1 5f 02 ba
       -0.0931513 0.063545525 0.07644024 -0.00049733656
000180 db b5 87 3c 47 27 04 3d c4 18 26 3d e2 22 b5 bc
       0.016566208 0.03226402 0.040550962 -0.02211136
000190 66 2c 45 bd fa fb 9d bd 6e 6e 8b 3b 70 df c1 3d
       -0.048138045 -0.07714076 0.0042551076 0.094664454
0001a0 6c 09 85 bc c4 9a d6 3d 87 a5 29 3d 27 bd 82 bd
       -0.016239844 0.10478738 0.041417625 -0.06383734
0001b0 45 13 44 3d d0 e4 42 3d f6 8d 5f bd 2f 34 ab bc
       0.04786994 0.047581494 -0.054578744 -0.020898907
0001c0 d5 00 4e bc 8e 4c 2d 3d 79 21 bf 3d 62 00 d9 bc
       -0.012573441 0.042309336 0.09332556 -0.02648944
0001d0 a7 e1 a4 3d 27 45 86 3d 32 f4 d8 bd ae 62 b7 3d
       0.08050852 0.065561585 -0.105934516 0.089543685
0001e0 bc 3e a8 bb e5 f7 be 3d f0 44 be 3d 9a d9 ef bd
       -0.0051344316 0.09324626 0.092904925 -0.11711426
0001f0 d2 89 d2 bd 44 77 64 bc d6 82 26 3d 84 46 a3 bc
       -0.102801934 -0.013944451 0.04065212 -0.019931085
000200 6d 68 f0 bd cd 71 89 3d 45 97 8d bd ff 81 62 3d
       -0.11738668 0.06711159 -0.06913618 0.055299755
000210 44 5c af 3d 24 9c 2c bd 03 cb 97 3d 4e bc 84 3c
       0.0856252 -0.042141095 0.07411768 0.016203072
000220 52 ff 1a bd 3e ca 01 3c 5b ce 31 3d 4f d0 7c 3d
       -0.03784115 0.007921753 0.043409687 0.061722096
000230 c9 3d 8f bd 5c e8 b9 3d 37 a0 6a bd 05 5e d5 bd
       -0.069942065 0.09077522 -0.0572817 -0.104183234
000240 b4 a2 5a bd c4 31 db bd 78 8b 0a 3d f4 81 0c 3c
       -0.053377822 -0.107028514 0.033824414 0.008575905
000250 9b 58 f2 bb ad 14 a6 bd 80 13 82 3d 4c fe 9e 3c
       -0.0073958165 -0.08109412 0.063513756 0.019408368
000260 ff e0 f8 bc 4f 25 b2 3c e5 c8 2e 3d 5a 35 97 bd
       -0.030380724 0.021746306 0.042672057 -0.07383223
000270 1d e6 10 bd 9e d6 62 bd f5 8b db 3d 5d 24 f5 3c
       -0.035375703 -0.055380456 0.10720054 0.029924566
000280 27 4f ba bd 5c 30 b0 3d 61 7e 9b bc e5 b6 11 3c
       -0.09097128 0.08602974 -0.01898116 0.008893703
000290 2d 02 80 3c 5c be 72 bc f2 ff eb 3d 50 65 56 3d
       0.015626037 -0.014815893 0.11523427 0.052342713
0002a0 36 b7 d4 3c 91 95 33 bd 09 24 df 3c c1 44 b6 bd
       0.025966268 -0.04384381 0.027238863 -0.088998325
0002b0 e6 a4 2b bd 88 c3 7a 3d 46 94 f5 bd d7 13 4f bb
       -0.041905306 0.06122163 -0.119911715 -0.0031597519
0002c0 af ee 3a bd 06 73 80 3d 8b c7 9c bd cc a5 ae 3c
       -0.045637783 0.06271939 -0.07655247 0.021319292
0002d0 f1 54 0e bd 2a f7 d0 3d 9a 33 96 bc 7d ed b5 bd
       -0.034748975 0.10203393 -0.018335152 -0.08883188
0002e0 8d 1d 1b bd 37 e2 af 3d 74 71 3a 3d f0 16 d7 3c
       -0.03786998 0.08588069 0.045518354 0.026256055
0002f0 9f 15 9a 3d 95 f3 3e 3d 8b 65 7c bc e5 56 84 bd
       0.07523655 0.046619017 -0.015405069 -0.06461886
000300 c5 79 ed bd 6f ef 82 3d 56 7c c6 3d 9a 0c 2e bd
       -0.11595491 0.063933246 0.09691684 -0.042492487
000310 d4 1a 6e bd 7e 56 76 3c ec bd b8 bb c5 43 c1 3d
       -0.058131054 0.01503527 -0.005637875 0.09436754
000320 69 1d d0 ba ef 3a 40 bb fe 31 eb bd 9f d4 08 3d
       -0.0015877906 -0.0029332002 -0.11484145 0.033405896
000330 0e a5 18 39 f0 f1 e7 3c 84 52 9b 3d 80 23 6d 3d
       0.00014557337 0.028313607 0.07584098 0.057895184
000340 37 6b 12 bb 28 cd 8b bb e4 5a 7c bd 01 8d ec 3d
       -0.0022341737 -0.0042664 -0.061610118 0.11550332
000350 60 bf b7 3d 93 83 e1 3b bc 99 f1 3d 7b 40 cf 3d
       0.08972049 0.00688214 0.11796901 0.101197205
000360 2e 8e 92 3d 76 7e 81 3d 35 9b 45 3d 67 98 e5 bc
       0.07156025 0.06322949 0.04824372 -0.028026773
000370 1a fd 1b 3c a9 3e ca 3d ac 3b bf bc 86 0b 09 3d
       0.009520793 0.09875233 -0.023343883 0.033458255
000380 a0 6f fd bc 18 56 9d 3c 31 a9 99 3d 4f 9e a5 3d
       -0.030937016 0.019206092 0.07502974 0.080868356
000390 85 e5 6d 3d ca 35 57 3d e8 65 02 bd 0a 48 dc 3d
       0.058080215 0.05254153 -0.031835467 0.10755928
0003a0 a6 36 aa 3d 84 2a f0 3d 31 09 d8 bd 51 46 6c bd
       0.083112046 0.11726859 -0.10548628 -0.057684246
0003b0 5b 89 cf bd 6b b6 b4 3b 66 30 bc 3d d2 1a aa bd
       -0.1013362 0.00551491 0.09188919 -0.08305897
0003c0 7b 61 e2 3c 8a f9 28 38 fa ff f2 bd 34 44 97 bb
       0.027634373 4.0286723e-05 -0.1186523 -0.0046162847
0003d0 f9 21 57 bc e9 11 66 bd 8b a7 a1 bd cb c7 8e 3d
       -0.013130658 -0.056169424 -0.078932844 0.06971701
0003e0 97 47 6b bc 2e ab d0 bc ef 7c 2d bd 39 e1 56 bc
       -0.01436033 -0.02547225 -0.042355474 -0.013115221
0003f0 bf 7a 20 bd f4 f6 95 bd 0f fd 57 3d 3d 65 73 bb
       -0.03917956 -0.07322493 0.05273157 -0.00371392

rnn.bias_ih_l0 f4 [64]
000000 20 45 4b bd 86 9c 85 3d f4 2f a0 3d 17 9e 79 3c
       -0.04962647 0.06523995 0.07821646 0.015235445
000010 5f 44 e2 3c 24 9a 0a 3d 7b 69 e6 3d f7 98 4b 3d
       0.027620493 0.033838406 0.112505876 0.049706426
000020 66 a6 f2 3d 6a 2d ea 3c df e1 99 3c 8f 79 09 be
       0.11848144 0.028586108 0.018784462 -0.13425277
000030 bc 95 f6 bc ba f6 0a bd 6f 65 44 3d e6 c4 80 bb
       -0.030100696 -0.033926703 0.047948297 -0.003929722
000040 c4 15 23 be f9 33 24 3e 7e cf 53 bd 26 e7 9a bd
       -0.15926272 0.16035451 -0.05171155 -0.07563619
000050 e9 55 fc bd 46 68 89 3d 12 43 89 bd 64 72 13 be
       -0.123210736 0.06709342 -0.06702246 -0.14399105
000060 ca f5 19 3d 50 7d c5 3c 88 f5 c6 3d 39 e7 0c be
       0.03758792 0.024107605 0.097148 -0.1376008
000070 ea 13 1f bd 4d b9 32 bd ab c4 8d bd 6d d8 62 3c
       -0.03883735 -0.043633748 -0.06922277 0.013845545
000080 25 6b 1a 3e b4 34 8a 3b 3c 8e 08 3e c3 71 47 3d
       0.15079935 0.0042177085 0.13335508 0.048692476
000090 86 11 af bd b9 14 62 bd 17 dd 50 3d 49 f3 43 3d
       -0.08548264 -0.055195544 0.050992098 0.047839437
0000a0 29 33 71 bd 95 50 9a bb a0 24 08 be 87 11 e7 bd
       -0.05888668 -0.004709313 -0.13295221 -0.1128264
0000b0 bc 4b 2f bc d4 8d 9d 3c cb 8c 6f bc c1 41 32 3d
       -0.010699209 0.019232668 -0.01462097 0.04351974
0000c0 e9 5f 00 be b1 a0 3d 3d cd f6 00 be 13 5e b0 3b
       -0.12536587 0.046295825 -0.12594147 0.0053823083
0000d0 bb 83 c5 3d f2 55 05 3d 96 cd f7 bd b9 91 0a be
       0.09644266 0.032552667 -0.12099759 -0.13532151
0000e0 85 8f 32 bd 5f b2 0c bd 01 36 19 be c7 e3 e4 3d
       -0.043593902 -0.034349795 -0.14962007 0.111762576
0000f0 47 e2 27 bd 5a 4d 40 bd 6e 59 d8 3d c2 b4 dd bd
       -0.04098728 -0.04694877 0.10563932 -0.108254924

rnn.bias_hh_l0 f4 [64]
000000 07 7f ff 3c d8 d7 c5 3d 63 d5 e4 3c ec 90 ba 3d
       0.031188501 0.096603096 0.027933782 0.09109673
000010 eb b4 51 bd 8c 6a 2e be 63 31 14 3e bb 65 09 be
       -0.051197927 -0.17032832 0.14471965 -0.13417713
000020 ae 45 69 bc 21 ae c1 3d ad 17 95 bd 46 0a 1e bd
       -0.014237804 0.094570406 -0.072799064 -0.038584016
000030 7b 80 8c bd 1a c8 de 3c a6 9c bd bc 6f 75 9c 3d
       -0.06860443 0.027195025 -0.023145985 0.07639586
000040 69 21 90 3d 6f 91 06 bd e4 38 a5 3d 55 3f 18 3c
       0.070376225 -0.03285354 0.08067492 0.009292443
000050 72 88 46 be b4 87 c1 3d 62 3d db bd d5 3b 49 3d
       -0.19387987 0.094497114 -0.10705067 0.049129326
000060 7b 4f c5 bc b0 1f c5 bd 6f fb f9 bd e6 b5 10 3c
       -0.02408575 -0.096251845 -0.1220616 0.0088324305
000070 7d 3b 08 be 61 8c 8e 3d 12 4b 9f 3c 22 78 bc bd
       -0.13303943 0.06960369 0.019444976 -0.09202601
000080 ce c8 ce 3d a3 b8 a1 bd 82 25 2a 3d 83 41 55 bb
       0.10096894 -0.07896545 0.041539676 -0.0032540269
000090 83 b3 72 3d 01 e1 15 be b9 77 4c bd 4f c0 89 bd
       0.059253227 -0.14636613 -0.049918864 -0.06726133
0000a0 58 97 ed bc 5b 55 b8 3c 9b ce db bd e9 d1 99 bc
       -0.02900283 0.022501638 -0.10732766 -0.01877685
0000b0 58 eb dc 3c 35 92 eb bd 3b 19 dd 3b 53 82 8c 3d
       0.02696769 -0.11502496 0.0067473925 0.06860795
0000c0 70 ef 1e 3d 1e 51 78 3d 88 4d a6 bd 37 fc 40 bd
       0.038802564 0.060624234 -0.08120257 -0.04711553
0000d0 9a 08 8f 3d 3b 6b 3d 3d 36 8e a7 bc 93 65 3e 3d
       0.069840625 0.04624484 -0.020453554 0.046483587
0000e0 ad bc 80 bd 2d 0b dc bd 5e 29 f6 bd db d3 8c bd
       -0.06285987 -0.10744319 -0.12019609 -0.06876346
0000f0 a5 4f 04 3d 2f a1 3b 3d 9d 8a 34 bd 2f cd a5 bc
       0.032302517 0.045808014 -0.044077504 -0.02023944

output_net.weight f4 [2, 64]
000000 b0 f0 65 ba 46 b2 96 3c 45 9a 88 bd fc 91 96 3d
       -0.0008771522 0.018395554 -0.066700496 0.07352063
000010 e9 5e 9c bd a5 f3 09 be 96 b0 73 3d 44 05 01 bd
       -0.0763529 -0.1347185 0.059494577 -0.031499162
000020 b5 4b 0d 3d 5c f7 d4 b9 e0 09 63 3c 9c a9 36 3d
       0.034496028 -0.00040620088 0.013857335 0.044595346
000030 d9 f3 f5 bd 69 2f 67 bd 03 95 04 3e 7b 53 86 3d
       -0.12009401 -0.0564417 0.12947468 0.065588914
000040 21 88 2d bd 54 35 10 3e 27 a3 bd 3d 31 ea c9 3d
       -0.04236615 0.14082843 0.092596345 0.098591216
000050 15 db 46 be 19 03 3b 3e 3a c9 0a be ed c0 3e be
       -0.1941951 0.182629 -0.13553324 -0.18628283
000060 ea 2e 18 3d 94 ef c9 bc d7 9b ea bd 7c 8e f8 3c
       0.037154116 -0.024650373 -0.11455505 0.03034138
000070 59 6a 4c bc 9d 75 83 bd a4 23 47 3c 9c 02 29 3d
       -0.012476527 -0.06418917 0.0121544935 0.041262254
000080 54 31 6b 3d 35 0b ae 3d 65 0a fd 3d 2e 47 83 3d
       0.05742009 0.08498231 0.12355498 0.06410061
000090 b5 3d 98 bd 33 b6 06 be 76 38 a0 bc 66 60 56 bd
       -0.07433645 -0.13155441 -0.019558173 -0.052338026
0000a0 7a 54 02 be 6a 4c c0 bd fc d2 12 be ba 82 86 bc
       -0.12727538 -0.09389575 -0.14338297 -0.016419757
0000b0 22 c5 6d bd c1 e7 17 be b9 12 0b bd ad 70 7a bd
       -0.05804933 -0.14834501 -0.033953402 -0.061142612
0000c0 32 e3 a4 bd 2b 98 dc 3d 05 9c 02 3d 93 9f a6 3d
       -0.080511466 0.10771211 0.031887073 0.08135905
0000d0 9a e0 00 3e 54 b9 15 3d f7 c1 c8 bd f6 69 26 bd
       0.12585679 0.036553696 -0.09802621 -0.040628396
0000e0 dd ca 84 38 bd 8a 56 bd bb 5c c6 3c 33 e2 b8 3d
       6.332037e-05 -0.052378405 0.02421414 0.09027519
0000f0 68 c5 08 be 23 52 e3 3b 1b 07 30 3c dc c1 bb 3c
       -0.13356555 0.0069372817 0.010743882 0.022919588
000100 8c 69 d8 bd 01 34 54 3d ea 1b 71 bd 77 4a 2d 3c
       -0.105670065 0.051807407 -0.05886451 0.010576836
000110 0d d3 dc bc 8c 59 c6 3d 19 86 a1 bd 34 56 a7 bd
       -0.026956106 0.096850485 -0.07886905 -0.08170739
000120 bb 46 f4 bd 35 4d 1e 3d cf 4b 2c 3d 11 af 95 3d
       -0.11927553 0.03864785 0.042064484 0.07308782
000130 b3 bb 5b bd 33 32 c9 3c da 82 75 bd 57 cd d7 bc
       -0.0536458 0.02456007 -0.059939243 -0.02634303
000140 30 3b 0b 3e da 2d 16 be cb f6 75 3d 9c 8d 09 be
       0.13596797 -0.14665928 0.060049813 -0.13432926
000150 22 dd 0a 3e 9c b4 be bd c6 b3 99 3d 20 5f cf bc
       0.13560918 -0.09311792 0.07504992 -0.025313914
000160 4a dc 88 3d f1 78 6c 3d f9 84 a8 bd 10 47 b1 bc
       0.06682642 0.057732526 -0.082284875 -0.02164033
000170 49 ec bf 3d 81 d4 c5 bd 1e bc 9f 3d 8a e1 51 bc
       0.0937124 -0.096596725 0.077995524 -0.01281012
000180 fd a5 37 be 1e 4f 2e 3d cf 61 cb bd 60 66 fd bd
       -0.17934413 0.04255592 -0.09930765 -0.12373042
000190 83 5a 3c 3d 76 ff c1 3d dd de ed 3d 41 32 0e 3e
       0.045984756 0.094725534 0.116147734 0.13886358
0001a0 46 f6 74 3d f3 fe 61 bd 59 76 39 3d b4 85 e2 3d
       0.059805177 -0.05517478 0.04527888 0.11060658
0001b0 a6 7b bb bd bc bb 08 3e 8b 80 8d 3d d7 40 5e 3d
       -0.091544434 0.13352865 0.06909283 0.054261055
0001c0 e8 dd b5 3d 0f 61 0a be cd d5 b2 3d 15 29 19 bc
       0.08880216 -0.13513587 0.087321855 -0.009348174
0001d0 49 af 3c bb ab 66 ad bd 5f 61 f8 3d c7 28 f9 3b
       -0.0028791002 -0.08466848 0.12127947 0.007603738
0001e0 4e d8 a6 3c 18 78 c2 bd 72 33 2a 3e 85 ff 0d be
       0.020366814 -0.09495562 0.16621187 -0.13867004
0001f0 24 0a f7 3d 66 48 6d 3d 8f c6 9d 3c 63 e2 d2 bd
       0.12062481 0.057930373 0.01925972 -0.10297086

output_net.bias f4 [2]
000000 b7 93 02 bf b2 4c e4 3e
       -0.51006645 0.44589764
