pred_training/trained_rnn_models/T3_resnet50/pred_rnn/cosine_False_0.001_0.9mammograms_pred_rnn_0.49_0.pth (torch, 641604 bytes, 26 tensors)

init_net.0.weight f4 [64, 15]
-0.0019169047 0.13734953 -0.21073017 -0.18842776 -0.098613866 0.06865827 -0.005072911 0.20300919
-0.02272178 0.067750655 -0.07737775 -0.05032807 -0.24460466 -0.16956885 -0.10554443 0.009447219
0.10129649 0.15370512 -0.17357813 -0.11149468 0.092997074 0.2127486 -0.05269215 0.19160113
-0.041268554 0.027092377 0.23184389 -0.23751809 -0.16103204 -0.06481972 -0.09974227 0.22112866
-0.16596557 -0.11786236 -0.17887795 -0.23979443 -0.1495247 0.2200752 0.11424138 0.12409291
0.013464846 -0.13126604 0.04331033 -0.23915587 -0.18500385 -0.13172764 0.1614152 0.15000251
-0.11355119 -0.00923843 0.1637514 0.25429177 0.10161697 0.034588814 0.17166996 -0.15075533
0.047707845 -0.19850703 -0.17770155 -0.13226458 0.11575424 0.102871105 -0.15167843 0.077350646
0.14055726 -0.03231634 0.00969764 0.05931419 0.15883656 0.24584459 -0.19730833 -0.09382943
0.10060626 0.21202825 0.22280544 0.22595173 0.051143203 -0.22252162 0.0235535 -0.16017824
-0.23861493 0.22775766 0.19470112 -0.25540167 0.04792635 -0.04313202 -0.042134248 -0.11718746
0.09877261 -0.1516517 0.093843 0.12962827 0.18344127 0.09573514 -0.25340903 -0.1660906
0.12808537 0.0536056 -0.19972159 -0.14742829 0.24086761 0.17251849 -0.11160657 -0.064141
-0.24390063 -0.0046020458 -0.19281106 -0.19749592 -0.014107547 0.03844272 -0.104855016 0.15192671
-0.15580861 0.23232046 0.17546229 -0.21591185 -0.06372363 0.0115530705 0.03735612 0.060725443
0.1003646 0.015260881 -0.12493956 0.12115399 -0.24560337 -0.15175495 -0.064169645 -0.12472501
-0.08957223 -0.20985368 -0.05446301 0.05472965 -0.16680336 -0.013227197 0.18328445 -0.026185501
0.0067746593 -0.022450348 0.051817168 0.16279851 0.24253027 0.16200486 0.24305011 -0.018528212
-0.23000373 -0.12138143 0.17432691 -0.001713823 -0.12796582 -0.1962043 -0.23957244 -0.21611558
-0.05193974 0.14041229 0.13842416 -0.24693044 0.15968841 -0.20035145 -0.05412941 -0.10381684
-0.04931669 -0.050271023 -0.22975495 -0.22109647 -0.040064566 0.0033172756 -0.11636052 0.09641236
-0.23044838 -0.017279245 0.22516416 -0.1044952 0.23119488 0.092714585 -0.23106468 0.16199306
-0.02953255 -0.11431589 0.20465514 -0.20690237 0.027478538 -0.053558085 0.18286392 0.071471386
0.12302726 0.09042181 -0.06151919 -0.05383606 -0.21099113 0.13873333 0.20328736 0.17518686
-0.18059663 0.011491731 -0.1804893 -0.14103985 -0.14899811 0.087701336 -0.15257597 -0.005586016
0.010771008 0.16537845 -0.19352771 -0.1757612 -0.1486677 0.17920876 -0.092035055 0.21599944
0.09298285 0.032420974 -0.0019172374 -0.050619274 0.032126144 -0.05846473 -0.0017990281 0.03266857
-0.20027354 -0.13419713 0.20674163 -0.20778613 -0.018385047 0.25328526 0.092490084 0.0072458815
-0.22188441 0.1267253 -0.1824203 -0.072749324 -0.08590466 -0.03791587 0.0028006088 0.21107134
0.03196202 0.2293228 0.15662143 -0.16187033 0.11483318 -0.18099174 -0.10863446 0.075306326
0.08455939 0.19230348 -0.082228445 0.0004098802 0.13181394 -0.24761155 0.18547958 -0.21171618
0.003535626 -0.043526214 -0.13484891 0.03384043 0.21174718 -0.074433416 -0.15200773 -0.09472451
00000000: a640 fbba 5ba5 0c3e a6c9 57be 35f3 40be
00000010: 11f6 c9bd b59c 8c3d a93a a6bb a4e1 4f3e
00000020: 0723 babc dbc0 8a3d 3a78 9ebd ce24 4ebd
00000030: a579 7abe 75a3 2dbe ae27 d8bd 82c8 1a3c
00000040: 8974 cf3d e064 1d3e 77be 31be 5357 e4bd
00000050: 4075 be3d c5da 593e b9d3 57bd 1633 443e
00000060: 3709 29bd d5f0 dd3c 7c68 6d3e f137 73be
00000070: 95e5 24be 34c0 84bd ad45 ccbd 8d6f 623e
00000080: e1f2 29be d261 f1bd c82b 37be ac8c 75be
00000090: 011d 19be 655b 613e 62f7 e93d 6c24 fe3d
000000a0: a89b 5c3c 9b6a 06be 2c66 313d 47e5 74be
000000b0: a671 3dbe 9ce3 06be 074a 253e 429a 193e
000000c0: 878d e8bd c95c 17bc 72ae 273e 8832 823e
000000d0: 8f1c d03d 00ad 0d3d 40ca 2f3e 9b5f 1abe
000000e0: 4d69 433d 6d45 4bbe 65f7 35be 5e70 07be
000000f0: 8f10 ed3d 16ae d23d 9751 1bbe 046a 9e3d
00000100: 3eee 0f3e 235e 04bd dae2 1e3c 70f3 723d
00000110: 0da6 223e afbe 7b3e 320b 4abe a529 c0bd
00000120: a80a ce3d ef1d 593e 1c27 643e e45f 673e
00000130: 897b 513d b5dc 63be 45f3 c03c c405 24be
00000140: 7957 74be 4e39 693e bb5f 473e 02c4 82be
00000150: 6c4e 443d 33ab 30bd f694 2cbd fbff efbd
00000160: 4b49 ca3d 954a 1bbe c230 c03d 46bd 043e
00000170: 07d8 3b3e c910 c43d d4be 81be a713 2abe
00000180: d028 033e 8c91 5b3d d183 4cbe 71f7 16be
00000190: 00a6 763e b0a8 303e fc91 e4bd 5b5c 83bd
000001a0: 16c1 79be c2cc 96bb 4370 45be 5f3c 4abe
000001b0: 5723 67bc 1d76 1d3d 3abe d6bd ad92 1b3e
000001c0: 4b8c 1fbe 6ae5 6d3e 63ac 333e ff17 5dbe
000001d0: 8981 82bd 1749 3d3c bb02 193d 3ebb 783d
000001e0: f58b cd3d c608 7a3c 50e0 ffbd 951f f83d
000001f0: 737f 7bbe a665 1bbe 606b 83bd d36f ffbd
00000200: a571 b7bd e2e3 56be 9b14 5fbd 332c 603d
00000210: 80ce 2abe e3b6 58bc ebae 3b3e fa82 d6bc
00000220: f6fd dd3b cbe9 b7bc 3d3e 543d a7b4 263e
00000230: db59 783e 9ae4 253e 21e2 783e 7ac8 97bc
00000240: 1986 6bbe d496 f8bd c182 323e 5ba2 e0ba
00000250: 7909 03be c8e9 48be 7a52 75be 674d 5dbe
00000260: c4be 54bd 3dc8 0f3e 10bf 0d3e 55db 7cbe
00000270: 5c85 233e ee28 4dbe cdb6 5dbd ec9d d4bd
00000280: 4c00 4abd fde8 4dbd e244 6bbe 1d67 62be
00000290: be1a 24bd a666 593b 6d4e eebd d873 c53d
000002a0: a9fa 6bbe 348d 8dbc 6f91 663e 9401 d6bd
000002b0: 5abe 6c3e 25e1 bd3d 389c 6cbe 82e1 253e
000002c0: 3fee f1bc 731e eabd 1e91 513e 37de 53be
000002d0: ac1a e13c b95f 5bbd ae40 3b3e 975f 923d
000002e0: b7f5 fb3d 122f b93d 8cfb 7bbd 3383 5cbd
000002f0: 0f0e 58be 1c10 0e3e 902a 503e 2f64 333e
00000300: 53ee 38be d047 3c3c 30d2 38be c06c 10be
00000310: f692 18be c29c b33d e03c 1cbe e60a b7bb
00000320: e278 303c f858 293e 212c 46be befa 33be
00000330: 583c 18be 8082 373e e07c bcbd f52e 5d3e
00000340: cb6d be3d dbcb 043d d04b fbba 2856 4fbd
00000350: b496 033d b678 6fbd 5ecd ebba 7acf 053d
00000360: 8214 4dbe f96a 09be 14b4 533e e3c5 54be
00000370: 3d9c 96bc 9bae 813e 716b bd3d dc6e ed3b
00000380: ab35 63be 47c4 013e 63cc 3abe 99fd 94bd
00000390: c8ee afbd ac4d 1bbd 6b8a 373b 1623 583e
000003a0: 9bea 023d 99d3 6a3e 5e61 203e 56c1 25be
000003b0: a92d eb3d e655 39be be7b debd 343a 9a3d
000003c0: 792d ad3d 34eb 443e 6367 a8bd 30e5 d639
000003d0: 3cfa 063e e28d 7dbe 5cee 3d3e 20cc 58be
000003e0: f6b5 673b 8b48 32bd d515 0abe 439c 0a3d
000003f0: 41d4 583e 8c70 98bd eaa7 1bbe edfe c1bd

init_net.0.bias f4 [64]
-0.18298285 0.055249605 0.23303778 -0.25208542 -0.25471252 0.03311671 0.1931013 -0.15579604
0.05627577 0.17928697 0.07891625 0.05532327 0.25552744 0.16719913 -0.14400555 0.02201154
0.13121362 0.22582775 -0.2544445 0.13901791 -0.0744008 -0.25061557 0.05687591 -0.1391516
0.036489446 -0.16595946 -0.19265154 -0.021342004 -0.086077794 0.14986572 0.022471163 0.20069906
0.048005324 -0.08233165 0.17333874 0.013762187 0.0480854 -0.08245912 0.0010476871 -0.04929434
-0.021872701 -0.199545 -0.0019470237 -0.21251358 -0.055287536 0.14805911 -0.17800912 -0.17263576
-0.0626768 -0.070206515 0.04225652 0.04255013 0.13009995 -0.17637196 -0.017997336 0.14302243
0.22095598 -0.018774414 -0.14730467 0.07373217 0.14545588 -0.15996543 -0.14869228 0.11315802
00000000: db5f 3bbe 694d 623d 75a1 6e3e 5711 81be
00000010: ae69 82be 63a5 073d 59bc 453e ff88 1fbe
00000020: 6c81 663d 0197 373e d89e a13d a79a 623d
00000030: 7ed4 823e 4036 2b3e 3176 13be 8c51 b43c
00000040: dd5c 063e 643f 673e 8d46 82be b65a 0e3e
00000050: 725f 98bd af50 80be b7f6 683d c27d 0ebe
00000060: f575 153d 47f1 29be 7246 45be 6dd5 aebc
00000070: 8e49 b0bd 6676 193e 7215 b83c 0e84 4d3e
00000080: 3ba1 443d 7f9d a8bd b67f 313e cc7a 613c
00000090: 32f5 443d 54e0 a8bd 8c52 893a dde8 49bd
000000a0: 612e b3bc 8655 4cbe 4633 ffba 299d 59be
000000b0: 2f75 62bd cf9c 173e 0648 36be 6ec7 30be
000000c0: b25c 80bd 6fc8 8fbd 2c15 2d3d 0c49 2e3d
000000d0: ec38 053e da9a 34be 266f 93bc 7974 123e
000000e0: 4942 623e cdcc 99bc 09d7 16be e400 973d
000000f0: 63f2 143e facd 23be ca42 18be 64bf e73d

init_net.2.weight f4 [128, 64]
-0.008684919 -0.11718074 -0.071513295 0.050237272 -0.04207368 0.08542423 0.09779361 0.018031495
-0.009813566 -0.039452575 -0.006304559 0.022470605 -0.09481919 -0.029830541 -0.10310736 0.076052085
-0.07908333 0.11295974 -0.031985093 -0.07116531 0.05954222 0.018466607 0.08558869 0.051695574
-0.11943079 0.07836881 -0.023394544 -0.054920074 0.07871311 0.090377435 -0.10900521 -0.011322554
0.10176979 0.048005536 0.10440037 -0.04260999 -0.0683866 0.10658401 0.05160666 0.11891186
-0.051806286 -0.07961199 -0.014566829 -0.11672696 0.048527803 0.091352634 0.029708263 -0.012280634
0.06139553 -0.07869963 0.12108219 -0.12339672 -0.11890541 -0.029291546 0.101238705 0.012401877
0.047450263 -0.0909644 0.045136802 -0.014024067 0.04953331 0.087540135 0.05385914 -0.010544878
-0.0076354276 -0.077877715 -0.044883806 0.08051102 -0.049747992 0.076803826 -0.049404114 -0.028868621
0.0026210146 -0.1138822 -0.0012863952 -0.012612484 -0.011309247 -0.02504393 0.09772008 0.0914428
-0.084198914 0.05722063 -0.09726813 -0.105728105 0.037876695 0.0018077593 -0.058139656 -0.11961955
-0.048014548 0.041363545 -0.11479951 -0.12058579 0.015720446 -0.08932728 -0.10867069 -0.047906198
-0.01998294 -0.11263717 -0.082798585 0.007958009 -0.11689617 -0.017429253 -0.080119364 -0.0860378
0.048676606 -0.095440745 -0.09398469 0.07067007 0.023099462 0.112786464 -0.03319185 -0.059913542
-0.011549334 0.0005976829 0.09431754 -0.12364779 -0.009033339 0.054831114 -0.068274505 -0.06299461
0.0597101 -0.11890225 0.029284278 -0.09618878 0.061414815 -0.10598701 0.07617982 -0.11733862
-0.104191154 0.001965899 0.09771127 -0.10611893 -0.055255137 0.10903585 -0.020531982 0.051351987
-0.1192282 -0.038849242 -0.06290363 0.104614824 0.05162609 -0.090170056 0.019987654 -0.0013944485
-0.05074463 -0.070425816 -0.04109698 0.097901806 -0.08884615 -0.08828324 -0.037921548 0.002219962
0.0337647 0.0037519617 -0.029771162 -0.07499866 -0.02223395 -0.04987303 0.10021899 -0.12051259
-0.07904504 -0.10084734 -0.022628129 0.096758254 0.1086593 -0.1079029 -0.00530097 0.072859086
0.054669812 0.10156074 -0.0033890272 -0.08326384 0.0820749 -0.042418435 0.06424319 -0.030498905
0.05276661 0.11151107 0.11547317 -0.11262966 -0.08178676 -0.051249675 -0.07903198 0.11894187
-0.010761956 -0.08209578 -0.0550762 -0.068254426 0.05075991 -0.10811684 -0.11555084 -0.1221879
0.053364947 0.061273977 -0.07698606 0.030735495 0.091497056 0.017990315 -0.026255041 0.009157971
-0.013293062 0.06239678 -0.084168516 0.06284683 0.069842994 -0.07512744 0.1012154 0.12174221
-0.048886474 -0.0347534 0.06177055 -0.09713062 0.049018197 0.028917348 0.07810248 -0.10767408
-0.102979735 0.05566977 0.044641636 -0.11538451 -0.06912457 -0.11341526 -0.08881107 -0.055944398
0.102575794 -0.02467305 0.07119199 0.117699444 0.05648929 -0.11096435 0.0623689 0.047273405
0.09607113 -0.12227496 0.07622741 0.10145854 -0.11532878 0.012959851 0.1058091 -0.09015753
0.040663373 0.05476963 0.032467682 0.12322876 0.10147207 0.10634623 -0.015450741 0.10396071
-0.11553266 -0.066900216 -0.02652006 -0.036844112 0.114474595 0.058464374 0.07980078 0.084314205
00000000: 314b 0ebc 75fc efbd 9075 92bd 99c5 4d3d
00000010: 7355 2cbd e6f2 ae3d 0448 c83d c9b6 933c
00000020: 14c9 20bc 0699 21bd 7996 cebb 4614 b83c
00000030: 9030 c2bd 2e5f f4bc f429 d3bd 32c1 9b3d
00000040: 71f6 a1bd 7057 e73d cd02 03bd 1ebf 91bd
00000050: 8be2 733d 4847 973c 2049 af3d bdbe 533d
00000060: 2198 f4bd d47f a03d eaa5 bfbc dff3 60bd
00000070: 5734 a13d ce17 b93d 203e dfbd 3c82 39bc
00000080: ae6c d03d 74a1 443d dccf d53d d087 2ebd
00000090: 460e 8cbd b848 da3d 8161 533d 1088 f33d
000000a0: d432 54bd 9c0b a3bd b6a9 6ebc 8b0e efbd
000000b0: 17c5 463d 1717 bb3d be5e f33c b634 49bc
000000c0: e179 7b3d 462d a1bd f0f9 f73d 6bb7 fcbd
000000d0: ae84 f3bd d3f4 efbc 3d56 cf3d 3e31 4b3c
000000e0: 355b 423d 8b4b babd 5ee1 383d 33c5 65bc
000000f0: 71e3 4a3d 3e48 b33d 679b 5c3d 6dc4 2cbc
00000100: 9c32 fabb 5a7e 9fbd 15d8 37bd f6e2 a43d
00000110: 8dc4 4bbd 534b 9d3d f85b 4abd e37d ecbc
00000120: 54c5 2b3b 123b e9bd 439c a8ba 98a4 4ebc
00000130: 6c4a 39bc ee28 cdbc 7721 c83d 5d46 bb3d
00000140: 7b70 acbd 2e60 6a3d 8334 c7bd fa87 d8bd
00000150: 9824 1b3d 56f2 ec3a d923 6ebd 18fb f4bd
00000160: e7aa 44bd d26c 293d 011c ebbd aff5 f6bd
00000170: 2ac8 803c 39f1 b6bd bd8e debd 4a39 44bd
00000180: 43b3 a3bc 51ae e6bd 4e92 a9bd 4f62 023c
00000190: 4267 efbd cbc7 8ebc 9f15 a4bd 9634 b0bd
000001a0: 1f61 473d 7076 c3bd 0c7b c0bd 78bb 903d
000001b0: 153b bd3c 97fc e63d 2df4 07bd e767 75bd
000001c0: 6b39 3dbc d2ad 1c3a 8e29 c13d 0d3b fdbd
000001d0: 9200 14bc 9796 603d 81d3 8bbd 5103 81bd
000001e0: 9492 743d 0683 f3bd 95e5 ef3c a0fe c4bd
000001f0: 1a8e 7b3d b80f d9bd 2a04 9c3d 3b4f f0bd
00000200: 2c62 d5bd 50d6 003b d91c c83d e254 d9bd
00000210: 3653 62bd 304e df3d b032 a8bc 7656 523d
00000220: ea2d f4bd 6220 1fbd 9ed3 80bd 4c40 d63d
00000230: e175 533d 14ab b8bd 26bd a33c edc5 b6ba
00000240: 9ad9 4fbd 693b 90bd 4f55 28bd be80 c83d
00000250: f8f4 b5bd d8cd b4bd a053 1bbd c87c 113b
00000260: db4c 0a3d 79e3 753b a7e2 f3bc e698 99bd
00000270: f923 b6bc aa47 4cbd 9d3f cd3d 4ecf f6bd
00000280: 5ee2 a1bd 0d89 cebd a05e b9bc 3129 c63d
00000290: c488 de3d 32fc dcbd c2b3 adbb 2537 953d
000002a0: 74ed 5f3d 14ff cf3d 711a 5ebb 3b86 aabd
000002b0: e316 a83d f4be 2dbd ef91 833d d7d8 f9bc
000002c0: cd21 583d ea5f e43d 337d ec3d 61aa e6bd
000002d0: d17f a7bd 2eeb 51bd 85db a1bd cc97 f33d
000002e0: ea52 30bc d521 a8bd 9597 61bd fac8 8bbd
000002f0: a0e9 4f3d 5d6c ddbd eba5 ecbd a63d fabd
00000300: 3495 5a3d 6cfa 7a3d deaa 9dbd 01c9 fb3c
00000310: cf62 bb3d 6d60 933c d014 d7bc 500b 163c
00000320: 25cb 59bc c493 7f3d 8b60 acbd d7b5 803d
00000330: d809 8f3d 6adc 99bd 054a cf3d fb53 f93d
00000340: 2f3d 48bd 9559 0ebd 1e03 7d3d 6bec c6bd
00000350: 4ec7 483d 13e4 ec3c 31f4 9f3d 3a84 dcbd
00000360: 0ae7 d2bd fc05 643d 26da 363d b74e ecbd
00000370: 2f91 8dbd 4346 e8bd 94e2 b5bd f425 65bd
00000380: 4213 d23d 231f cabc 1bcd 913d 680c f13d
00000390: 5061 673d 4741 e3bd 8876 7f3d c2a1 413d
000003a0: f1c0 c43d 4b6b fabd 1e1d 9c3d 7fc9 cf3d
000003b0: 7f31 ecbd 8e55 543c 71b2 d83d 83a4 b8bd
000003c0: a38e 263d 1f56 603d d5fc 043d 5c5f fc3d
000003d0: 97d0 cf3d 0dcc d93d 1b25 7dbc 5ae9 d43d
000003e0: 639c ecbd fb02 89bd 9940 d9bc dae9 16bd
000003f0: a871 ea3d 5778 6f3d 976e a33d edac ac3d

init_net.2.bias f4 [128]
-0.049965024 0.011334266 -0.057336643 0.019481426 -0.027939055 -0.08079323 0.0077748485 0.049048405
-0.023491483 0.0021455048 -0.122326836 -0.043007556 -0.12359154 0.123100534 0.10621856 -0.10681711
-0.09613822 -0.1045192 0.07078771 0.026199521 -0.11409189 -0.0384055 0.09220745 -0.00078253757
-0.112500966 0.044175025 0.12320482 0.11342058 0.010571349 -0.034953 0.013780658 0.092187814
0.053748004 -0.10318938 0.06446835 0.08122233 -0.105031624 -0.08713182 0.08379365 0.06733824
-0.10869659 0.034751404 0.0744236 0.026275324 0.06615558 0.039941028 0.035506397 0.0730013
-0.041865572 0.00044070696 -0.029636204 -0.021681683 0.047535162 -0.04754947 -0.006546415 0.10586095
0.04028534 0.12159122 -0.004948642 -0.04515985 0.10968196 -0.07793609 0.05830408 0.10437977
-0.069448456 -0.024773296 0.11198736 -0.008884589 -0.10740835 -0.06843765 -0.11742999 -0.02365908
0.06961652 -0.016645547 -0.024065517 0.009859938 -0.011248069 -0.021297159 -0.038858 0.016218767
-0.0080180755 -0.018001113 -0.031143911 0.0323173 -0.04611746 -0.0073756175 -0.018416455 0.08750775
0.053235166 0.051685452 -0.0011840854 -0.07778918 0.007941595 -0.09634572 0.003223951 0.12090757
-0.017466566 0.11783372 -0.07714409 0.09717555 0.046760693 -0.05481741 -0.121951506 -0.055142857
0.057106555 0.12018681 -0.098639295 -0.054636076 0.044321388 -0.03206215 -0.10571215 -0.041269302
0.040141776 -0.12182915 -0.045532107 0.072285086 0.05913816 -0.05269163 0.114559405 0.018909121
0.05982556 -0.010555365 -0.047454964 0.10865479 -0.11637002 0.04322028 -0.0547004 -0.0402006
00000000: 20a8 4cbd 5bb3 393c d4d9 6abd 8397 9f3c
00000010: 72e0 e4bc ec76 a5bd 28c4 fe3b fbe6 483d
00000020: 3671 c0bc 999b 0c3b 7e86 fabd b128 30bd
00000030: 901d fdbd 221c fc3d 1e89 d93d eec2 dabd
00000040: 1de4 c4bd 2a0e d6bd 26f9 903d 61a0 d63c
00000050: 02a9 e9bd 164f 1dbd 42d7 bc3d 3523 4dba
00000060: e866 e6bd dff0 343d cf52 fc3d 0d49 e83d
00000070: 7433 2d3c e02a 0fbd 45c8 613c f7cc bc3d
00000080: de26 5c3d f454 d3bd fb07 843d e557 a63d
00000090: d21a d7bd 2b72 b2bd 019c ab3d a2e8 893d
000000a0: 519c debd 7d57 0e3d 676b 983d 593f d73c
000000b0: 947c 873d 3499 233d 286f 113d b581 953d
000000c0: 3c7b 2bbd b00e e739 a0c7 f2bc c99d b1bc
000000d0: 3bb4 423d 3cc3 42bd 4f83 d6bb a0cd d83d
000000e0: 3e02 253d d104 f93d 3828 a2bb 89f9 38bd
000000f0: efa0 e03d f59c 9fbd 42d0 6e3d 10c5 d53d
00000100: fe3a 8ebd 5ef1 cabc a159 e53d ab90 11bc
00000110: e9f8 dbbd 0a29 8cbd 227f f0bd b0d0 c1bc
00000120: 1b93 8e3d 3e5c 88bc 0c25 c5bc 948b 213c
00000130: d249 38bc 6177 aebc 9129 1fbd 38dd 843c
00000140: 3f5e 03bc 1277 93bc 8421 ffbc 255f 043d
00000150: a9e5 3cbd 2aaf f1bb 1bde 96bc 4337 b33d
00000160: 1e0d 5a3d 20b4 533d 5033 9bba ef4f 9fbd
00000170: 771d 023c e850 c5bd ec48 533b 639e f73d
00000180: 0b16 8fbc ce52 f13d b8fd 9dbd fa03 c73d
00000190: 2488 3f3d 3888 60bd b6c1 f9bd 7add 61bd
000001a0: 90e8 693d 8124 f63d 6603 cabd 14ca 5fbd
000001b0: 588a 353d 9a53 03bd 9d7f d8bd 000a 29bd
000001c0: b46b 243d 9081 f9bd e07f 3abd 340a 943d
000001d0: db3a 723d 2ed3 57bd 1f9e ea3d 4de7 9a3c
000001e0: a50b 753d 69f0 2cbc 2360 42bd 6786 de3d
000001f0: 6853 eebd c007 313d 870d 60bd 62a9 24bd

rnn.weight_ih_l0 f4 [128, 7]
0.066912845 -0.07940822 -0.011776511 -0.029752402 0.064256854 -0.06579639 -0.016707346 -0.034971338
0.06507834 0.068836436 0.001809262 0.035185564 0.08726219 -0.075532764 0.0016426449 0.08012492
-0.022914886 -0.06489563 0.07762326 0.08318493 0.05186039 0.06589051 -0.005053318 -0.060833845
-0.077511474 0.036432125 -0.02180002 0.08802772 0.00979352 0.058184702 0.0056495643 -0.02014171
-0.033706635 -0.07324634 -0.083894804 -0.017940192 -0.07456444 -0.08758213 0.043688633 -0.03853698
0.0017672586 -0.021024683 -0.066005014 -0.02755456 -0.0562874 0.015800599 0.082322605 -0.021869384
0.01167411 0.05002262 0.03967038 0.00749083 -0.030065855 -0.017147021 -0.010344281 0.088882856
0.012377057 0.05642008 0.049974553 0.072213665 0.01513468 0.0005264006 -0.026223192 0.05602452
0.06511892 0.06811488 -0.077820115 0.0062331753 -0.053492825 -0.057799682 -0.076496266 -0.03082545
0.078350395 0.04907505 -0.060567293 -0.015272108 0.04092068 0.05142158 0.06389937 -0.046101827
-0.035370614 0.047421932 0.01966353 -0.044794455 -0.066377096 -0.0025693665 0.07447726 -0.03470394
-0.012162013 0.035864275 -0.07081872 -0.035468634 0.01132905 -0.040005647 0.06854522 -0.012423547
0.03585522 -0.01726914 -0.01011032 0.0799996 -0.06978672 -0.060983468 -0.032588318 0.016692631
-0.025700929 0.02754782 -0.040870704 0.03251963 -0.08174888 0.0033182097 0.04593724 0.014759909
-0.038576312 -0.031768445 0.019086257 -0.060485817 -0.06806229 -0.00020161859 -0.07394842 0.019625992
-0.058837757 0.04842127 0.051127926 0.07076726 -0.05705628 0.003113026 0.08134699 -0.021873306
0.031289004 0.047539856 0.0030307616 -0.030537056 0.022997925 0.023921644 -0.067980774 -0.031973455
-0.07380342 -0.07409073 0.06434124 0.061477825 -0.05973342 -0.08558701 -0.07117905 0.041595995
0.07301468 -0.01392474 -0.03091949 -0.0705646 -0.003758934 0.0486227 0.042277817 -0.03583628
-0.03644329 0.015117621 0.042475596 0.072497815 0.018542001 0.054711808 0.07144744 -0.0009433911
-0.018836409 0.052414216 0.007821991 0.08388432 0.047420673 0.01989568 -0.08140227 0.05311335
-0.030657599 -0.015978366 0.039226767 0.02424597 -0.023854695 -0.0052171643 -0.06721264 -0.036799703
-0.023303805 0.0005460909 -0.022080237 0.0484645 -0.0062130066 -0.05628228 0.024060804 -0.027441591
0.062614106 -0.0024992384 0.07589946 0.077660784 0.08786948 0.009384387 0.06446256 -0.0010509511
0.028583419 -0.041003965 -0.07229924 -0.06939383 -0.08339503 -0.021237737 -0.07535784 0.06811562
-0.07322839 0.06554551 0.017894953 -0.06306028 0.074900724 0.0291101 -0.007041857 0.06941628
-0.07346556 0.06331381 -0.0076661035 0.00061263016 0.03203698 -0.035901073 -0.0011662447 0.06121003
0.033191454 0.04237203 0.07673865 -0.056583498 -0.01602426 0.076429375 -0.029025344 0.026770085
0.03473672 -0.07831115 0.001157537 0.08098604 -0.014795072 -0.084281065 -0.07865101 0.013341448
-0.025962144 -0.05839482 0.07119598 -0.049520947 -0.061135292 0.061302237 0.066553965 0.029921059
0.08754088 0.002220797 0.06576015 -0.0522547 -0.071536645 0.009787437 -0.060993295 -0.0024715608
-0.008800907 0.013479738 -0.024271054 -0.008700611 -0.07957106 -0.035130322 0.040253073 0.076192364
00000000: 9a09 893d c7a0 a2bd 44f2 40bc 4fbb f3bc
00000010: 1999 833d 42c0 86bd d8dd 88bc 1b3e 0fbd
00000020: cb47 853d 1efa 8c3d c224 ed3a bd1e 103d
00000030: 85b6 b23d ecb0 9abd 044e d73a 8918 a43d
00000040: 00b8 bbbc 00e8 84bd f2f8 9e3d dc5c aa3d
00000050: 8f6b 543d 9bf1 863d 4e96 a5bb e92c 79bd
00000060: 56be 9ebd da39 153d f595 b2bc e147 b43d
00000070: 0075 203c 1553 6e3d fb1f b93b 3a00 a5bc
00000080: f80f 0abd 2d02 96bd 0ad1 abbd 4ff7 92bc
00000090: 3eb5 98bd 435e b3bd daf2 323d f4d8 1dbd
000000a0: 5ca3 e73a f53b acbc a32d 87bd 1aba e1bc
000000b0: 9e8d 66bd 4270 813c c198 a83d 6c27 b3bc
000000c0: c444 3f3c 85e4 4c3d 697d 223d a375 f53b
000000d0: ab4c f6bc e977 8cbc 0f7b 29bc 3708 b63d
000000e0: 24c9 4a3c be18 673d 1eb2 4c3d c2e4 933d
000000f0: 73f7 773c 25fe 093a 05d2 d6bc f879 653d
00000100: 115d 853d d07f 8b3d 2760 9fbd aa3f cc3b
00000110: 4b1b 5bbd 5cbf 6cbd 13aa 9cbd a785 fcbc
00000120: 2c76 a03d eb02 493d 6915 78bd dd37 7abc
00000130: 719c 273d 6f9f 523d acdd 823d 45d5 3cbd
00000140: c7e0 10bd 803d 423d 6915 a13c 647a 37bd
00000150: b7f0 87bd d162 28bb 8987 983d b825 0ebd
00000160: 2e43 47bc 6be6 123d 6809 91bd 8f47 11bd
00000170: 7b9d 393c f6dc 23bd 7061 8c3d 228c 4bbc
00000180: ecdc 123d 0378 8dbc c1a5 25bc d5d6 a33d
00000190: 57ec 8ebd cdc9 79bd 547b 05bd fcbe 883c
000001a0: c18a d2bc f7ab e13c 0a68 27bd 4e33 053d
000001b0: f56b a7bd 5276 593b b028 3c3d 8cd3 713c
000001c0: 3202 1ebd a11f 02bd c85a 9c3c fabf 77bd
000001d0: 3e64 8bbd 9469 53b9 4572 97bd b0c6 a03c
000001e0: dcff 70bd 6255 463d 846b 513d 6dee 903d
000001f0: d9b3 69bd e903 4c3b 4099 a63d a62f b3bc
00000200: e628 003d 27b9 423d be9f 463b d928 fabc
00000210: 2566 bc3c 53f7 c33c 8139 8bbd 99f6 02bd
00000220: 3f26 97bd e1bc 97bd 57c5 833d 2cd0 7b3d
00000230: 08ab 74bd 3e48 afbd 52c6 91bd 9060 2a3d
00000240: b888 953d 9824 64bc df4a fdbc 2c84 90bd
00000250: 7358 76bb 9928 473d 812b 2d3d 10c9 12bd
00000260: 8f45 15bd e6af 773c e4fa 2d3d bc79 943d
00000270: 65e5 973c 7d19 603d 0953 923d e84d 77ba
00000280: d04e 9abc 4ab0 563d cf27 003c 8bcb ab3d
00000290: 2e3c 423d 44fc a23c 3cb6 a6bd 628d 593d
000002a0: a525 fbbc 10e5 82bc 3fac 203d 7c9f c63c
000002b0: ec6a c3bc bff4 aabb c8a6 89bd 49bb 16bd
000002c0: 9fe7 bebc 8a27 0f3a 9de1 b4bc b682 463d
000002d0: 7a96 cbbb 3f88 66bd 2a1b c53c 30cd e0bc
000002e0: d33b 803d 43ca 23bb 2d71 9b3d 9e0c 9f3d
000002f0: eaf4 b33d f9c0 193c f204 843d 11c0 89ba
00000300: c627 ea3c c6f3 27bd a011 94bd 5a1e 8ebd
00000310: 03cb aabd c3fa adbc 3655 9abd 3480 8b3d
00000320: c4f8 95bd b93c 863d 7098 923c c025 81bd
00000330: 8d65 993d 4e78 ee3c 61bf e6bb 1f2a 8e3d
00000340: 1d75 96bd acaa 813d f033 fbbb ea98 203a
00000350: 3539 033d 010d 13bd aedc 98ba 5eb7 7a3d
00000360: c3f3 073d 4b8e 2d3d 2729 9d3d 19c4 67bd
00000370: 4f45 83bc 0187 9c3d 8fc6 edbc f04c db3c
00000380: 1748 0e3d 9961 a0bd 7fb8 973a 02dc a53d
00000390: 0867 72bc 8d9b acbd c813 a1bd 1796 5a3c
000003a0: 90ae d4bc 682f 6fbd 33cf 913d 7ad6 4abd
000003b0: 0069 7abd 0e18 7b3d 724d 883d 021d f53c
000003c0: a248 b33d ca8a 113b 42ad 863d 0609 56bd
000003d0: ce81 92bd 7c5b 203c 1bd4 79bd e9f9 21bb
000003e0: ae31 10bc 1eda 5c3c 17d4 c6bc 028d 0ebc
000003f0: 27f6 a2bd d0e4 0fbd 68e0 243d be0a 9c3d

rnn.weight_hh_l0 f4 [128, 128]
0.059785035 -0.001538627 -0.07240137 -0.053021383 0.053473637 -0.07465984 -0.064202204 -0.055807266
-0.023435276 0.04100475 0.060568027 0.067404196 0.040773503 0.019851021 -0.022978267 -0.05369083
-0.044814292 -0.0029225743 0.07590246 -0.031332806 -0.013357766 -0.002415363 -0.039515596 -0.041491654
0.024902953 -0.062889144 -0.0052484944 -0.02120438 0.019437043 -0.01114073 -0.045850378 -0.026443837
-0.021805467 0.037138358 0.019985663 -0.027319072 0.06881498 0.007754486 0.04781239 -0.033435848
-0.07439455 -0.08452005 -0.02927036 0.05409361 0.05536144 0.02688255 0.02485262 -0.058827456
-0.025783433 0.010776584 -0.07634979 -0.07972755 -0.06654609 0.027313538 -0.0109887505 -0.015335104
0.054643173 -0.058621254 -0.054405607 -0.020062605 0.053880274 0.0141085815 -0.07576418 0.06196148
-0.05081049 0.06813012 0.03210315 0.02295704 0.07265228 0.03226497 -0.08654976 0.034770135
0.08499716 -0.036308706 0.06419749 0.07087361 -0.020762607 0.00035034318 -0.011334019 0.07751248
0.036665034 0.06199434 -0.078476496 -0.035514016 -0.06621397 0.019166995 -0.034323357 0.025528464
0.045696367 -0.023271542 0.010315455 -0.06469826 -0.01023429 0.014199859 0.062556624 0.035363555
0.0231748 0.045416262 0.068403095 0.008240245 0.0843509 -0.053384416 0.029696966 2.2204867e-05
0.06511446 -0.083765775 0.042408664 -0.075311095 -0.026182689 -0.028325835 -0.029419575 -0.042598538
-0.0712336 -0.076744676 -0.017705165 0.071486354 -0.023543263 -0.0592576 -0.024961961 -0.07224964
-0.0046405164 0.07199478 -0.085639186 0.047319353 0.064730465 0.06311619 -0.051911313 0.010346882
0.04948207 -0.07513552 0.067329206 -0.006448254 -0.0771381 -0.022485979 0.0025356133 -0.03572934
-0.0356606 -0.009065167 0.030216508 0.03977405 -0.08570294 -0.005632867 0.021614471 0.07074874
0.04396642 0.0597331 0.025993453 -0.008519302 -0.048377525 -0.036379382 0.028370656 -0.018387754
0.0806976 -0.054873113 0.05958391 0.05614679 0.0578828 0.068719074 -0.050714128 0.050649904
-0.08674535 -0.046956446 -0.013891471 0.07386905 -0.017691176 -0.07022312 -0.07817063 0.0016760872
0.0065926984 0.021321384 -0.02450931 0.029222539 0.009128185 -0.023073034 0.04485887 -0.06327917
-0.045412373 0.021617103 -0.025113475 -0.0021135258 -0.03139105 0.049939815 0.08252936 0.07501398
0.02268634 -0.055552177 -0.03057707 -0.039884098 -0.016863061 -0.043709382 0.052290183 -0.083117485
0.003776282 0.06340371 -0.06950058 -0.015352208 0.048036933 -0.030635878 -0.041471627 0.04672483
-0.06065784 0.08742273 0.07863574 0.003942131 0.014180952 -0.044710748 0.020379221 -0.06623113
-0.02285054 0.070091456 0.025615638 0.06346158 0.05783357 0.08373392 0.02225436 -0.06426182
-0.079340965 0.054401346 0.071198136 0.08631595 -0.0595304 0.080061615 -0.031228548 0.022870285
0.06077508 -0.06758952 -0.08407747 0.058292117 -0.081470475 0.04244352 0.050704 0.06421759
0.002037931 -0.022351898 0.011460688 -0.012166606 -0.082596 0.020695165 -0.051406305 0.064879194
-0.041219804 -0.017079169 -0.06803264 0.08075636 0.05083149 0.076742396 0.051127125 -0.053997256
0.082807794 -0.011784522 0.08067026 0.01227727 0.055584088 -0.03475737 0.03442209 -0.0005724936
00000000: 27e1 743d c1ab c9ba 2b47 94bd f32c 59bd
00000010: 2c07 5b3d 42e7 98bd 727c 83bd 2996 64bd
00000020: 56fb bfbc 99f4 273d 2e16 783d 360b 8a3d
00000030: 1e02 273d 9c9e a23c eb3c bcbc eaea 5bbd
00000040: 318f 37bd a988 3fbb c072 9b3d d456 00bd
00000050: 88da 5abc 114b 1ebb 1bdb 21bd 27f3 29bd
00000060: 4701 cc3c 06cc 80bd 90fb abbb cfb4 adbc
00000070: 6f3a 9f3c 9c87 36bc 9bcd 3bbd bfa0 d8bc
00000080: 61a1 b2bc 641e 183d f9b8 a33c 3fcc dfbc
00000090: deee 8c3d 5819 fe3b edd6 433d 07f4 08bd
000000a0: 2b5c 98bd d918 adbd 65c8 efbc 4391 5d3d
000000b0: adc2 623d cb38 dc3c b997 cb3c 0ff5 70bd
000000c0: c737 d3bc 4590 303c 475d 9cbd 3348 a3bd
000000d0: 5149 88bd a4c0 df3c 290a 34bc 1740 7bbc
000000e0: 85d1 5f3d d71c 70bd 6ad8 5ebd 555a a4bc
000000f0: 90b1 5c3d ae27 673c 402a 9bbd 52cb 7d3d
00000100: a91e 50bd ce87 8b3d 987e 033d 6710 bc3c
00000110: b8ca 943d 4628 043d 0041 b1bd 216b 0e3d
00000120: fe12 ae3d 70b8 14bd f979 833d 2f26 913d
00000130: 5816 aabc 44ae b739 52b2 39bc ddbe 9e3d
00000140: 132e 163d c7ed 7d3d 49b8 a0bd 2577 11bd
00000150: 319b 87bd 1a04 9d3c a696 0cbd 1221 d13c
00000160: 1d2c 3b3d f6a3 bebc 2702 293c 8580 84bd
00000170: b9ad 27bc 87a6 683c b01d 803d 60d9 103d
00000180: 14d9 bd3c 6706 3a3d ec16 8c3d 1802 073c
00000190: 2ac0 ac3d 9ea9 5abd 0d47 f33c 9744 ba37
000001a0: bb5a 853d 648d abbd b5b4 2d3d b43c 9abd
000001b0: 147d d6bc 950b e8bc 5201 f1bc ce7b 2ebd
000001c0: ece2 91bd 502c 9dbd 6c0a 91bc 7067 923d
000001d0: cddd c0bc 19b8 72bd 077d ccbc 9ff7 93bd
000001e0: 790f 98bb 0072 933d 9963 afbd f0d1 413d
000001f0: 6891 843d 1043 813d f5a0 54bd f885 293c
00000200: b6ad 4a3d a7e0 99bd e5e3 893d e04b d3bb
00000210: 95fa 9dbd 8434 b8bc 882c 263b ee58 12bd
00000220: d910 12bd 1186 14bc 9c88 f73c 1dea 223d
00000230: 0685 afbd ea93 b8bb d510 b13c b7e4 903d
00000240: 2216 343d b2aa 743d 39f0 d43c 8b94 0bbc
00000250: 8327 46bd 8c02 15bd 9469 e83c eaa1 96bc
00000260: c944 a53d a1c2 60bd 420e 743d 2dfa 653d
00000270: 8416 6d3d 96bc 8c3d 9eb9 4fbd 4676 4f3d
00000280: 8ca7 b1bd 6755 40bd 0d99 63bc a848 973d
00000290: 16ed 90bc 24d1 8fbd ec17 a0bd 27b0 db3a
000002a0: 9007 d83b 2faa ae3c c0c7 c8bc 1b64 ef3c
000002b0: 628e 153c a903 bdbc efbd 373d 8298 81bd
000002c0: 5302 3abd 5a16 b13c c6ba cdbc 1483 0abb
000002d0: e793 00bd b18d 4c3d 2705 a93d eea0 993d
000002e0: b4d8 b93c ae8a 63bd c37c fabc 825d 23bd
000002f0: 6724 8abc 9c08 33bd 3b2e 563d 8039 aabd
00000300: 807b 773b ced9 813d 5256 8ebd d487 7bbc
00000310: 60c2 443d 18f8 fabc 27de 29bd 8962 3f3d
00000320: 5b74 78bd b00a b33d c60b a13d fe2c 813b
00000330: 3957 683c 9e22 37bd 53f2 a63c 30a4 87bd
00000340: 0e31 bbbc 1c8c 8f3d e3d7 d13c 25f8 813d
00000350: e5e2 6c3d b07c ab3d c74e b63c b39b 83bd
00000360: 847d a2bd f2d3 5e3d 54d0 913d 6bc6 b03d
00000370: 26d6 73bd 58f7 a33d 03d3 ffbc 775a bb3c
00000380: 4aef 783d 606c 8abd cf30 acbd b7c3 6e3d
00000390: fed9 a6bd 42d9 2d3d ffae 4f3d 8384 833d
000003a0: cf8e 053b 541b b7bc 9cc5 3b3c 7256 47bc
000003b0: 1728 a9bd e888 a93c 6b8f 52bd 62df 843d
000003c0: 19d6 28bd 9de9 8bbc b254 8bbd 9763 a53d
000003d0: ae34 503d 1e2b 9d3d ad6a 513d 3a2c 5dbd
000003e0: 2297 a93d de13 41bc 7336 a53d 9a26 493c
000003f0: 24ac 633d be5d 0ebd 2dfe 0c3d 6513 16ba

rnn.bias_ih_l0 f4 [128]
-0.013073239 0.059138507 -0.085132815 0.049094513 0.025148243 0.056495167 -0.025249908 -0.019555876
0.077396214 0.071253374 -0.039480887 -0.0702189 0.09154318 0.031052297 0.05953716 -0.082756095
0.042126875 -0.08423638 -0.015961513 -0.021219598 -0.052164663 -0.059000194 -0.058166783 -0.007795425
-0.067972474 -0.042648263 -0.035826765 -0.02296617 0.011588371 -0.06558487 0.078858174 -0.08275258
0.042313803 -0.07757328 -0.017193206 -0.014051985 0.08130952 -0.07278694 -0.04916101 0.0014682283
-0.08924402 0.016329344 0.003615544 0.027467173 -0.012561909 0.030427018 0.035805073 0.0518895
0.04488358 0.068984285 0.057057418 -0.011944128 0.05781194 0.024408367 0.041501764 -0.06454649
0.041356914 0.0088055385 -0.06628144 -0.031480294 -0.024215626 -0.040849455 -0.0061134137 -0.05973205
0.050417315 -0.023497697 0.0010813125 0.03131826 0.02854578 -0.0894975 -0.031284545 -0.06841481
-0.084708415 0.06101054 0.07264847 -0.06083465 -0.033754125 0.043538548 0.08217374 0.072047144
0.05073097 -0.07124747 -0.044030853 0.06996472 -0.076181404 -0.03718627 -0.06925842 -0.07200206
0.026998019 -0.026327547 -0.08328879 -0.07234147 0.06745287 0.06912195 0.040161014 0.038137782
-0.053284936 -0.033672992 -0.0022398285 0.032139964 -0.0026464397 0.022810446 -0.049093448 -0.033041984
0.033074483 -0.08305784 -0.0019187008 0.07485007 -0.06101968 -0.017854404 -0.016488079 -0.02936588
0.049575936 0.021965455 0.08366518 -0.020493835 0.03531694 0.02275623 -0.048826344 -0.088635154
0.049059413 -0.053752776 -0.027404515 -0.016969206 -0.08860416 0.054709367 -0.020083271 -0.04441671
00000000: 2331 56bc 383b 723d 1d5a aebd 5417 493d
00000010: b003 ce3c 7a67 673d e5d8 cebc a533 a0bc
00000020: e881 9e3d 4aed 913d b6b6 21bd edce 8fbd
00000030: fe7a bb3d 6361 fe3c 3ddd 733d 077c a9bd
00000040: 3b8d 2c3d 2084 acbd b8c1 82bc b9d4 adbc
00000050: 9daa 55bd 30aa 71bd 4b40 6ebd c470 ffbb
00000060: 2735 8bbd f2af 2ebd 16bf 12bd 8d23 bcbc
00000070: 27dd 3d3c 5c51 86bd 6580 a13d 2f7a a9bd
00000080: 3d51 2d3d bdde 9ebd c4d8 8cbc 4c3a 66bc
00000090: 9b85 a63d 5211 95bd 0e5d 49bd 9171 c03a
000000a0: 92c5 b6bd 1ec5 853c c3f2 6c3b d602 e13c
000000b0: 77d0 4dbc 1542 f93c 57a8 123d 168a 543d
000000c0: d8d7 373d a247 8d3d 0ab5 693d 4eb1 43bc
000000d0: 36cc 6c3d 0ef4 c73c c1fd 293d f330 84bd
000000e0: de65 293d 1b45 103c 90be 87bd 7bf1 00bd
000000f0: d95f c6bc c251 27bd 0853 c8bb 98a9 74bd
00000100: 6382 4e3d 3e7e c0bc d4ba 8d3a 9347 003d
00000110: d7d8 e93c 774a b7bd 3924 00bd 101d 8cbd
00000120: 9b7b adbd 30e6 793d b9c8 943d c12d 79bd
00000130: c441 0abd 7a55 323d b54a a83d 748d 933d
00000140: 47cb 4f3d 32ea 91bd b259 34bd aa49 8f3d
00000150: ff04 9cbd a150 18bd 5cd7 8dbd d175 93bd
00000160: f32a dd3c deac d7bc 5093 aabd c427 94bd
00000170: bb24 8a3d cf8f 8d3d e07f 243d 5d36 1c3d
00000180: 4e41 5abd b1ec 09bd 16ca 12bb 32a5 033d
00000190: e46f 2dbb f9dc ba3c 3616 49bd 0857 07bd
000001a0: 1c79 073d 3b1a aabd ea7c fbba fe4a 993d
000001b0: c6ef 79bd 6643 92bc 0212 87bc b790 f0bc
000001c0: 2310 4b3d e6f0 b33c a658 ab3d b0e2 a7bc
000001d0: 7fa8 103d 466b ba3c 22fe 47bd 5986 b5bd
000001e0: 86f2 483d df2b 5cbd 6f7f e0bc 0103 8bbc
000001f0: 1976 b5bd ee16 603d ac85 a4bc 4cee 35bd

rnn.bias_hh_l0 f4 [128]
-0.07799547 0.010386736 -0.0010873064 -0.008787296 -0.029608304 0.037085496 -0.020577654 0.011346943
0.053878058 0.024541708 -0.058249414 -0.013443176 -0.026185073 0.0050118375 0.054044656 -0.0092252325
-0.031147467 -0.049117874 0.04982607 -0.025175985 0.0035890313 -0.019225065 -0.063951254 0.030972008
0.069237046 -0.05456003 0.014525492 0.021978445 -0.02658535 -0.015208306 -0.0055772457 0.055077247
-0.0013392896 -0.08357781 -0.02766185 -0.043632142 -0.0019458977 -0.044109408 0.017387314 -0.0075724516
-0.047534917 -0.0075866175 -0.06830884 -0.04469515 0.048464652 0.0064318003 0.0474082 0.019529622
0.061628167 0.08081362 0.069608085 -0.021812491 -0.03880905 0.07379528 0.04692395 0.076677345
0.07634268 0.06741095 0.008413765 -0.0007337928 -0.04929878 0.08080759 -0.051642254 0.051312935
-0.014532345 -0.049977504 -0.063005984 0.017879415 -0.03460371 0.046790995 -0.03834104 -0.010571078
0.023010643 0.08639622 -0.070302024 -0.048886113 -0.050046805 0.023399353 0.07293712 0.011815658
0.0069885734 0.06298759 -0.060835026 0.08624759 0.08825939 -0.06125022 -0.0034543134 0.03581344
-0.05171151 -0.040627927 0.059714507 0.06232203 -0.0723695 0.034344003 -0.045353062 -0.012339843
-0.088393345 -0.0755266 -0.0072516263 -0.062108293 -0.048528627 0.044194758 0.04753728 -0.06508848
0.061879013 0.08365342 -0.025777709 0.030615157 -0.016546883 -0.003934169 -0.021965925 0.025343481
0.07835867 -0.02586539 -0.029659078 0.08620938 0.06930624 -0.060929105 0.07890814 -0.018476412
0.024423195 0.016197126 -0.008569633 -0.051797707 -0.0028138242 -0.062978916 -0.015210291 0.05331139
00000000: 17bc 9fbd 212d 2a3c f383 8eba 97f8 0fbc
00000010: 1d8d f2bc f6e6 173d 7892 a8bc 87e8 393c
00000020: 3daf 5c3d b10b c93c f096 6ebd c440 5cbc
00000030: 1482 d6bc 573a a43b ee5d 5d3d 6e25 17bc
00000040: f928 ffbc d32f 49bd 6c16 4c3d de3d cebc
00000050: f435 6b3b e27d 9dbc e0f8 82bd 02b9 fd3c
00000060: 27cc 8d3d 577a 5fbd 54fc 6d3c 240c b43c
00000070: 85c9 d9bc 422c 79bc 54c1 b6bb ae98 613d
00000080: 1a8b afba d82a abbd 1b9b e2bc 9eb7 32bd
00000090: 7e0d ffba 11ac 34bd d76f 8e3c 5422 f8bb
000000a0: f9b3 42bd 2999 f8bb 81e5 8bbd 4312 37bd
000000b0: df82 463d dac1 d23b 1a2f 423d 96fc 9f3c
000000c0: d16d 7c3d 9c81 a53d af8e 8e3d 1cb0 b2bc
000000d0: 3df6 1ebd fb21 973d 5433 403d 0309 9d3d
000000e0: 8d59 9c3d c10e 8a3d e3d9 093c 005c 40ba
000000f0: 84ed 49bd 737e a53d d486 53bd 832d 523d
00000100: 1319 6ebc 36b5 4cbd 4809 81bd da77 923c
00000110: 9fbc 0dbd eaa7 3f3d 7f0b 1dbd 5132 2dbc
00000120: d180 bc3c 80f0 b03d 82fa 8fbd ce3c 48bd
00000130: e1fd 4cbd 00b0 bf3c 0f60 953d 7696 413c
00000140: 6700 e53b a3ff 803d 262e 79bd 94a2 b03d
00000150: 57c1 b43d 83e1 7abd c361 62bb 1db1 123d
00000160: 73cf 53bd 7869 26bd 3397 743d 6345 7f3d
00000170: 7636 94bd 4cac 0c3d 22c4 39bd 0e2d 4abc
00000180: 9207 b5bd b1ad 9abd 0d9f edbb 4465 7ebd
00000190: f4c5 46bd 9005 353d 73b6 423d 1c4d 85bd
000001a0: d974 7d3d 7c52 ab3d c62b d3bc a3cc fa3c
000001b0: 548d 87bc 34ea 80bb e2f1 b3bc 229d cf3c
000001c0: 837a a03d a8e3 d3bc 98f7 f2bc 8b8e b03d
000001d0: 6ef0 8d3d cc90 79bd 979a a13d d85b 97bc
000001e0: 2713 c83c d6af 843c a567 0cbc d529 54bd
000001f0: 2368 38bb 17fb 80bd 9634 79bc 0b5d 5a3d

rnn.weight_ih_l1 f4 [128, 128]
0.06576177 -0.057709366 0.03864509 -0.0032700116 0.06465832 0.06164615 -0.026592463 0.047236536
0.024876771 0.03644372 -0.054765325 0.014253802 -0.07345209 0.04698369 -0.023016011 0.0355088
0.06527649 0.012383715 -0.06897846 -0.063224904 0.013410491 -0.08515366 0.04877101 -0.023430504
-0.06880508 0.057066187 0.011550994 0.079625554 0.0021783132 0.033969708 0.047829103 0.04170352
-0.03934366 -0.07094787 -0.005299166 0.08131689 0.054804076 -0.02912061 -0.030878237 0.061404582
0.056109004 0.03951274 -0.07537273 -0.08085991 0.05970921 0.073925816 0.078234024 0.044895284
-0.03308986 -0.009019457 0.078473344 -0.0030125862 -0.0509743 0.037605543 -0.059910603 0.023923721
-0.040369984 -0.01566449 0.04111752 -0.041781407 9.931496e-06 -0.07457773 0.014612859 -0.029399557
0.03282626 0.06918397 -0.055054147 0.083013564 0.035656203 0.07831355 0.006928736 -0.052111097
-0.0676221 0.07118844 -0.05052911 -0.05516042 -0.028931046 -0.088351026 -0.0002587105 6.107735e-05
0.014785742 -0.002569976 -0.050110813 0.07423795 -0.040024117 -0.07589055 0.065976255 -0.07104485
-0.06402438 -0.08122204 0.049124174 0.020663343 0.0662826 0.05399688 -0.050907128 0.020318368
0.007227734 0.05094142 -0.039145347 0.07317499 -0.018692411 -0.050739028 -0.009422351 0.043267448
0.011880793 0.070312865 0.028034588 0.07655308 0.027491372 -0.08726742 -0.0055536157 -0.024829075
0.072477154 0.07599392 0.023481663 -0.04148208 -0.03076479 -0.056199253 -0.07675485 -0.044986017
0.06773141 0.035657126 0.015737155 0.075735755 -0.030582648 0.079934195 -0.0536948 0.013977984
-0.023636352 0.03844159 0.026316877 0.042453006 0.017490406 -0.07058984 0.049630072 0.021147395
0.038828164 -0.0721261 -0.08287241 0.053104397 0.058293466 -0.043271635 -0.029194206 0.03194321
-0.014215225 -0.06267184 -0.0730645 0.027782101 0.0788061 0.081479356 -0.045527205 0.070370376
-0.00046534554 0.024716312 -0.072549425 -0.012389928 -0.0048206523 0.010513214 0.018236183 0.0018103721
-0.0021531791 0.013045869 -0.0478011 0.06349943 -0.053253617 0.01886633 -0.06581093 0.022355204
0.07662968 -0.065143384 0.050149422 0.054518603 0.05491148 0.0779442 -0.06291376 0.08525046
-0.03852289 -0.015857143 0.030914055 -0.053947926 -0.013116043 0.08553507 0.005250377 -0.05040764
-0.038010478 0.030823186 -0.021266995 -0.045786764 0.031618435 0.019895105 0.054092307 -0.0028601862
0.044739693 -0.024272006 0.052859094 -0.008189476 0.07834229 -0.018900067 -0.076237656 0.0053302916
0.031677883 0.073777474 -0.07873464 0.017418923 0.05644084 -0.02882665 -0.019388372 0.02056784
0.05837837 0.068580255 0.07360122 0.0059265257 0.04987361 -0.039360784 -0.04909223 0.06670433
-0.06887371 0.08716696 0.015974702 0.017826013 -0.02215967 -0.036804043 -0.013447783 0.05379723
-0.061768785 -0.046584442 -0.072598405 0.022001052 0.04011054 -0.0062314575 0.07633378 0.026317904
-0.013065461 -0.036106266 -0.009702681 0.04367452 0.014317399 -0.084093735 -0.06925721 0.069092184
-0.026130516 -0.069208205 -0.008955533 0.044055633 -0.07657027 3.0527608e-05 -0.08542871 0.014113412
0.08209246 -0.0057325717 -0.07090475 0.023249637 -0.07736272 0.011131316 -0.021441076 0.049809527
00000000: 1bae 863d a860 6cbd 504a 1e3d b14d 56bb
00000010: 956b 843d ac80 7c3d 70d8 d9bc 197b 413d
00000020: 5fca cb3c 0346 153d 9b51 60bd c788 693c
00000030: 0d6e 96bd f871 403d 138c bcbc ad71 113d
00000040: aeaf 853d 11e5 4a3c 9444 8dbd 0f7c 81bd
00000050: adb7 5b3c 0b65 aebd 1cc4 473d 54f1 bfbc
00000060: aee9 8cbd 3cbe 693d 6140 3d3c b912 a33d
00000070: 08c2 0e3b d223 0b3d 73e8 433d 4fd1 2a3d
00000080: d126 21bd 1e4d 91bd a0a4 adbb 7889 a63d
00000090: 3d7a 603d 588e eebc 5bf4 fcbc 5f83 7b3d
000000a0: 8ed2 653d 1cd8 213d 055d 9abd e199 a5bd
000000b0: a591 743d 6b66 973d 2939 a03d 1ee4 373d
000000c0: 3c89 07bd 58c6 13bc a2b6 a03d cf6e 45bb
000000d0: 6dca 50bd 4508 1a3d d264 75bd aefb c33c
000000e0: ff5a 25bd d152 80bc d86a 283d fb22 2bbd
000000f0: 739f 2637 35bc 98bd c66a 6f3c 57d7 f0bc
00000100: d474 063d 53b0 8d3d 7580 61bd 0403 aa3d
00000110: 3d0c 123d db62 a03d 730a e33b 7272 55bd
00000120: 757d 8abd 3fcb 913d 9df7 4ebd e4ef 61bd
00000130: cd00 edbc 62f1 b4bd 89a3 87b9 a716 8038
00000140: e63f 723c 0b6d 28bb ff40 4dbd 110a 983d
00000150: 54f0 23bd 816c 9bbd 8f1e 873d f67f 91bd
00000160: 371f 83bd be57 a6bd 6e36 493d 2c46 a93c
00000170: 2cbf 873d d52b 5d3d fe83 50bd b572 a63c
00000180: a1d6 ec3b f3a7 503d df56 20bd c5dc 953d
00000190: d420 99bc bad3 4fbd 3460 1abc 3539 313d
000001a0: a8a7 423c 3100 903d cba8 e53c dcc7 9c3d
000001b0: 9635 e13c 43b9 b2bd 1bfb b5bb 5866 cbbc
000001c0: e76e 943d b3a2 9b3d 9e5c c03c 1de9 29bd
000001d0: 7106 fcbc 3031 66bd a631 9dbd 4243 38bd
000001e0: c4b6 8a3d 350d 123d 35eb 803c 591b 9b3d
000001f0: 7688 fabc 8ab4 a33d 14ef 5bbd ea03 653c
00000200: 06a1 c1bc ee74 1d3d 7e96 d73c 34e3 2d3d
00000210: 0a48 8f3c 6891 90bd e748 4b3d 4d3d ad3c
00000220: 480a 1f3d d9b6 93bd 03b9 a9bd ff83 593d
00000230: 21c5 6e3d 993d 31bd b028 efbc e2d6 023d
00000240: fae6 68bc 185a 80bd d7a2 95bd 4a97 e33c
00000250: 1865 a13d a6de a63d bc7a 3abd 581e 903d
00000260: 9ff9 f3b9 dd79 ca3c cb94 94bd 20ff 4abc
00000270: 90f6 9dbb 9e3f 2c3c 0c64 953c 024a ed3a
00000280: 5a1c 0dbb 57be 553c 16cb 43bd fd0b 823d
00000290: 7720 5abd 908d 9a3c e2c7 86bd 4322 b73c
000002a0: 06f0 9c3d e569 85bd 7b69 4d3d e64e 5f3d
000002b0: dcea 603d 35a1 9f3d eed8 80bd cb97 ae3d
000002c0: 2eca 1dbd d7e6 81bc 793f fd3c 80f8 5cbd
000002d0: ace4 56bc 032d af3d 5b0b ac3b 3e78 4ebd
000002e0: e0b0 1bbd e880 fc3c 1f38 aebc e78a 3bbd
000002f0: 5582 013d 0ffb a23c e58f 5d3d f671 3bbb
00000300: f840 373d 16d6 c6bc c782 583d 272d 06bc
00000310: ec71 a03d 50d4 9abc 7d22 9cbd baa9 ae3b
00000320: abc0 013d a518 973d a03f a1bd 21b2 8e3c
00000330: 832e 673d de25 ecbc 5dd4 9ebc e37d a83c
00000340: 281e 6f3d ce73 8c3d 3dbc 963d 4d33 c23b
00000350: 4548 4c3d c638 21bd ef14 49bd 489c 883d
00000360: a90d 8dbd 9784 b23d 61dd 823c dc07 923c
00000370: 3288 b5bc d6bf 16bd 1754 5cbc 7c5a 5c3d
00000380: 4401 7dbd 54cf 3ebd 79ae 94bd 8d3b b43c
00000390: f34a 243d 4131 ccbb e354 9c3d a598 d73c
000003a0: 8410 56bc 2ae4 13bd fef7 1ebc 0ee4 323d
000003b0: 8693 6a3c 5639 acbd b9d6 8dbd 3480 8d3d
000003c0: aa0f d6bc 08bd 8dbd 3aba 12bc ae73 343d
000003d0: e0d0 9cbd c50a 0038 3ff5 aebd f13b 673c
000003e0: 1720 a83d 4cd8 bbbb 8236 91bd 0676 be3c
000003f0: 5970 9ebd 2060 363c 32a5 afbc 1305 4c3d

rnn.weight_hh_l1 f4 [128, 128]
0.034590263 0.054216284 -0.056281276 -0.043228168 -0.08721736 -0.08073591 -0.030756785 0.0074116974
-0.07997758 0.036443718 0.046111137 0.002205635 0.08450363 0.06507862 0.0060258047 0.0044015893
-0.00020257758 -0.08423272 -0.049316186 -0.07165185 -0.08193313 -0.017991364 0.0049504056 -0.028724615
0.05689286 0.037921686 -0.008402326 -0.07790745 -0.07514767 -0.06466797 -0.012213042 0.024414152
0.062030178 0.046998423 0.01777365 0.053777613 -0.07717209 0.017313654 -0.0217001 -0.008948793
0.061093986 0.017020056 -0.037920304 -0.017892098 -0.02932636 -0.060350608 -0.06347896 -0.06990512
0.070695885 0.049356125 -0.025880182 -0.042481374 -0.07747505 -0.047277257 0.0300552 -0.03717247
0.022803359 -0.02849 -0.08679303 0.022766644 0.025534982 0.024339607 -0.06506604 -0.019942757
0.07963267 0.005643109 -0.009502895 0.028629577 0.080073416 0.07453551 0.026004126 0.07982797
-0.041675918 0.02199076 0.049046874 -0.08445278 -0.08310944 -0.06961009 -0.07757211 0.0165051
0.003028867 -0.019747883 -0.035035264 -0.07653949 -0.050230782 0.08604115 -0.027306627 0.0069735446
-0.033841442 -0.041716717 0.06114524 -0.01739987 0.006206459 0.061450977 -0.016191695 0.026290173
-0.054380737 0.057387102 -0.004595139 0.049106453 -0.07850548 0.013294845 0.022540752 -0.057659972
0.06207308 -0.04953855 -0.03373013 0.0540891 -0.043875758 0.059999686 0.061562393 -0.0111669265
0.020071886 -0.055268064 -0.048662655 -0.010030399 0.06935723 0.06984355 0.076627105 -0.036351174
-0.06830892 0.062123574 0.045934726 0.080515064 0.08643286 -0.049108714 0.07069526 0.077963606
-0.017677115 -0.0490202 -0.053345434 -0.04089654 0.05194699 0.0018216738 -0.020802062 -0.017296787
0.073388405 0.014939763 -0.051080525 0.04612034 -0.049990408 0.05987962 -0.07940723 0.021946153
0.045137864 0.061994534 -0.009421481 0.03848455 -0.0007409087 0.07577936 -0.026171293 -0.0770659
-0.026068885 0.021703979 0.010208817 -0.06926455 -0.03951557 0.0304883 0.027370721 0.07902682
-0.019841377 0.02325253 -0.04793625 -0.08705534 0.0006407908 -0.021201974 0.071034856 -0.06851279
-0.07467596 -0.054130416 -0.0056498554 0.058625616 0.0587529 -0.014806401 0.03992406 0.05147644
-0.023923488 -0.04328396 0.019712193 -0.05761986 0.07329618 0.033059854 -0.011838477 -0.024073146
0.0032923631 0.012722382 -0.07819606 -0.07849624 -0.011162472 -0.047092643 -0.055379048 0.012841638
0.060361918 -0.05936286 -0.001718116 0.044275545 0.05585741 0.030785369 -0.013116369 -0.053018153
0.06817269 -0.04914623 0.0032647455 -0.05397785 0.004227793 -0.0658714 -0.01915493 -0.030264547
0.057300344 -0.0025249654 0.024203217 -0.035337124 -0.08691867 -0.064892076 0.030407423 0.087947905
-0.0559913 -0.042105116 0.044978928 0.0849991 -0.07013576 -0.046148952 -0.083562806 0.028714493
-0.023044733 -0.027201941 0.060668066 -0.017030815 -0.051858585 -0.0791163 0.077573456 -0.0075592897
0.053035915 -0.023662508 -0.023687398 0.021993525 0.05812561 -0.0018035099 -0.06429445 -0.025829641
-0.023335638 0.053052183 -0.05411296 -0.019620327 -0.021473793 0.08420741 0.022702249 0.057648797
-0.059994083 0.022239374 -0.012515929 -0.052950814 0.029809128 -0.0654039 0.017568035 -0.056667667
00000000: 85ae 0d3d e511 5e3d 3287 66bd 0510 31bd
00000010: 049f b2bd de58 a5bd a7f5 fbbc d3dd f23b
00000020: 49cb a3bd 0246 153d 08df 3c3d 6a8c 103b
00000030: 3d10 ad3d f147 853d 1d74 c53b 353b 903b
00000040: 016b 54b9 3482 acbd c5ff 49bd 35be 92bd
00000050: 8fcc a7bd a062 93bc 0337 a23b e24f ebbc
00000060: 7d08 693d c553 1b3d e9a9 09bc f18d 9fbd
00000070: 06e7 99bd a470 84bd 3619 48bc 3000 c83c
00000080: 5b13 7e3d 6b81 403d 0c9a 913c ea45 5c3d
00000090: 670c 9ebd 5dd5 8d3c 68c4 b1bc f59d 12bc
000000a0: b03d 7a3d a56d 8b3c 5252 1bbd 7392 92bc
000000b0: d63d f0bc 3332 77bd 4201 82bd 6a2a 8fbd
000000c0: 01c9 903d a629 4a3d ad02 d4bc f300 2ebd
000000d0: 3dab 9ebd cca5 41bd 5336 f63c 2942 18bd
000000e0: 1cce ba3c dc63 e9bc 8bc0 b1bd 1d81 ba3c
000000f0: bd2e d13c db63 c73c 5841 85bd fe5e a3bc
00000100: 7416 a33d d4e9 b83b 08b2 1bbc 9388 ea3c
00000110: 88fd a33d 13a6 983d 9b06 d53c d97c a33d
00000120: 5eb4 2abd f725 b43c 60e5 483d 94f5 acbd
00000130: 4835 aabd bc8f 8ebd 20de 9ebd b435 873c
00000140: f57f 463b 50c6 a1bc 2381 0fbd bcc0 9cbd
00000150: cbbe 4dbd 5836 b03d 26b2 dfbc 5582 e43b
00000160: 539d 0abd 26df 2abd 6e73 7a3d 2c8a 8ebc
00000170: 8d5f cb3b 05b4 7b3d 72a4 84bc 7d5e d73c
00000180: 56be 5ebd bd0e 6b3d d292 96bb d923 493d
00000190: 7bc7 a0bd 9fd2 593c 62a7 b83c dd2c 6cbd
000001a0: 5840 7e3d efe8 4abd 9b28 0abd 888c 5d3d
000001b0: 11b7 33bd 3bc2 753d d928 7c3d 7cf5 36bc
000001c0: cc6d a43c c460 62bd 7e52 47bd 8b56 24bc
000001d0: 2a0b 8e3d 230a 8f3d acee 9c3d f8e4 14bd
000001e0: 8ce5 8bbd 4a75 7e3d 0d26 3c3d 15e5 a43d
000001f0: b603 b13d 3826 49bd adc8 903d 62ab 9f3d
00000200: 99cf 90bc 68c9 48bd be80 5abd 2183 27bd
00000210: 5ec6 543d 3bc5 ee3a 1669 aabc feb1 8dbc
00000220: a94c 963d e8c5 743c d039 51bd aee8 3c3d
00000230: bec2 4cbd 5544 753d 42a0 a2bd 6bc8 b33c
00000240: 7be2 383d fbed 7d3d 8e5c 1abc faa1 1d3d
00000250: 8b39 42ba 3632 9b3d 2e65 d6bc bad4 9dbd
00000260: 6a8e d5bc 8bcc b13c e242 273c 93da 8dbd
00000270: 14db 21bd 99c2 f93c 9038 e03c d0d8 a13d
00000280: 628a a2bc 177c be3c cd58 44bd 124a b2bd
00000290: befa 273a c3af adbc b97a 913d 6f50 8cbd
000002a0: b6ef 98bd dbb7 5dbd 6c22 b9bb 6a21 703d
000002b0: e2a6 703d 8c96 72bc 6987 233d f6d8 523d
000002c0: 31fb c3bc 864a 31bd 777b a13c cd02 6cbd
000002d0: 4f1c 963d c569 073d 2cf6 41bc 0c35 c5bc
000002e0: b0c4 573b 8a71 503c 4225 a0bd a3c2 a0bd
000002f0: cde2 36bc 37e4 40bd 24d5 62bd bc65 523c
00000300: 0f3e 773d 7826 73bd 6832 e1ba 465a 353d
00000310: bdca 643d 9931 fc3c 0ae6 56bc 9029 59bd
00000320: 209e 8b3d 8f4d 49bd 57f5 553b e117 5dbd
00000330: 4c89 8a3b 96e7 86bd cdea 9cbc 5bed f7bc
00000340: c4b3 6a3d e479 25bb d345 c63c a9bd 10bd
00000350: 6a02 b2bd 23e6 84bd fd18 f93c 081e b43d
00000360: 2257 65bd 6a76 2cbd d33b 383d 0214 ae3d
00000370: 56a3 8fbd af06 3dbd fa22 abbd a83a eb3c
00000380: 4fc8 bcbc 9bd6 debc 147f 783d 3584 8bbc
00000390: ab69 54bd ba07 a2bd d5de 9e3d ebb3 f7bb
000003a0: 303c 593d e0d7 c1bc 130c c2bc c42b b43c
000003b0: 1f15 6e3d c063 ecba cfac 83bd af98 d3bc
000003c0: 612a bfbc 3f4d 593d 8da5 5dbd cfba a0bc
000003d0: cfe9 afbc ef74 ac3d 11fa b93c 2521 6c3d
000003e0: 5bbc 75bd 592f b63c 9c0f 4dbc f4e2 58bd
000003f0: 4632 f43c 7bf2 85bd d7ea 8f3c 5b1c 68bd
