pred_training/trained_rnn_models/T3_resnet50/pred_rnn/cosine_True_0.01_0.9mammograms_pred_rnn_0.501_7.pth (torch, 614587 bytes, 14 tensors)

init_net.0.weight f4 [64, 21]
00000000: 6b08 cbba 0617 e53d acc1 2fbe c027 1dbe
00000010: a67e a4bd d70d 653d 4864 87bb 2551 293e
00000020: 8eae 97bc b306 623d 4312 81bd cfe6 27bd
00000030: 5902 4cbe 3e6d 0dbe 560e b0bd 4822 fd3b
00000040: c9d7 a83d 2d1f 003e 51c5 10be 0800 babd
00000050: 3020 9b3d 09fe 303e 443c 30bd cba8 1f3e
00000060: e5ad 09bd c0c0 b33c eb5b 413e 3d19 46be
00000070: 2d6f 06be 27bd 58bd a47a a6bd b080 383e
00000080: 556a 0abe ab0e c5bd 3933 15be 50ff 47be
00000090: 084f f9bd fc8f 373e 0a8b be3d 0901 cf3d
000000a0: 3cb2 2f3c fdf5 dabd 6e1f 1a3d 0727 43be
000000b0: ad8a 16be 4e2d dcbd 1b7e 0a3e 5c69 fa3d
000000c0: 6169 bdbd d890 f6bb 67ce 0c3e a14a 543e
000000d0: f580 a93d 65c9 e63c 2c34 163e abef fabd
000000e0: d53e 203d c68b 25be 3101 14be 8055 dcbd
000000f0: 82c7 c13d 66bd bb3d 8cfc fcbd 73f0 7e3d
00000100: 9f7d e83d d83a debc 8974 023c 5c2e 423d
00000110: 4b7a 043e 380b 4d3e e98f 24be 8844 9ebd
00000120: 95d9 a73d 98ee 303e f8d3 393e 04be 3a3e
00000130: c2b9 293d 1ab2 39be 8f25 9d3c 4498 05be
00000140: 8503 47be f4ab 3d3e 788f 203e 3804 55be
00000150: 9594 1b3d 6ac8 15bd c504 12bd 9e80 c3bd
00000160: f3aa a13d 44f7 fcbd 2191 9c3d 67fb d73d
00000170: fc51 173e 6bb1 9f3d 335a 53be 8686 0abe
00000180: 85e0 cf3d 7e74 323d 1595 26be faec f5bd
00000190: 41e4 483e 46d8 0f3e 6943 babd 6153 62bd
000001a0: 006c 4bbe 164d 2abb efde 1ebe 99ee 22be
000001b0: 5742 3cbc 1f40 003d d4e7 aebd a66c fd3d
000001c0: 28f3 01be ac7d 453e 9457 123e 0f14 34be
000001d0: 5097 54bd 871a 4e3c 30b6 fa3c 203a 4b3d
000001e0: 4d9d a73d dea9 4c3c 6d63 d0bd 9d5b ca3d
000001f0: 691d 49be 5623 fdbd 04f2 55bd 9c0a d0bd
00000200: 4249 95bd 8106 2fbe 48b2 35bd fd95 363d
00000210: 051e 0bbe d457 2fbc 5fed 183e 8c9e afbc
00000220: 55ea bd3b c360 93bc 7cfa 2c3d d6c8 073e
00000230: 814e 4a3e 3f9d 073e f6bd 4a3e 321a 77bc
00000240: c0d4 3fbe bb59 cabd 5f67 113e ad30 b1ba
00000250: 6448 d4bd 29a4 23be 6fd8 47be a23b 34be
00000260: 3f42 2dbd c137 ea3d bee6 e63d c8f2 4dbe
00000270: 9034 053e 8e19 27be f994 34bd 4b2c adbd
00000280: 0787 24bd 1eb6 27bd ab9f 3fbe d861 38be
00000290: 4da9 05bd e6bd 303b e803 c2bd 39e2 a03d
000002a0: 221a 40be 65c1 62bc 60dc 3b3e cc34 aebd
000002b0: 59d1 403e e6ab 9a3d feb6 40be f11b 073e
000002c0: c294 c2bc ada7 bebd edc2 2a3e 5c90 2cbe
000002d0: 456a b93c b5f3 32bd 9482 183e 8776 6e3d
000002e0: b637 cd3d 4fe5 963d 7656 4dbd 956a 32bd
000002f0: 6dfa 2fbe 552b e63d 518e 283e ef8e 113e
00000300: 21a1 16be 5647 113c dc88 16be f41a ebbd
00000310: e0dd f8bd b8bf 8f3d e081 febd 0a16 95bb
00000320: 0dbc 0f3c d450 083e 1171 21be 9da0 12be
00000330: a104 f8bd 8277 153e e6b5 99bd dd10 343e
00000340: f757 973d 7352 d83c 67d6 173a bf43 1bbd
00000350: 69c7 fb3c f50b 43bd a21e c03a 59f9 d93c
00000360: fa08 27be 99d9 dfbd f082 313e 2b4d 2dbe
00000370: 4657 75bc 083f 533e 6757 a93d 541d ca3b
00000380: 5c0f 39be af98 d33d 7d1a 18be 3d2a 72bd
00000390: b5eb 8ebd db5d bcbc e27d 153b c55d 2f3e
000003a0: e8cc d03c 378a 3e3e b8a0 023e 14ae 07be
000003b0: 128d bf3d 1af4 16be c302 b5bd 67c6 783d
000003c0: 7d05 8d3d e234 203e 987c 89bd d901 4cba
000003d0: 90b7 db3d 1c93 4ebe 5163 1a3e 9e95 30be
000003e0: c088 3d3b e258 11bd 6283 e3bd 7acb e13c
000003f0: 2d2b 313e 0ddb 78bd b779 fdbd 22f4 9dbd
-0.001549018 0.11186032 -0.17163724 -0.15347195 -0.08031969 0.0559214 -0.0041318275 0.1653486
-0.018515851 0.05518217 -0.06302311 -0.0409916 -0.1992277 -0.13811204 -0.08596484 0.007725034
0.08244283 0.12511893 -0.1413777 -0.09082037 0.07574499 0.17284407 -0.043026224 0.15591733
-0.033613104 0.021942496 0.1888272 -0.19345565 -0.13128348 -0.052914765 -0.081288606 0.1801784
-0.13517125 -0.09621938 -0.14570321 -0.19530988 -0.12173277 0.1792602 0.09303863 0.10107619
0.010723647 -0.1069145 0.03762763 -0.19057857 -0.14701338 -0.10750829 0.13524668 0.12227127
-0.09248615 -0.007524591 0.13750611 0.20731594 0.0827655 0.028172204 0.1466834 -0.12252744
0.03912242 -0.161666 -0.1445358 -0.10758495 0.09461881 0.09166984 -0.12352857 0.06224103
0.11352085 -0.027127668 0.007962354 0.047407493 0.12937276 0.20023811 -0.16070522 -0.07727915
0.08195797 0.17278516 0.18147266 0.18236548 0.041436918 -0.18134347 0.019182948 -0.13046366
-0.19434936 0.18522626 0.15679729 -0.2080239 0.037983496 -0.036568083 -0.03564908 -0.09546016
0.07893934 -0.1235185 0.07644869 0.10545998 0.14777368 0.07797512 -0.20639877 -0.13527879
0.101502456 0.043568127 -0.16267808 -0.1200809 0.19618322 0.14047346 -0.09094889 -0.055255298
-0.19865417 -0.0025985888 -0.1551473 -0.1591133 -0.011490426 0.03131115 -0.085403115 0.12374239
-0.12690413 0.19286221 0.14291221 -0.17585777 -0.051902115 0.012579567 0.030604452 0.04961598
0.081842996 0.012491671 -0.10175214 0.09880755 -0.19640125 -0.123602554 -0.052232757 -0.101582736
-0.072893634 -0.17092325 -0.044359475 0.044576634 -0.1358567 -0.010702092 0.149343 -0.021437906
0.005795757 -0.017990476 0.042231068 0.13260207 0.1975651 0.13243578 0.19799027 -0.015081929
-0.18733501 -0.09880396 0.14199589 -0.0013518535 -0.1036537 -0.15980591 -0.19516157 -0.17600873
-0.042299505 0.114364155 0.11274479 -0.20112145 0.13008332 -0.16318342 -0.044087384 -0.08455714
-0.040167835 -0.040945165 -0.18713252 -0.18006074 -0.03263216 0.0026968657 -0.09473401 0.078556485
-0.18759969 -0.013840054 0.18345785 -0.08506164 0.1882986 0.07552318 -0.18819806 0.13194253
-0.023752574 -0.09309325 0.16675921 -0.16851944 0.022633681 -0.04368945 0.14893562 0.058218505
0.10020392 0.07367956 -0.050131284 -0.043558676 -0.17185374 0.11238734 0.1646054 0.14214681
-0.14709903 0.0088671055 -0.14700645 -0.1147975 -0.12151694 0.07018989 -0.124271154 -0.0045497464
0.008772862 0.13312083 -0.15765788 -0.14319082 -0.12110258 0.1459637 -0.075053975 0.17584558
0.07389825 0.026406502 0.00057921413 -0.037906405 0.030734735 -0.047618825 0.0014657567 0.026608156
-0.16312018 -0.10930175 0.17335105 -0.16923968 -0.014974421 0.20629513 0.08268624 0.006168047
-0.18072265 0.103318565 -0.14853854 -0.059122313 -0.06978551 -0.022993973 0.0022810628 0.17125614
0.025488332 0.18607412 0.12756622 -0.1325 0.09353079 -0.14741555 -0.088384174 0.060736086
0.068858124 0.15645173 -0.067132175 -0.0007782258 0.10728371 -0.20173305 0.15076949 -0.17244574
0.002892062 -0.035485156 -0.11109044 0.027562845 0.17301627 -0.060755778 -0.12376731 -0.0771258

init_net.0.bias f4 [64]
00000000: 538c 9abd 9594 5cbd 00fb 3f3e dd30 30be
00000010: 757b 493c 3d7a 513e af5e bfbd 7ab8 4c3e
00000020: c1ca 3d3e 111f 453e 6ecb 44bc efe3 3f3e
00000030: 5896 b9bd 8e1f 92bd 7ed3 a53d a726 2d3d
00000040: cc43 fb3d 2e16 4d3e 2553 04be 355d e83d
00000050: 8e7a 903d 218b e03d 7c71 cf3d 3735 a9bd
00000060: 22ca 28be 3f34 293e 9904 fbbd 1fdc 0c3e
00000070: ce73 4bbe 9d2f 13bd c80f 493b 981d 133d
00000080: 1084 a53c d35a 873d f421 b2bc c360 553d
00000090: 35d1 4e3e ae9a 09be bcbb 06bc fe0f a2bd
000000a0: a5b7 363e bc71 3b3e 692f 52bb 4aa7 94bd
000000b0: 3267 05be a2cc 183e 751a 6dbc 349f 4b3e
000000c0: 6225 f53d 437e 403e e1ca 2a3e bbc1 0abe
000000d0: b381 7a3d 9418 b1bd d00d d83d 0d14 9cbc
000000e0: 41a9 923c a264 13be e88b 3ebe 81bf a23d
000000f0: dc26 3b3d f4ef 933c ba98 1c3e afd9 b1bd
-0.07546296 -0.053852636 0.18748093 -0.1720614 0.012297501 0.20456786 -0.09344231 0.19992247
0.18534376 0.19250132 -0.012011392 0.18739294 -0.09061879 -0.07134925 0.080969796 0.04227319
0.122687906 0.20027992 -0.12922342 0.11345903 0.070546255 0.10964037 0.10129067 -0.08262103
-0.16483358 0.16523837 -0.12256736 0.13755845 -0.19868395 -0.03593408 0.0030679572 0.035916895
0.020204574 0.0660912 -0.021744706 0.052094232 0.20196994 -0.13437912 -0.00822347 -0.079132065
0.17843492 0.18305105 -0.0032071716 -0.0725847 -0.13027647 0.14921811 -0.01447164 0.1988495
0.11970021 0.18798165 0.16678955 -0.13550465 0.061158847 -0.08647266 0.105495095 -0.01905253
0.017902972 -0.14393857 -0.18608057 0.07946683 0.045691356 0.018058755 0.15292636 -0.08684098

init_net.2.weight f4 [256, 64]
00000000: 01b0 2d3d d5ca 86bd 8b98 c93c 2902 e0bc
00000010: 4d3c ab3d e4e9 d53d d87a d43d 5515 b03b
00000020: 7f12 903d c8e0 f4bd c598 8fbd d945 ae3c
00000030: 2924 2e3a ae10 c0bd a8ad 58bd 2793 64bd
00000040: 1694 f2bd 48b6 383c 18a0 a63d 1b02 463d
00000050: 168b 68bd f3ba e0bd ed73 c5bd 1c58 0d3b
00000060: 5a4b a83d 6c3e 46bd 8f31 85bd c6f7 82bd
00000070: d76c 29bc 5a54 e8bd b4f6 d7bd bdd0 f03d
00000080: c78b 69bd 5197 b0bc 5156 03bd a4f0 d6bd
00000090: 36b9 acbc c6ba 153d 4214 47bd 17fa a6bb
000000a0: 8687 1aba c1b5 f3bd 5d9d b13d cb96 c53d
000000b0: 40b9 a63d bbae 20bd 9caf 7f3d 864e e5bd
000000c0: bd4c f3bc a4d5 c7bc 375c 2dbd 2580 4d3d
000000d0: 11f3 5ebd d6d7 62bc eb76 0dbd 5cd0 e5bd
000000e0: 5eab a1bc 065a cfbd 829c 8e3d c4a1 823d
000000f0: f70b e53d 884d 24bd 6e11 c13b 4cad bf3c
00000100: 0835 f43d 56b0 df3d f7df 81bd ebf9 d1bd
00000110: e2c8 ddbd 2920 6cbd b8ad cd3d 0954 243d
00000120: 9f84 e93d 3ced af3d 67cd a43a 71a3 99bd
00000130: 9bdc ee3d d63d c43d a868 523d d2f5 85bd
00000140: 2d5f be3d 9371 1a3c 84ff 9f3d 7cec 443d
00000150: e586 813d 37a1 d7bd 6c8a 88bd b63b 913d
00000160: 95eb cbbc c55b d5bd de8f dd3d bc37 adbb
00000170: a359 c53d c438 bfbd 737a 263d 6e84 38bd
00000180: f44f 50bd b0a8 cdbc fb10 3abd 67c2 853d
00000190: 9486 bcbc 9042 b93d 8f3c d53c 58e9 97bc
000001a0: a0be 8dbd c3e1 e1bd 5534 13bd 2cf3 e2bd
000001b0: ffb3 b8bc 88e8 ff3a 89fd fcbb 09a2 72bd
000001c0: 6e28 a63d ff84 873d a6c6 ffbc 2155 41bd
000001d0: 77cb 993d ffd8 d43d 0b02 e1bd e07e d7bc
000001e0: 8501 37bc 418e 31bd cd4b d03d b83d 97bc
000001f0: 3780 cd3d 91cf 183a 1b5f 78bc 22c1 8ebd
00000200: 46b0 22bd 0373 1e3d c52b 5d3d 5d01 6dbb
00000210: 620a ea3d b123 a9bd db9f 3b3d a758 dc3d
00000220: 0ad3 a2bc ff24 c63d b808 183b 1bc1 b5bd
00000230: 1f31 86bd 5021 363d 4ab8 52bd ed40 ec3c
00000240: 7f7b f23d 6387 2a3d fc02 2dbc bb18 ff3c
00000250: 97ae 8cbd bee0 ccbd b341 b7bd a936 ccbd
00000260: d2da c83c e324 c03c 2990 4ebd 1346 ebbd
00000270: d686 843d f9cf 8abd 1f95 a0bc 540d cdbd
00000280: 6120 89bd a4aa 4c3d 822c e2bd bc4b 8bbd
00000290: 74e5 b73d 3b97 7abd 88f6 47bd 2422 09bd
000002a0: 65c9 513d 2523 9fbd d930 513c 2166 483d
000002b0: 594d 09bc 38f2 b03c cd98 babd a1d8 5e3d
000002c0: e62a 3c3d 3671 68bc c79a c7bd 5bb6 433d
000002d0: 33a6 9f3d 6e29 abbc f30c 683d 1fd9 363d
000002e0: 7575 43bd 9eb5 06bc 59ef f33d ff56 983a
000002f0: 975b c1bd 03a6 0ebc abfc 793d 8da4 1fbd
00000300: 781d 80bd 93ca c93d 57ea 823d 9f03 a3bc
00000310: 994d d13b 9809 4ebc ad38 e33c 251d 8b3b
00000320: 00e5 92bd a324 bf3c 4d5f 5b3b b4e2 053c
00000330: d16d 3abd 28bf fa3c 0381 c5bd 628d 123d
00000340: 88a3 853d a575 4cbc 153c bdbd a3d3 c039
00000350: fe48 8539 26fd d2bd 539f acbd 58f6 e23d
00000360: aaf4 b63d 6fd1 873d bbe7 a93d d666 413d
00000370: 3caf 893d 0b09 a23d 56d7 e2bc 4465 78bc
00000380: 4101 af3d 1167 3138 7111 9ebd c68f bdbd
00000390: d01e 893d a9bf ca3d 2725 bf3d de29 a33c
000003a0: 9811 a93d c4c3 dfbd 7e3f afbd 7f39 ebbd
000003b0: 547e c53d 37ad 8dba 9043 61bd 959b 263d
000003c0: 71d4 33bd a8df 9bbd 4619 403d ca2f b33c
000003d0: bb30 afbd 7a23 a1bd 6250 663d 217e ba3d
000003e0: dbf0 1f3c 7a96 75bd 40c7 6c3d 9fc1 ad3c
000003f0: 114c d5bd e588 9ebd 3276 de3c 8c67 973d
0.04240418 -0.06581656 0.024608871 -0.02734478 0.08361111 0.10445002 0.10374993 0.0053736367
0.07034778 -0.11956936 -0.0701156 0.02127354 0.00066429615 -0.093781814 -0.052899987 -0.055804398
-0.118446514 0.011273928 0.08136004 0.04834185 -0.056773268 -0.10973158 -0.09641252 0.002156741
0.08217497 -0.048399374 -0.06503593 -0.06394915 -0.010340891 -0.11344214 -0.10545102 0.11758564
-0.057018068 -0.021556528 -0.03206474 -0.10495117 -0.02108441 0.036555074 -0.048603304 -0.005095731
-0.00058948284 -0.11899901 0.08672593 0.09647902 0.081408024 -0.039229136 0.062423334 -0.11196618
-0.029699678 -0.024393864 -0.04232427 0.050171036 -0.054431025 -0.013845405 -0.034537237 -0.11221382
-0.019735035 -0.101245925 0.06963445 0.063785106 0.11183923 -0.040113002 0.0058919704 0.023398064
0.119241774 0.10922305 -0.06341546 -0.10252746 -0.10829331 -0.057647858 0.100429 0.040119205
0.114022486 0.08590171 0.0012573422 -0.07501877 0.11663171 0.09582107 0.05136934 -0.06541027
0.09295497 0.009426492 0.078124076 0.04807709 0.06324557 -0.10528796 -0.06667027 0.07091467
-0.024892608 -0.10417894 0.10818456 -0.005286185 0.096362375 -0.09336999 0.04064412 -0.04504817
-0.0508575 -0.02510485 -0.04542635 0.0653122 -0.02301339 0.09045899 0.026029853 -0.018543884
-0.069211245 -0.11029389 -0.03593858 -0.110815376 -0.022546766 0.0019524256 -0.0077206534 -0.05923656
0.0811318 0.06617164 -0.031222653 -0.047200326 0.07509511 0.10392951 -0.10986718 -0.026305616
-0.011169796 -0.043348555 0.10170708 -0.018462047 0.10034221 0.00058292696 -0.015159394 -0.06970431
-0.03971889 0.038683902 0.05399682 -0.0036164143 0.114277616 -0.08258761 0.045806747 0.107590966
-0.019876022 0.09675025 0.0023198556 -0.088747226 -0.06552338 0.044465363 -0.051445283 0.028839553
0.11839961 0.04163302 -0.010559794 0.031139722 -0.06869238 -0.10003804 -0.08948078 -0.09971363
0.024518404 0.023455089 -0.05043045 -0.11487975 0.064710304 -0.06777949 -0.019602356 -0.10012308
-0.06695629 0.049967423 -0.110436454 -0.068015546 0.089793116 -0.06117938 -0.048819095 -0.033479825
0.051217455 -0.07770375 0.012767994 0.048925523 -0.0083802575 0.021599874 -0.09111176 0.054405812
0.04593935 -0.014187148 -0.09746318 0.04778133 0.07795372 -0.020893779 0.056652974 0.044640657
-0.047719438 -0.008222012 0.11910886 0.0011622607 -0.094412975 -0.008706572 0.06103198 -0.038975287
-0.06255621 0.09853091 0.06392353 -0.019899188 0.006387424 -0.0125755295 0.027736986 0.0042454177
-0.071725845 0.0233329 0.0033473552 0.008171726 -0.045514885 0.030608729 -0.09643748 0.035779364
0.06525332 -0.0124792205 -0.09239975 0.00036778775 0.0002542212 -0.103021905 -0.08428826 0.110821426
0.08933385 0.06631743 0.08296152 0.047217213 0.067228764 0.07911881 -0.02769057 -0.015160862
0.08545161 4.2296077e-05 -0.077181704 -0.09255938 0.0669533 0.098998375 0.09333258 0.019917425
0.08255309 -0.10926011 -0.08557032 -0.11485576 0.09643236 -0.0010809068 -0.054996073 0.04067572
-0.04390377 -0.076110184 0.046899103 0.021873374 -0.085542165 -0.07868095 0.056229003 0.091060884
0.009762014 -0.05995796 0.057807207 0.02121049 -0.10414899 -0.07740954 0.02715597 0.07392797

init_net.2.bias f4 [256]
00000000: c63a d6bd 5e05 bf3d 3388 b5bc 64da 73bd
00000010: 1967 5b3c d617 893d 5e36 b83d 760f 9d3d
00000020: 2e76 ebbc fccf d73c 9243 d93d 71d7 843d
00000030: a6a4 ee3d 8fde b63c ab2d e6bd 0311 213d
00000040: 2035 f8bc e98e cc3c b0c9 3f3d 42fa 913d
00000050: 2d01 5dbd fc7f babd 33d6 e73d 2835 1a3d
00000060: 214d 773d a249 153d b744 cbbc f10d d5bd
00000070: ca6c d83d e384 e83d 8740 ed3a 9ccf ccbc
00000080: cbdf 4b3d b2e5 f0bd b0eb ee3c 7f2e cc3d
00000090: 631b f7bc aae4 78bb 392a 653d 3f59 2cbc
000000a0: 6033 ddbb dace 1c3d f337 13bc 94c6 a2bb
000000b0: 7342 89bb 04ab 833d 1cb4 e83d c610 093c
000000c0: cd9a 993c 1d71 b0bd a862 8e3d 66a4 8f3d
000000d0: 73c1 b6bd 8f4a 9f3d 6f5b da3c 6ce7 a0bd
000000e0: a4d5 97bc eabe dabd 74a9 8c3c bc23 813d
000000f0: 957b b0bd 41b8 7cbb 1920 cc3d da70 be3d
00000100: 0f68 9e3d aa6d 87bd f43f d9ba 3e02 6fbd
00000110: 674b d93d 928d 283c 2e67 91bd 5554 95bc
00000120: 1541 b93b c77a 3b3d 7e5c 83bc 418e 893c
00000130: f9e2 e4bd 9026 18bd 7607 8d3d 2fc9 483d
00000140: 2bc0 e33d 464e be3d 84d2 723d 47eb 7dbd
00000150: 6c7b d83d 9305 a13d a5bc 17bd a826 4dbd
00000160: 9811 6dbd 2171 90bd a4e3 343d 6968 86bd
00000170: 7cfe d63d 6558 043d 988e 433a 526b 083d
00000180: f9b3 843d 2ad7 97bc 4465 b3bd 8e14 e7bd
00000190: 3fd1 e63d 1946 f13d a7b2 2fbd 10c9 de3d
000001a0: 2db0 343d d2a6 d9bd 5f3c afbc 6e36 d3bd
000001b0: 95fd 513d 59d2 243d 129f 5e3d d7a8 15bc
000001c0: a5bc 863c c205 9cbd 0f69 c6bd 5c17 15bd
000001d0: 3d53 313d bed6 c6bc d795 a5bc fb84 8cbd
000001e0: eb58 6abd a0e2 87bd 3aee cbbc 8557 e13d
000001f0: 4e14 f1bc 6a4f 95bc bc0d 69bd 2c04 93bd
00000200: 3dda efbd 11b3 a5bd 1671 fbbc c12d d6bc
00000210: 18f5 a5bd 375b 30bc 8751 d13d 92f6 c0bd
00000220: 56ab 8a3d 8b9c bdbd c430 953c 505a 0d3b
00000230: 4bb3 cabd 98f5 72bd eb10 5dbd a5eb afbd
00000240: 2229 0c3c 7b1c bbbd fa74 e43d 2dd1 383c
00000250: f3cf b2bd 8a25 50bd 8ab6 de3d bd9f 3a3b
00000260: 4ef7 6f3d b576 af3d da5c 85bd 407e dd3d
00000270: 35e5 84bd 6c40 ccbd 5b1a 9d3d 2ee8 acbd
00000280: 9d6c adbd 4e60 cabd d0c5 1b3d e2b4 09bc
00000290: d922 d43d ec55 48bd 01f3 373b f010 7a3d
000002a0: aab2 c6bc e6b2 0cbc ec45 9bbd 2c2a 873d
000002b0: 6e63 413d 442a bbbc 4e79 41bd 19f3 9c3d
000002c0: 1707 d6bd 3cdc 453d 0b43 b03d 9a83 18bd
000002d0: 754e 383d cf0a 233d ac36 2c3c c032 6abd
000002e0: a28a 87bc c524 93bc 64ca 423d 66b9 ecbd
000002f0: 5ef5 20bc d3bd 303d e373 2b3d e9bd 81bd
00000300: 07cb 29bd 7201 923d f21e e83c 1ed5 f23d
00000310: b1f6 31bd 2558 933d d2f4 5bbc 2d41 893c
00000320: 33a3 31bb 4107 dcbd 14ec 4e3d 029d ec3c
00000330: 35dc d3bd d6a6 abbb f0a1 d03c b733 c53d
00000340: 6194 e73d c214 c7bc 1bee c4bc 5440 fcbc
00000350: 4795 b7bd 1c5a 613d eca7 fb3d 3e53 de3d
00000360: ddf5 d1bd d61c d8bd 4e80 a5bd 17b5 c6bc
00000370: f4b6 02bd 9d43 dbbd b70e d7bd c8be cabd
00000380: 4f1a 19bd 5a86 293b 1419 f53d bf0c debd
00000390: d600 993d 9762 2ebd 22b0 f53d aa11 c4bd
000003a0: 4a7f dfbd 4b83 a3bc 6382 3c3d 93a7 bcbd
000003b0: 07eb e7bc 8e25 c7bd 8f86 853d 640f 7abd
000003c0: fe36 6ebd ea07 dfbd a760 1f3d 92dc ec3d
000003d0: 90bf f63c 26c1 363d d69d c73d de5f 33bc
000003e0: 43e2 303b d1d5 c83d 5d5a 24bd 260c e4bd
000003f0: 668b 853c a332 463d 967d 3c3d ad27 b93d
-0.10460429 0.093271956 -0.022159671 -0.059534445 0.01339128 0.066939995 0.08994745 0.076689646
-0.028742876 0.026344292 0.10608591 0.06486405 0.11652498 0.022322921 -0.11239179 0.039322864
-0.03029877 0.024970489 0.046823204 0.07127811 -0.0539562 -0.09106442 0.11320152 0.03764835
0.06037629 0.036447175 -0.02481304 -0.1040305 0.10567625 0.11353471 0.0018100896 -0.02500134
0.049773972 -0.11762561 0.029165119 0.09969806 -0.030164426 -0.0037978091 0.05594847 -0.010519325
-0.006750509 0.038283207 -0.008985507 -0.00496752 -0.0041888296 0.06429103 0.11362478 0.0083658155
0.018750573 -0.08615325 0.06952411 0.070137784 -0.08923616 0.07777893 0.026654927 -0.0785664
-0.018534489 -0.10680945 0.017170645 0.06305644 -0.086173214 -0.0038561972 0.0996706 0.092988685
0.07734691 -0.06612714 -0.0016574846 -0.058351748 0.10610085 0.010287659 -0.07099758 -0.01822869
0.0056535103 0.045771386 -0.016035315 0.016791465 -0.11176104 -0.03714615 0.06886189 0.04901999
0.111206375 0.09292273 0.059282795 -0.061991956 0.10570416 0.07862391 -0.03704514 -0.050085694
-0.057878107 -0.070528276 0.044162408 -0.065628834 0.10497758 0.032310862 0.0007459908 0.033305474
0.064796396 -0.018535215 -0.08759549 -0.11283217 0.11270379 0.11780948 -0.042894986 0.108781934
0.044113327 -0.106275216 -0.021391092 -0.10313116 0.051267225 0.040239666 0.05435092 -0.009134493
0.016447375 -0.07618286 -0.09688007 -0.03639923 0.043292273 -0.024272319 -0.02021305 -0.068613015
-0.057213705 -0.06635022 -0.024893869 0.11003021 -0.029428627 -0.018226344 -0.056897864 -0.0717853
-0.117115475 -0.08090795 -0.030693572 -0.026144864 -0.081033885 -0.010763935 0.10220628 -0.094220296
0.06770961 -0.09258374 0.01821173 0.0021568723 -0.09897479 -0.059316248 -0.053971212 -0.085898675
0.008554729 -0.091362916 0.11155124 0.01128034 -0.087310694 -0.05081705 0.1087466 0.002847656
0.058585458 0.085675634 -0.06511851 0.10815096 -0.0648903 -0.09973225 0.076710425 -0.08442722
-0.08467982 -0.0988165 0.038030446 -0.008404942 0.10358209 -0.048910066 0.0028068426 0.06105131
-0.024255116 -0.008587575 -0.07581696 0.065998405 0.047213964 -0.022847302 -0.047234826 0.07663555
-0.10450571 0.048305735 0.086065374 -0.03723488 0.044996697 0.03980523 0.010511082 -0.057177305
-0.016545597 -0.017961869 0.047556296 -0.115587994 -0.009824125 0.04314978 0.041858565 -0.063350506
-0.041453388 0.07129182 0.028335068 0.11857055 -0.043448154 0.071945466 -0.013425069 0.016754711
-0.002710533 -0.10743571 0.05051811 0.02888346 -0.103447355 -0.0052383943 0.025467843 0.096290044
0.11307598 -0.02430189 -0.024039319 -0.030792393 -0.08964019 0.055017576 0.12287888 0.10855721
-0.10251973 -0.10552375 -0.08081113 -0.024256272 -0.03191276 -0.107062556 -0.105008535 -0.0989967
-0.037378605 0.0025867433 0.11967674 -0.10842275 0.074708626 -0.04257449 0.11996485 -0.09573682
-0.1091295 -0.019960066 0.046022784 -0.0921165 -0.028310312 -0.0972396 0.06519806 -0.061049834
-0.058157913 -0.10890181 0.038910534 0.11565508 0.030120641 0.044617794 0.09746902 -0.0109481495
0.0026990331 0.09806407 -0.04012524 -0.1113513 0.016301822 0.048388135 0.046018206 0.09040771

lstm.weight_ih_l0 f4 [512, 1]
00000000: d7b4 933d 3e48 673a c1fc 4e3d ebd2 90bd
00000010: e49d 1f3c 1ab0 4e3d 2195 563d 5bbf a1bd
00000020: 560b 983d 112c 5a3b b13c 153c 5f38 a83b
00000030: b6a5 ab3a fdd0 4fbd 6a16 993d 5656 d53c
00000040: 26ae 70bd 1e6d 82bd e880 433d ab1b 883d
00000050: 94da 803c 4fda 973d 443a e5bb 7e8a 09bd
00000060: aaa3 203d c138 8d39 1ef7 283c 6d3e ed3b
00000070: 49e5 823d f7b8 273d f143 373d 38c4 233c
00000080: 762e ccbc dde1 6ebd 4021 30bc 1901 97bd
00000090: 171b 42bd 7371 a5bc 0ec7 813d 74be a9bd
000000a0: b8f6 4b3d a24c 51bd cbad 9fbd 9d8d 69bd
000000b0: 7b5d 69bd ed6c a73d 95fe 7b3d a65d a53d
000000c0: 7cc8 37bd 9004 a5bd 9d49 9cbc f210 893d
000000d0: adf5 353d 2ca0 88bd 09f4 c5bc df7a 213b
000000e0: 89eb a63d 521c 6ebd c8fa 6b3d 6e09 4b3d
000000f0: be95 36bd 7e0a 81bd 00bb 4ebd 6fad 643d
00000100: 4230 a9bd d691 6a3d 0641 9e3d 6a4a a1bd
00000110: 6f86 4dbc 62c1 6e3d 006b a6bc b61d 1e3d
00000120: dc5d 0b3b bac3 1bbd 874c 793d 1f9d 5f3c
00000130: 6657 4fbc bf01 eb3c 4bb2 35bd e911 74bc
00000140: 7614 4abd 950a 44bd 5e88 47bd 58ea b7bb
00000150: 256a 7cbd 1a7f 1ebc bed8 dbbc 8612 8ebc
00000160: 696e 1bbd aa5f 55bd 360e a13d 6bf6 073d
00000170: 07fb 903d 954b ebba 7cae 7d3d 7951 c53a
00000180: ee8f fb3a 8551 a0bd a95c f03c 8d7c 403d
00000190: ae2b 97bc efb7 99bd 6438 73bd 5fdf 6f3d
000001a0: cce2 c2bc 1bed 2e3d 607e 803c 214e 943d
000001b0: a2cf 1cbb 594d 9d3c f691 70bd 1548 66bd
000001c0: bb88 803d 1c21 5fbd 8c6d fc3a e48e 9dbd
000001d0: 8c1e 03bd f47e 18bc 99be 553d c8c8 583d
000001e0: 32a9 ee3c 8c9b 93bc 14d3 133d b61a b13c
000001f0: 07d9 dd3c 98dc 433c aeba b1bb c699 a23d
00000200: ee2c 763d faaa abbb 430f a9bd 3698 aa3c
00000210: 7f01 7a3c 40ec 253d 0fa9 a1bd f620 863c
00000220: c8a2 923d 7ed9 3d3c c5a8 29bd 99d9 23bd
00000230: 8423 d03c 1271 183d 8fd0 83bd ef74 993d
00000240: dc39 33bd 35be 9a3c 6149 5f3d c3c6 7dbd
00000250: 5c79 733d ae54 2d3a de51 dabc 5743 5dbd
00000260: cb96 8b3d c1bf 4a3d 36ba 94bc 4a4a aa3c
00000270: e945 bd3c 2076 88bd 7bb8 993d 798a 95bd
00000280: a538 003d 3930 173d c74d a8ba 6f34 2ebd
00000290: f23b 91bd 0304 663d 1be9 93bb b6ac 12bd
000002a0: 64a6 f0bc c0ba 1d3c 5f48 873d 8343 9bbd
000002b0: ed10 2b3c da41 99bd 9f24 90bd ef23 51bd
000002c0: 70af 803d 0c6a 84bc 5029 323c 293d 063d
000002d0: 2207 413c 14e6 043d 18bc 32bd bbc1 ba3c
000002e0: 402c 863d 6251 a8bd 9ff7 3d3d 3b6b a2bc
000002f0: 95d0 483d 6da2 a2bc 50a6 a83c 5d84 84bd
00000300: 0f14 bebc d8e3 20bd d358 85bd 7fae ba3c
00000310: 385f a13d 2867 7ebd f776 ac3d a0d5 373c
00000320: fe93 a1bd d381 c3bc 3255 613d 928e 91bd
00000330: 13df 5bbc 0d64 a23d a9d4 d1bc 4b1f 503d
00000340: 5a75 82bc 88d5 33bc 6600 45bd 4d6b 813d
00000350: e135 98bd 9ff2 63bd ab81 9abd 5708 3b3c
00000360: b921 4cbd 6168 9d3d abaa 123d f24a 5e3d
00000370: 7636 133c 2d9f 903d 6a6c 38bd e7ae e5bc
00000380: bdf9 913d bd82 0c3d a8ef 55bd 20c3 06bb
00000390: 7967 163d f3dd 613c 7168 ab3d ce18 0fbd
000003a0: 0f0d a8bd 5bb9 413d 2f7e c23b 91fb 8bbd
000003b0: 1a36 92bb 5f83 9bbd ee82 4d3d 4f8a 9d3d
000003c0: be27 b03c eae0 aa3d c4c4 4cbd a020 4ebc
000003d0: bec4 6a3c 5cb8 30bb 66de 8d3d 5557 883d
000003e0: 1437 adbc 559e 9abd 31bb 8f3c 3ca3 593d
000003f0: 47f5 233c 0af7 fabc 65da bd3c 23a3 a1bd
0.07212227 0.00088227156 0.050534014 -0.070714794 0.009742234 0.050460912 0.052388314 -0.07897826
0.07424037 0.0033290426 0.009108708 0.005133673 0.001309565 -0.050736416 0.07474978 0.026042145
-0.05875983 -0.06368469 0.047730356 0.06645902 0.015729226 0.07414686 -0.006995471 -0.033579342
0.039218582 0.000269359 0.010312824 0.0072401077 0.06391389 0.04094788 0.04474253 0.009995513
-0.024924498 -0.05832087 -0.010750115 -0.07373256 -0.047389116 -0.020195698 0.06336795 -0.08288279
0.049795836 -0.051098473 -0.0779682 -0.05701982 -0.056973916 0.08175073 0.061522085 0.08074503
-0.04486893 -0.08057511 -0.01907807 0.06692685 0.044423748 -0.06671175 -0.024164217 0.0024639887
0.081503935 -0.058132477 0.05761221 0.04956954 -0.0445764 -0.06300829 -0.050471306 0.05582946
-0.082611576 0.057267986 0.07727246 -0.078755215 -0.0125442585 0.058289893 -0.020314693 0.038602553
0.0021265661 -0.038028456 0.060863998 0.0136483 -0.012655115 0.028687356 -0.044359487 -0.014896848
-0.04933592 -0.047861654 -0.048714034 -0.0056126527 -0.061624665 -0.009673858 -0.02683675 -0.017342817
-0.037947092 -0.052093185 0.07864039 0.033193987 0.0707913 -0.0017951602 0.06193398 0.0015054188
0.0019192675 -0.078280486 0.029341059 0.04699378 -0.018453445 -0.07505786 -0.05937995 0.058562633
-0.023789786 0.04270659 0.01568526 0.072414644 -0.002392747 0.019201921 -0.05873295 -0.056221087
0.06276079 -0.054474935 0.0019258722 -0.0769327 -0.032011554 -0.009307612 0.05218372 0.052925855
0.029133413 -0.018018506 0.03608997 0.021619182 0.027081026 0.011954449 -0.0054238653 0.07939486
0.060101442 -0.005238888 -0.08254864 0.020824533 0.015259146 0.04050851 -0.078935735 0.016373139
0.07159954 0.011587499 -0.041420717 -0.04000244 0.02540756 0.037217207 -0.06436264 0.074930064
-0.04375635 0.018889526 0.05451334 -0.061957132 0.05944191 0.00066120445 -0.026650365 -0.0540193
0.06815871 0.049499277 -0.018155199 0.020787377 0.023104625 -0.066631556 0.0750589 -0.07301802
0.03130402 0.036911223 -0.0012840562 -0.042530473 -0.07091512 0.05615617 -0.0045138723 -0.03580924
-0.029376216 0.009627044 0.066056006 -0.07581236 0.010441047 -0.07483263 -0.07038235 -0.05105966
0.06283462 -0.016163848 0.0108741075 0.03277317 0.011781486 0.032445982 -0.04363641 0.022797456
0.06551409 -0.082186475 0.046378728 -0.019826522 0.049027044 -0.019852841 0.020587116 -0.06470559
-0.023202924 -0.03927979 -0.065110825 0.022788284 0.0787949 -0.062110096 0.08421128 0.011220366
-0.078895554 -0.023865616 0.05501289 -0.07107271 -0.013419884 0.079292394 -0.0256141 0.050811093
-0.015925098 -0.010976203 -0.048096083 0.06319294 -0.074321516 -0.055651303 -0.075442635 0.011415563
-0.049836848 0.07685924 0.035807293 0.054270692 0.0089851525 0.0706161 -0.045025267 -0.028037501
0.07127712 0.03430437 -0.052230507 -0.002056308 0.036719773 0.013785827 0.0836953 -0.034935765
-0.08205616 0.04729591 0.0059354524 -0.06835092 -0.004462016 -0.075934164 0.050173692 0.07692396
0.021503326 0.0834368 -0.049992338 -0.012581021 0.014329134 -0.0026965356 0.06927185 0.06657282
-0.021144427 -0.07549731 0.017545315 0.053134188 0.010007209 -0.030635376 0.023175428 -0.07892444

lstm.weight_hh_l0 f4 [512, 128]
00000000: 9b3a 7fbc d813 47bd 34ec 233d 508e 423d
00000010: 4d9f 3d3d 6b47 453c 2f4e 70bd 73d3 9f3d
00000020: abec 693d 896a 563d 8d4e 153d bcf7 603c
00000030: da13 363d c8fb afbc 1732 aabd 63f1 e0ba
00000040: ecc1 80bd ef0d 8a3d 2b9f 97bd 2d42 08bd
00000050: 3d80 bb3c d682 183d e4e9 ac3d 78e4 8d3d
00000060: 3fc4 6d3c b507 893d 8e0b 803b 7b25 1bbd
00000070: e16a 903a be95 403c aad1 c43a 3217 62bb
00000080: 6049 4dbd a6f7 033d a1e8 023d 3c48 2f3d
00000090: c7c4 00bd ed3f af3c ddb2 603d 1703 20bd
000000a0: aa94 c8bc 7817 433d 5899 44bd 2f7b 763c
000000b0: 5da1 a4bc ac22 edbc ade9 a3bd c71d eb3c
000000c0: 900a 4d3b a748 94bd 7a7e 5fbc 37e4 e53b
000000d0: 7e69 833c 3310 8cbd d97e 02bc afdc 803d
000000e0: 57a1 9bbd 7d19 74bd 829b 593d 26ee 0cbd
000000f0: b6b4 27bd c514 59bd 2121 b53c 1390 043c
00000100: 2bb0 c43a ef72 db3c 771f cf3c b9d2 51bd
00000110: 9e31 723b 4ba6 abbd 638c 89bd 8dc9 2d3d
00000120: 53af 073c a0e9 5dbd 45a2 3fbd 76b3 753d
00000130: 8e12 92bd f35e 55bd 560d 843d fd86 89bd
00000140: e49c 47bd 05e7 463d 3ab4 84bd 6245 a83c
00000150: 4a73 873d a71c 2c3c 0414 35bd 2f9e 62bd
00000160: 0565 9fbd 1eb2 383d 309d 22bb 3f2e d3ba
00000170: c3f0 54bd 9e27 85bd 86cc 83bc 5a3b cf3c
00000180: b813 593d 1ba3 7e3d 5c66 f0bb c92d a9bd
00000190: 60ae 703d 61a4 09bd f3f2 063c e827 85bc
000001a0: 2dae 42bd 5f0e ebbc 6a92 6bbc 32c4 88bd
000001b0: cf1f 52bd 3cb6 34bc a66c f03c 65a6 ab3d
000001c0: cd70 5f3d a6ac 663d 227d 7ebb 1462 943c
000001d0: 3190 e9bc a00a 6abd 7e4e 853d 803b 203d
000001e0: f340 953d d810 2c3d 05e4 4fbd fcaf 9cbd
000001f0: 7f3f ab3d 8992 7abd 9cce c5bc c0de 3abd
00000200: b5eb 023d 1f32 683d bc7c 44bc 6c45 4d3c
00000210: d285 86bb 42f9 23bd e1ba a73d 230a 243d
00000220: 3577 b6bc 4c3c 6abd 809b 26bd 7fcc b2bc
00000230: cf37 9b3d 160f 13bd 7108 223c 89c2 4f3d
00000240: 6ce9 0f3a 58af 1f3d 70e3 29bd c11b cc3a
00000250: e28c 003c d584 4b3d c412 8e3d 3cb4 62bd
00000260: 4571 9dbc fea1 52bd 4e5a 9c3d 002f 923d
00000270: 1d3e 833d c77e ef3c c637 cabc 2192 e03c
00000280: fa10 8ebd 7aa1 8cba 9976 49bd f720 86bd
00000290: 57ad acbd eeb0 043d 54da 753d de57 d1bc
000002a0: 8761 a3bd 5c41 05bd 126a 0c3d 185b 9c3d
000002b0: 5cfe 363d 53ac 03bd 3f27 a03d 91d2 433d
000002c0: 82ac 9b3b e653 683d 10d0 58bd 1d7c 2a3c
000002d0: be6b 043c 97de 86ba 8c6b 6c3d 1c2b 3d3d
000002e0: 398f 9d3c fe7f c83c e8dc 6abd 3d00 823d
000002f0: b0e8 c739 1fef 22bd 4758 b33c 4b7e 08bd
00000300: 2ac2 0b3c 6b63 db3b fb15 413c e9cd 5c3d
00000310: 33f5 5d3d a909 893d 30f9 7fbd 40dc 47bc
00000320: f16f acbc feeb e9bc 25b3 a9bd a6bb 663d
00000330: d4c2 f6ba 5676 8f3d 8641 a33d e1fa f03c
00000340: 163d d4bc c725 9b3d e6bb 4a3d f0a8 4a3d
00000350: 601a 7ebc dee7 913c eece 8bbd feb8 8f3d
00000360: 4217 933d afaf 2fbc aebd 92bb 2527 7ebb
00000370: ce8e e03c a097 523b 45ed 92bd 0c5e 17bc
00000380: 4857 f6bc cd2e 533d 775c 68bd 5603 87bd
00000390: 29eb 883d e9ad 8dbd e03a 223d 588b 6fbc
000003a0: 150c a3bd 3449 a0bd 0089 383b be04 eabb
000003b0: 8dcf 053d e07e 713c 715f 2dbd 39e8 933d
000003c0: 3cf0 b7bb 91e6 873c 2da2 06bd b9df a1bc
000003d0: 1e16 40bd ec4b 50bd 5e0a 7cbd 444c 223d
000003e0: 171a 483d 6207 0d3d 2004 abbd 50cc bd3b
000003f0: d09a a2bd ce5a 0abd 46d8 253b c5a7 3f3d
-0.0155779375 -0.04860291 0.040020183 0.047499 0.0462945 0.012040953 -0.05866831 0.078040026
0.05711047 0.052347694 0.036451865 0.0137309395 0.044452526 -0.021482363 -0.08310335 -0.0017161783
-0.06286988 0.06740939 -0.07403406 -0.033266235 0.022888297 0.03723415 0.084430486 0.069283426
0.014512121 0.06690923 0.0039076274 -0.03787754 0.001101818 0.011754451 0.0015016098 -0.0034498689
-0.050118804 0.032218598 0.031960133 0.042793497 -0.03143766 0.021392787 0.054858077 -0.039065447
-0.024484951 0.047629803 -0.047997802 0.015044018 -0.020096475 -0.028947197 -0.080035545 0.028700722
0.0031286813 -0.0724042 -0.013640994 0.0070157307 0.016041514 -0.06839027 -0.007964813 0.06292092
-0.075991325 -0.05959462 0.05312682 -0.034406804 -0.040943824 -0.052998323 0.022110524 0.008090991
0.0015006115 0.026788203 0.025283558 -0.05122635 0.0036955844 -0.08381327 -0.0671623 0.042428542
0.008281547 -0.05417788 -0.04678561 0.0599856 -0.07132445 -0.052092504 0.06447856 -0.067152
-0.048733607 0.04856016 -0.06479688 0.020540897 0.066137865 0.010504878 -0.04420854 -0.055326637
-0.0778294 0.04509174 -0.002481293 -0.0016111805 -0.05198742 -0.06501697 -0.016088735 0.025296856
0.05299732 0.06216727 -0.007336421 -0.08260686 0.058760047 -0.03360403 0.008236635 -0.01625438
-0.04752939 -0.028693376 -0.01437817 -0.06678046 -0.051299866 -0.011029776 0.029348683 0.083813466
0.054550935 0.056316994 -0.003883191 0.018113174 -0.028511139 -0.05713904 0.06509112 0.039119244
0.07287779 0.04200825 -0.050754566 -0.07650754 0.0836172 -0.061174903 -0.02414637 -0.045622587
0.03196307 0.056688424 -0.01199263 0.0125287585 -0.004105308 -0.040032633 0.08189941 0.04004873
-0.02227364 -0.05718641 -0.04067564 -0.021826027 0.07579004 -0.03590306 0.009889708 0.050722633
0.00054897997 0.03898558 -0.041476667 0.0015572236 0.007846089 0.049687225 0.06937173 -0.055347666
-0.01921905 -0.05142402 0.07634412 0.07137871 0.064083315 0.029235257 -0.024684798 0.02741343
-0.06936832 -0.0010729276 -0.04918537 -0.06549256 -0.084314995 0.032395296 0.060022667 -0.025554594
-0.07977586 -0.032533035 0.034280844 0.07634562 0.04467617 -0.032146763 0.078199856 0.047808234
0.004750789 0.056720637 -0.0529328 0.0104055675 0.008082328 -0.0010289726 0.057719752 0.04618369
0.019233333 0.024475094 -0.05733958 0.06347702 0.00038129603 -0.039778825 0.02189268 -0.033323567
0.008530179 0.006695201 0.011785026 0.05390731 0.05418892 0.06691296 -0.062493503 -0.012198508
-0.021049472 -0.028554913 -0.08286122 0.0563313 -0.0018826374 0.07004993 0.07971482 0.029416503
-0.025908034 0.07575565 0.0494956 0.049477518 -0.015509218 0.017810758 -0.06826578 0.07017706
0.071821705 -0.010723039 -0.004478178 -0.0038780656 0.027411845 0.0032133833 -0.07174162 -0.009238731
-0.030070916 0.051558305 -0.056728806 -0.06592433 0.06685478 -0.06917936 0.03960693 -0.0146206245
-0.07961289 -0.078264624 0.002815783 -0.0071416786 0.03266864 0.014739722 -0.04232735 0.07222027
-0.005613355 0.016589435 -0.032869507 -0.01976 -0.046896093 -0.050853655 -0.061533324 0.039623514
0.048853006 0.03443087 -0.08350396 0.005792178 -0.079396844 -0.033778004 0.002530591 0.046790857

lstm.bias_ih_l0 f4 [512]
00000000: ff13 9dbc 8d57 463d a24a a3bd bcb9 093d
00000010: 13a2 89bb 66da 1abd bcde 683d 7f52 313d
00000020: bfc4 723b 1256 26bd 5f9e 4ebd bf64 b7bc
00000030: 2732 56bd 56c2 70bc 54d4 fd3c 8f13 25bc
00000040: 47c2 463c 8dfe e7bc bd75 b7bc dae5 483d
00000050: 9d0c 18bc 0de6 b03c f953 6fbd 126a 4cbd
00000060: 82c2 853d b901 a3b9 ca67 a83d ec2b e0bc
00000070: c029 3a3d 57d8 233d 9e5a 93bd 3887 3fbd
00000080: e16a 913d b992 ddbc 0b97 9fbd ec25 853d
00000090: 4e74 a53d 8a92 653d 740a 613d 784f bfbc
000000a0: 8843 923d 4740 14bd 1ff0 0d3d 4804 a6bd
000000b0: bd67 983d 0c3e 80bd f746 a1bd 538e 123d
000000c0: 7c66 983d e15d 8abd 248c ac3d 42f8 743c
000000d0: 44ff 363d aaad 943c 1c61 acbd 2e7c 953d
000000e0: 12ce 893d 74e4 353d aa1a e43a f56b 0b3d
000000f0: 4176 e13b 48e8 d83c e54c 21bc ea54 a23d
00000100: c0b4 ecbc 3c62 5bbc 3a18 c83c 5cca 9b3d
00000110: 1e60 40bd fb0b 0cbd 2b06 94bd 4cfd 8e3d
00000120: abb5 ae3d c51c 8d3c a237 91bd 7009 84bd
00000130: e798 873d 1170 bd3b a183 a03c 5928 40bd
00000140: a9ae 8abd f36a 28bd 870d a6bd e230 723d
00000150: 8a87 fd3c 0234 8fbd d48e ac3d e109 99bc
00000160: 6c30 3d3d 7da6 943c 531e 003d 61b0 bcbb
00000170: 0e43 2abc 175c 04bd d1d2 d13c ddd2 143c
00000180: a2c8 753d 6bf9 81bd 3c7e 093d 87ca e53c
00000190: f10b d43b dbe8 44bd 03ac 31bd 6763 823d
000001a0: 6d0e 743d fe3b 093d 9458 a4bd 6be9 65bd
000001b0: 9afb ef3c 157c a83d 8359 a4bd 099e b13c
000001c0: 01ea a4bd ef41 a4bd 1dcd 83bd dc5f 0abd
000001d0: 9aa9 52bd 2bb9 38bd d782 213c 3d1f 88bc
000001e0: b74e 4c3d 4271 ca3c 29c6 0bbd f8e8 6abd
000001f0: fe6f 833d 0969 e0ba 2584 923c 706a 243d
00000200: 7df1 69bc 0987 2abd b874 853b 1fb0 42bd
00000210: 4245 2f3d 244b 053d be32 26bd de2c dabc
00000220: 5587 953c be21 543c a72d 593c 6f35 2bbd
00000230: ef84 893c b176 13bd 5fad a13c 6b80 413b
00000240: b56d aa3b 62f9 05bd b442 8abd 830a 76bd
00000250: 93c5 a23c 2bf8 183d bf2e a4bc 7577 6c3d
00000260: 6922 03bd 4d41 3f3d 421e 8a3c bd3b 9b3d
00000270: c62d 823d 7d12 b5bc 175b 373b 0530 81bd
00000280: 48b3 473d 0cbf 97bc 5eda 88bd b690 07bd
00000290: 48b9 9abd 4745 bbbc 0356 e1bc e8ea a3bd
000002a0: 76c6 c03c 77d2 78bd d000 973c 948a 25bd
000002b0: 4fac 023c 0007 22bd 2d5b 7bbc 53df eb3b
000002c0: a713 183d 7d09 ea3c 315f 883d c03b 9f3d
000002d0: 83e9 a1bd 5ccb a2bc bcb3 1a3d 904f 06bd
000002e0: e841 cfbc b4cf 60bd 2f38 863c bc0b ccbc
000002f0: 783f 2fbc 953e 353d 25ea 753d 7aa1 68bd
00000300: 1ee7 90bd 7b3f 0e3d a08e 6fbd 888f 01bc
00000310: d3d2 623c 78ec a7bd 2f38 8c3d 2429 ef3c
00000320: 8343 583c 31c2 eb3b 72b9 90bd 82aa 3b3d
00000330: 9b6a fcbc 1dea 6dbd f324 2fbb 6378 8c3d
00000340: ab22 74bd 959c 65bc 4462 063d 388b 8bbd
00000350: 8108 913d 5511 5b3b 27bc 2dba 3400 dd3c
00000360: 39fa 5abb c341 2f3d e724 703d b7ca a7bd
00000370: 2f49 933d 2e9e b13d 9e4e 8ebc 6a36 ac3c
00000380: de20 563d 08d4 a53d a90b d93c 6747 3a3d
00000390: 652d 66bd 8c0f a9bd 6a72 cf3c 2019 ab3c
000003a0: 0ea1 bebc ea9a 69bd 75e8 95bc 4f39 4cbd
000003b0: e654 29bd 3134 c23c 6706 b5bb 3ea4 6abb
000003c0: 897c 8cbc 85dd 4cbd 3343 a53d b06d 653d
000003d0: 4228 d7bc b774 d03c 4eff 903d 6b66 51bd
000003e0: a2df 26bd 2c0d 78bd 4017 35bd ba05 b9ba
000003f0: 7e42 303d 5d1b 9b3d 34df 903d b525 483d
-0.019174574 0.04842334 -0.079732195 0.033624396 -0.004200229 -0.037805937 0.05685304 0.043291565
0.003704354 -0.040609427 -0.050444003 -0.022386907 -0.052293923 -0.014694771 0.030985035 -0.010075464
0.01213128 -0.028319621 -0.02239501 0.04904733 -0.009280351 0.021594072 -0.058429692 -0.049905844
0.0653124 -0.00031091066 0.08222921 -0.027364694 0.045449972 0.04000124 -0.07195018 -0.046759814
0.07100464 -0.027047502 -0.07792481 0.06501374 0.08078824 0.056047954 0.05494161 -0.023353323
0.07141787 -0.036194112 0.034652825 -0.08106285 0.074416615 -0.062618345 -0.078748636 0.035780262
0.07441422 -0.06756187 0.08425167 0.014951767 0.044677034 0.018149216 -0.0841696 0.07299076
0.06728758 0.044407323 0.0017402966 0.034038503 0.006880552 0.026477948 -0.009844993 0.07926352
-0.028894782 -0.01339012 0.024425615 0.07606956 -0.046966664 -0.034191113 -0.07227739 0.06981906
0.08530744 0.017225632 -0.07090689 -0.064471126 0.06620961 0.0057811816 0.019594016 -0.04691348
-0.06771595 -0.04111762 -0.08108049 0.05912865 0.03094842 -0.069923416 0.0842568 -0.018681468
0.046188757 0.018145794 0.03127892 -0.0057583307 -0.010391964 -0.032314386 0.02561322 0.009083477
0.06000579 -0.06346401 0.033567652 0.028050674 0.00647115 -0.04807363 -0.043376934 0.06366616
0.05958407 0.03350448 -0.080247074 -0.056130808 0.029294778 0.08226792 -0.080248855 0.021681802
-0.08052445 -0.08020388 -0.06435607 -0.033782825 -0.051431276 -0.045098465 0.009857855 -0.016616458
0.049879756 0.024712209 -0.034124527 -0.057351083 0.06417845 -0.0017121147 0.017885277 0.04014057
-0.014278767 -0.041632686 0.004072752 -0.047531243 0.04279066 0.032542363 -0.040575735 -0.026632722
0.018253008 0.012947498 0.013255513 -0.041799005 0.01678702 -0.036001865 0.01973599 0.0029526006
0.0052010664 -0.032708533 -0.06751004 -0.06006862 0.019869601 0.037346046 -0.020041822 0.05773111
-0.032015238 0.046693135 0.016860131 0.075797535 0.06356387 -0.022103542 0.0027977878 -0.06307987
0.04875496 -0.018523715 -0.06682275 -0.03309699 -0.07554871 -0.022860182 -0.027506834 -0.08003789
0.023532134 -0.06074759 0.018433005 -0.04041536 0.007975652 -0.039557457 -0.015341562 0.007198253
0.037128117 0.028568977 0.06658781 0.07775068 -0.07905867 -0.01987236 0.037769064 -0.03279072
-0.025299981 -0.05488558 0.016384212 -0.02490794 -0.0106962845 0.044249136 0.06003775 -0.05679462
-0.07075332 0.03472851 -0.058485627 -0.007907756 0.01384421 -0.081994 0.06846654 0.029194422
0.01319969 0.0071947803 -0.07066621 0.045816906 -0.030812552 -0.058084596 -0.0026724904 0.068588994
-0.059603374 -0.014014383 0.032808557 -0.06813663 0.070817 0.0033427079 -0.0006627463 0.026977636
-0.0033413304 0.042787325 0.058628943 -0.08192962 0.07191693 0.086727485 -0.017371472 0.02102204
0.05227744 0.080970824 0.026494818 0.04547825 -0.056195635 -0.082549185 0.025323112 0.020886004
-0.023270156 -0.057032503 -0.01829932 -0.04985934 -0.04134073 0.023706527 -0.005524445 -0.0035803462
-0.017149227 -0.050015945 0.08069458 0.05601281 -0.026264314 0.025446279 0.070799455 -0.051123064
-0.040740617 -0.060559437 -0.044211626 -0.0014116087 0.043032162 0.075735785 0.070738226 0.048864085

lstm.bias_hh_l0 f4 [512]
00000000: 7dd7 d93c f309 863d 480b c53c 2a7e 843d
00000010: 8790 b43c 6a4a 173d 2d01 8abd b514 6ebc
00000020: 54e6 8e3d 5011 02bd 0e96 eebc 5b03 15bd
00000030: f1bb f83c cea0 9a3d 6a33 183d eddf 983d
00000040: 48ab 783d 6383 14bc b4a8 e5bc ff55 e7bc
00000050: 179d 163d 7bb1 683d c8e6 a5bd e10f 28bd
00000060: e0e5 a4bd 9155 46bd dd4e 893d 2085 9e3d
00000070: 5d96 5dbd ce07 1fbd 488b e73c 85ed 053d
00000080: d8fc 0a3c edac 6bbc 0f88 31bd 578c 97bd
00000090: 48df bdbc 74c9 89bd bd3c 9a3d d55e 9a3d
000000a0: c7be 76bd fb49 1a3d 3456 803d a12a 903d
000000b0: a5b6 8c3d fccf 75bd 9543 873d c7b0 a53d
000000c0: 3f36 df3b 9e99 2b3d 6962 00bd f970 ad3d
000000d0: ad4f 98bd d978 50bd 2dcb 6e3c a1e0 16bd
000000e0: 702a 01bd f553 fa3c e607 493d 326c 633d
000000f0: 5205 993d f79c 2d3d d72d 16bd 9b79 f43c
00000100: 9936 54bd fa04 4b3d 1d56 113d b45b 963d
00000110: a4a2 473d 40bd a23d 4c21 82bc cdb4 88bd
00000120: 6ab0 963d b06c 9bbd 4c8d 303c 9afd 6d3c
00000130: 3557 583c 6799 713d c382 973c a905 dcbc
00000140: 4dde 4cbb 7f83 a7bd c9c2 69bd af8a a8bb
00000150: 3850 9f3d 697e a8bc 5751 393d 1203 5dbd
00000160: ef18 81bd 7874 213d 9731 4d3d 01e2 30bb
00000170: e584 803d c01a 213d 925e 2b3d a876 893c
00000180: 9786 ac3d f6f1 85bd 1971 85bc eee8 5cbd
00000190: c457 42bd aa46 893c 7632 25bc 050e fabb
000001a0: 6c58 0d3d 1255 9c3d 16a8 9dbd 6e33 d6bc
000001b0: 0f95 ddbb f68a 453d 46e9 10bd c1ef 9ebd
000001c0: 303b 0bbd fda7 38bd e104 a5bd db1f 55bd
000001d0: 7f29 09bd 8ce3 083d f1da 33bd b92c cabc
000001e0: a16e 8ebd 8873 34bd d837 78bc 580f 1dbd
000001f0: 5a5e e0bb 3f89 c43c bd76 3a3c d803 44bd
00000200: 57b7 69ba d5bc 0a3c 522b 013c 3865 103d
00000210: 3805 b9bc 734f 94bd 0978 dbbc ea7f b1bc
00000220: ad66 a2bd 4091 9a3b 2638 e4bc ef20 793d
00000230: 3238 713d c80d 6c3d 5fd4 14bd d7c1 c33a
00000240: f8ff a03d 5ffa 96bd 5ad2 073d 0c03 0dbd
00000250: 1196 01bd 87c9 403d 7d02 98bb cf36 98bc
00000260: 059d 4f3d 50c7 c8bc c31e 8c3d 6c8a c33b
00000270: 1038 0e3d 80af 9d3d f338 01bd e5de 363d
00000280: 401e 7d3c 707b 92bd 5fc0 ac3d 29cc 6b3d
00000290: bce1 1a3b 6a4a 053d ea56 cdbc b07c 05bc
000002a0: ccf8 08bb cf59 ca3c 3837 8d3c a086 a33d
000002b0: 9786 8c3d 06ca 423d 8b51 0fbd 5786 2bbd
000002c0: 92b0 8abd 7f4e 203d 5bec 8a3d ae80 be3c
000002d0: 692d 8b3d 46bc 7bbd 304e a8bd 3541 003d
000002e0: c7ad 2abd 54a6 8a3d e260 0cbb c827 383c
000002f0: c2a3 ee3c 430d 89bd 58f2 88bc 905a 663d
00000300: 0803 e8bc 4dcf a13c 6d35 37bd 4b3c 793c
00000310: 8382 2bbd 24cd 8fbc a6e5 423d b057 e23a
00000320: b38d 673d f838 493d 72bd 8a3d fcee b2bc
00000330: e99a 8c3c bb0f a43c 6ec8 46bd 8e8c 3c3d
00000340: 1b44 4ebd d503 8cbd edf7 a13d e921 433c
00000350: fd9d 683d a412 953d 70e0 90bd 9244 8abd
00000360: 63e1 983c 301e 4c3c ed7d 88bb f129 4abd
00000370: b799 9d3c 6b74 493d cdea 6fbd f982 683d
00000380: 4550 a0bb d9e4 913d 057e 49ba 03f4 ac3c
00000390: 2a83 28bd ca72 cabc a0ee 623c 18b9 4c3c
000003a0: 005d 753d 7c5f 50bd 717e 9c3c d2b0 33bd
000003b0: c369 7ebc cb54 60bd c3ab 833d a250 663d
000003c0: a927 95bd 19f3 81bd cf74 dc3c c21b 6bbd
000003d0: 6326 14bd 768a a4bd cda5 6bbd bb21 823d
000003e0: 2253 4abd e130 703d c2a8 bd3c a0b7 6bbd
000003f0: e958 a0bc 4fff b6bb 3d83 683d 3181 a1bd
0.02659201 0.065448664 0.02405323 0.064693764 0.022041572 0.0369362 -0.067385055 -0.014531304
0.06977525 -0.03175479 -0.029124286 -0.036380153 0.030363055 0.07550202 0.037158407 0.074645855
0.06071022 -0.009064528 -0.028034545 -0.028239248 0.036770906 0.056809884 -0.08100659 -0.04103077
-0.08051658 -0.048421446 0.06704495 0.07740235 -0.054098476 -0.038825803 0.028264657 0.03269722
0.008483134 -0.01438449 -0.043342646 -0.073998146 -0.023177758 -0.06727877 0.07531116 0.07537619
-0.060240533 0.03766821 0.06266442 0.07039381 0.06870774 -0.060012802 0.06604687 0.08090358
0.0068118866 0.041894548 -0.03134385 0.084688134 -0.07437072 -0.0508965 0.014574808 -0.036835317
-0.031534612 0.030557612 0.0490798 0.055523105 0.07471718 0.04238602 -0.03666481 0.029843142
-0.05180988 0.049565293 0.035482515 0.0734171 0.04873909 0.07946253 -0.015885018 -0.0667511
0.07357867 -0.0758909 0.010775875 0.014525795 0.0132043855 0.058984187 0.01849497 -0.026858168
-0.0031260431 -0.08179378 -0.057070527 -0.0051434855 0.077789724 -0.02056809 0.045243587 -0.053958006
-0.06303584 0.039417714 0.05009612 -0.0026990178 0.062753476 0.03933215 0.041838236 0.016780213
0.084241085 -0.06540291 -0.01628928 -0.053933077 -0.04744698 0.016757328 -0.010082832 -0.007631066
0.034508154 0.076334134 -0.076980755 -0.02614757 -0.006762154 0.048228227 -0.035378717 -0.07760573
-0.033991992 -0.04508208 -0.08057571 -0.052032333 -0.03348684 0.03342013 -0.04390997 -0.024679529
-0.069546945 -0.04405549 -0.015150033 -0.03834471 -0.006847185 0.023991225 0.0113808485 -0.04785523
-0.00089155644 0.008467873 0.0078838635 0.03525278 -0.022585496 -0.07241716 -0.026790636 -0.02166744
-0.0792974 0.004717022 -0.027858805 0.060822424 0.058891483 0.05763033 -0.036335345 0.0014935088
0.07861322 -0.07371973 0.03315959 -0.034426734 -0.031637255 0.04706719 -0.0046389685 -0.018580822
0.050686855 -0.024509102 0.06841805 0.005967429 0.034721434 0.076994896 -0.03154845 0.044646163
0.015449107 -0.0715245 0.084351294 0.05756775 0.0023633083 0.03254167 -0.025065858 -0.008147404
-0.0020900248 0.024701027 0.017238244 0.07984662 0.068616085 0.047555946 -0.034989875 -0.041876163
-0.06771959 0.03913736 0.067833625 0.023254719 0.06795771 -0.06145885 -0.08218038 0.031312186
-0.041669633 0.06770006 -0.0021420051 0.011239953 0.02913082 -0.066919826 -0.016717121 0.05623871
-0.028321758 0.019752169 -0.044728685 0.015212129 -0.041872513 -0.017553873 0.04758229 0.0017268565
0.05653162 0.049126595 0.06774415 -0.021842472 0.01716371 0.020027032 -0.04853099 0.04603248
-0.05035792 -0.068366684 0.07908616 0.01190994 0.056791294 0.07278946 -0.07074058 -0.0675136
0.01866216 0.012458369 -0.004165402 -0.049356405 0.019238336 0.04918329 -0.058573533 0.05676553
-0.0048923814 0.07123727 -0.000768632 0.021112448 -0.041140713 -0.024712939 0.013850838 0.012495302
0.059903145 -0.05087231 0.01910326 -0.0438698 -0.015528145 -0.054768365 0.06429245 0.05622924
-0.07282955 -0.06345195 0.026911167 -0.05739952 -0.03616942 -0.08034222 -0.057531167 0.0635409
-0.049395688 0.058640365 0.023151759 -0.057548165 -0.019573646 -0.0055846344 0.056765784 -0.078859694
