pred_training/trained_rnn_models/T3_resnet50/pred_rnn/cosine_False_0.0005_0.9mammograms_pred_rnn_0.5_0.pth (torch, 43268 bytes, 10 tensors)

init_net.0.weight f4 [64, 15]
0	0xbafc66ca	-0.0019256708
1	0x3e0d4a04	0.13797766
2	0xbe58c649	-0.2116939
3	0xbe41d515	-0.1892894
4	0xbdcae280	-0.09906483
5	0x3d8d4155	0.06897227
6	0xbba6fd44	-0.0050961096
7	0x3e50d504	0.20393759
8	0xbcbafcf3	-0.022825694
9	0x3d8b634c	0.06806049
10	0xbd9f31c3	-0.07773163
11	0xbd4f1620	-0.05055821
12	0xbe7b9eea	-0.2457234
13	0xbe2e6ebe	-0.17034432
14	0xbdd924c5	-0.10602716
15	0x3c1c7292	0.0095488
16	0x3dd02e46	0.10165076
17	0x3e1dffd5	0.15429623
18	0xbe328e8c	-0.1743719
19	0xbde562a8	-0.11200458
20	0x3dbf543e	0.0934224
21	0x3e5aa535	0.21352084
22	0xbd58d1e4	-0.052934542
23	0x3e45165f	0.19246815
24	0xbd29cf75	-0.041457612
25	0x3cdef491	0.027216228
26	0x3e6e7c0e	0.2328951
27	0xbe7454b0	-0.2386043
28	0xbe25e092	-0.16198948
29	0xbd855b9f	-0.06511616
30	0xbdcd39e1	-0.10020805
31	0x3e63789b	0.22213976
32	0xbe2ababd	-0.16672798
33	0xbdf27c63	-0.11840131
34	0xbe38023d	-0.17969604
35	0xbe76ac23	-0.24089102
36	0xbe19cfc2	-0.1502066
37	0x3e6263da	0.22108403
38	0x3deb0851	0.114761956
39	0x3dff4e62	0.12466122
40	0x3c5da065	0.013527011
41	0xbe0707cd	-0.1318657
42	0x3d322da3	0.043500554
43	0xbe7604ed	-0.24025317
44	0xbe3e4f6e	-0.18584988
45	0xbe07d2c4	-0.13263994
46	0x3e2631af	0.1622989
47	0x3e1a7298	0.15082777
48	0xbde99dc9	-0.11407048
49	0xbc180dfd	-0.009280679
50	0x3e2872bf	0.16450022
51	0x3e82efbc	0.25573528
52	0x3dd11094	0.1020824
53	0x3d0e52d9	0.03474698
54	0x3e30981d	0.17245527
55	0xbe1b1452	-0.1514447
56	0x3d445165	0.047929186
57	0xbe4c3366	-0.19941482
58	0xbe3681d5	-0.17822964
59	0xbe080ef0	-0.13286948
60	0x3dee56f3	0.11637678
61	0x3dd3d7cb	0.103438936
62	0xbe1c03d8	-0.15235841
63	0x3d9f2376	0.077704355
64	0x3e1096be	0.14120004
65	0xbd04f91e	-0.03246414
66	0x3c20e720	0.0098207295
67	0x3d741a69	0.0595955
68	0x3e2364c1	0.15956403
69	0x3e7ce5c7	0.24697028
70	0xbe4af7b9	-0.19821061
71	0xbdc10adc	-0.094258994
72	0x3dcf06a1	0.10108686
73	0x3e5a394d	0.21310921
74	0x3e653238	0.22382438
75	0x3e68683e	0.22696015
76	0x3d51d892	0.05123193
77	0xbe65005c	-0.22363418
78	0x3cc1d525	0.023661206
79	0xbe24c5ce	-0.16091082
80	0xbe757586	-0.23970613
81	0x3e6a1330	0.22858882
82	0x3e484538	0.19557655
83	0xbe835d64	-0.2565719
84	0x3d4531ca	0.048143186
85	0xbd317a07	-0.043329265
86	0xbd2d5eab	-0.04232661
87	0xbdf11e69	-0.117733784
88	0x3dcab84a	0.098984316
89	0xbe1c0063	-0.15234523
90	0x3dc1218c	0.09430227
91	0x3e052e6f	0.13005994
92	0x3e3c887b	0.18411438
93	0x3dc4f650	0.09617293
94	0xbe8256b9	-0.2545679
95	0xbe2adabe	-0.16685006
96	0x3e037cd8	0.12840593
97	0x3d5c8083	0.053833496
98	0xbe4d75b3	-0.2006443
99	0xbe17a902	-0.14810565
100	0x3e77c687	0.24196826
101	0x3e317854	0.17331058
102	0xbde5af8b	-0.11215123
103	0xbd84a18a	-0.06476124
104	0xbe7ae579	-0.245016
105	0xbb977d50	-0.0046230927
106	0xbe46576b	-0.19369285
107	0xbe4b2924	-0.19839913
108	0xbc6831f2	-0.014172064
109	0x3d1e2e75	0.038618524
110	0xbdd7b99d	-0.1053345
111	0x3e1c48d1	0.15262152
112	0xbe204718	-0.1565212
113	0x3e6efbe9	0.23338284
114	0x3e347ebb	0.17626469
115	0xbe5e1ad1	-0.21689917
116	0xbd831a55	-0.06401507
117	0x3c3e26b0	0.0116059035
118	0x3d19b5da	0.037526943
119	0x3d79de69	0.061003122
120	0x3dcec06e	0.10095297
121	0x3c7caede	0.015422551
122	0xbe008221	-0.1254964
123	0x3df94210	0.121708035
124	0xbe7ca5e1	-0.24672653
125	0xbe1c1b94	-0.15244895
126	0xbd83d4bc	-0.0643706
127	0xbe004ba6	-0.12528858
128	0xbdb84774	-0.089980036
129	0xbe57df75	-0.21081336
130	0xbd6019c5	-0.054712076
131	0x3d6133ef	0.05498117
132	0xbe2b956d	-0.1675622
133	0xbc57f62c	-0.013181251
134	0x3e3c8aa0	0.18412256
135	0xbcd82c54	-0.026388325
136	0x3be7dd42	0.0070759365
137	0xbcb66bdd	-0.02226823
138	0x3d5536b7	0.052054133
139	0x3e2777d2	0.16354302
140	0x3e797c98	0.24363935
141	0x3e272272	0.16321734
142	0x3e7a0c2e	0.24418709
143	0xbc986fdc	-0.018608026
144	0xbe6c99d1	-0.23105551
145	0xbdf9b9d5	-0.12193648
146	0x3e335612	0.17513302
147	0xbadbdfcf	-0.0016775074
148	0xbe031161	-0.12799598
149	0xbe49d4ff	-0.19710158
150	0xbe7679e4	-0.24069935
151	0xbe5e4c2d	-0.21708746
152	0xbd55b7fb	-0.05217741
153	0x3e107092	0.14105442
154	0x3e0e6507	0.13905726
155	0xbe7e035a	-0.24805966
156	0x3e2448d7	0.16043411
157	0xbe4e1923	-0.20126776
158	0xbd5eb9fd	-0.05437659
159	0xbdd5968e	-0.10429107
160	0xbd4aecc0	-0.04954219
161	0xbd4ed9cd	-0.05050068
162	0xbe6c5851	-0.23080565
163	0xbe636bcf	-0.22209094
164	0xbd24dadc	-0.040247783
165	0x3b58f363	0.0033104054
166	0xbdef3e65	-0.11681823
167	0x3dc67ac4	0.096913844
168	0xbe6d0ef0	-0.2315023
169	0xbc8e32ef	-0.017358271
170	0x3e679f59	0.2261938
171	0xbdd6c7eb	-0.1048735
172	0x3e6dd5d6	0.23226103
173	0x3dbec5df	0.09315085
174	0xbe6db0d2	-0.23211983
175	0x3e26a3f8	0.16273487
176	0xbcf3214d	-0.029678965
177	0xbdeb2465	-0.11481551
178	0x3e52a9d7	0.20572601
179	0xbe54d646	-0.20784864
180	0x3ce22c8f	0.027609138
181	0xbd5ca1c6	-0.053865217
182	0x3e3c10d6	0.18365797
183	0x3d930af7	0.07179826
184	0x3dfd1cac	0.12358984
185	0x3dba07e2	0.09083535
186	0xbd7d72d1	-0.061877076
187	0xbd5d92af	-0.054094967
188	0xbe590c7a	-0.21196166
189	0x3e0eb5ff	0.13936614
190	0x3e511e6c	0.20421761
191	0x3e34362f	0.17598794
192	0xbe39c900	-0.18143082
193	0x3c3b6eb5	0.011439969
194	0xbe39aa91	-0.18131472
195	0xbe10fdd2	-0.14159325
196	0xbe197867	-0.14987336
197	0x3db40700	0.08790398
198	0xbe1cf3c7	-0.15327369
199	0xbbb7e133	-0.0056115626
200	0x3c314776	0.01082026
201	0x3e29c9bf	0.16580866
202	0xbe4718c2	-0.19443038
203	0xbe34d02b	-0.17657535
204	0xbe18ef73	-0.14935093
205	0x3e38596b	0.1800286
206	0xbdbd5a42	-0.09245731
207	0x3e5e2920	0.21695375
208	0x3dbe7f2c	0.093016
209	0x3d056756	0.032569252
210	0xbafae6db	-0.0019142287
211	0xbd5044e9	-0.050846968
212	0x3d042bcc	0.03226833
213	0xbd709115	-0.05873211
214	0xbaece173	-0.001807256
215	0x3d066c20	0.03281796
216	0xbe4e0499	-0.20118941
217	0xbe0a0bdb	-0.13481085
218	0x3e54ac88	0.2076894
219	0xbe55befa	-0.20873633
220	0xbc974c92	-0.018469129
221	0x3e8245ff	0.25444028
222	0x3dbe4939	0.0929131
223	0x3bee7cd2	0.0072780633
224	0xbe643fa8	-0.22289908
225	0x3e0276db	0.12740652
226	0xbe3b9b35	-0.18320926
227	0xbd958c19	-0.07302112
228	0xbdb0bcbf	-0.086297505
229	0xbd1c037f	-0.03808927
230	0x3b38614d	0.0028134168
231	0x3e5939f2	0.2121351
232	0x3d03855d	0.032109607
233	0x3e6be82d	0.23037787
234	0x3e211d08	0.15733731
235	0xbe268362	-0.16261056
236	0x3dec4139	0.11535878
237	0xbe3a2ede	-0.18181941
238	0xbddf488c	-0.10902509
239	0x3d9aeec7	0.075650744
240	0x3dade325	0.0849059
241	0x3e459fc7	0.19299231
242	0xbda984ef	-0.08277308
243	0x39d7e0c3	0.00041175456
244	0x3e079841	0.13241674
245	0xbe7eb6b7	-0.24874388
246	0x3e3e77b5	0.18600352
247	0xbe59cb98	-0.21269071
248	0x3b685acf	0.0035454517
249	0xbd331dc2	-0.04372955
250	0xbe0ab73b	-0.1354646
251	0x3d0b3fde	0.033996455
252	0x3e59ccbf	0.2126951
253	0xbd99df59	-0.07513303
254	0xbe1c5e26	-0.1527029
255	0xbdc2c830	-0.09510839

init_net.0.bias f4 [64]
0	0xbe3c3b39	-0.18381967
1	0x3d626ec8	0.05528143
2	0x3e6fb7e5	0.23409994
3	0xbe818321	-0.25295356
4	0xbe82f3cd	-0.2557663
5	0x3d074873	0.033028077
6	0x3e464e29	0.19365753
7	0xbe2043c4	-0.1565085
8	0x3d67fee9	0.056639586
9	0x3e38ff6c	0.18066186
10	0x3da264b5	0.079293646
11	0x3d64318a	0.055711307
12	0x3e835ff8	0.25659156
13	0x3e2b97e7	0.16757165
14	0xbe142317	-0.1446651
15	0x3cb60331	0.022218319
16	0x3e069bff	0.13145445
17	0x3e683778	0.2267741
18	0xbe830c82	-0.2559548
19	0x3e0ea86a	0.13931432
20	0xbd98dff8	-0.07464594
21	0xbe80f549	-0.25187138
22	0x3d69d136	0.057084285
23	0xbe0f6fc7	-0.14007483
24	0x3d153efb	0.036437016
25	0xbe2af8cc	-0.16696471
26	0xbe464a32	-0.19364241
27	0xbcb3478e	-0.021884706
28	0xbdb0f2c2	-0.086400524
29	0x3e1a0179	0.15039624
30	0x3cb566a1	0.022143664
31	0x3e4d9113	0.20074873
32	0x3d4599e6	0.048242472
33	0xbda962ec	-0.08270821
34	0x3e3261c9	0.17420115
35	0x3c6814a6	0.014165079
36	0x3d45c296	0.048281275
37	0xbda96b91	-0.0827247
38	0x3a6cf2ca	0.0009038864
39	0xbd4ae34b	-0.04953317
40	0xbcb3bed8	-0.021941587
41	0xbe4d6e96	-0.20061716
42	0xbad33362	-0.0016113336
43	0xbe5a9801	-0.21347047
44	0xbd62e103	-0.05539037
45	0x3e18996c	0.14902276
46	0xbe3728dc	-0.1788668
47	0xbe319a45	-0.17344005
48	0xbd80aebe	-0.062833294
49	0xbd907028	-0.07052642
50	0x3d325b79	0.043544266
51	0x3d2f535e	0.042804115
52	0x3e059867	0.13046418
53	0xbe356fde	-0.17718455
54	0xbc94a27a	-0.018143881
55	0x3e134b0d	0.14384098
56	0x3e63d7bd	0.22250266
57	0xbc99cada	-0.018773485
58	0xbe185f06	-0.14879999
59	0x3d97675a	0.073927596
60	0x3e15ec5c	0.14640945
61	0xbe248cc5	-0.16069324
62	0xbe18d038	-0.14923179
63	0x3de8d42c	0.113685936

init_net.2.weight f4 [64, 64]
0	0xbc0ef1c8	-0.008724637
1	0xbdf0da8d	-0.11760435
2	0xbd9308c9	-0.0717941
3	0x3d4ed7a8	0.050498635
4	0xbd2cfc2d	-0.04223268
5	0x3db00857	0.08595341
6	0x3dc99f66	0.09844856
7	0x3c9463b8	0.018113956
8	0xbc2150f2	-0.009845959
9	0xbd21dfc6	-0.039520048
10	0xbbce43e7	-0.0062947157
11	0x3cb9ba10	0.02267173
12	0xbdc2c797	-0.09510725
13	0xbcf3b5b3	-0.029749727
14	0xbdd41fb5	-0.1035761
15	0x3d9c84fd	0.07642553
16	0xbda26449	-0.07929284
17	0x3de90061	0.113770254
18	0xbd0378af	-0.032097515
19	0xbd921392	-0.07132639
20	0x3d750c9a	0.05982647
21	0x3c98130d	0.018563772
22	0x3db09e16	0.086239025
23	0x3d54ee76	0.051985227
24	0xbdf5aac5	-0.11995462
25	0x3da14c4e	0.07875882
26	0xbcc0132e	-0.023446646
27	0xbd616333	-0.055026244
28	0x3da1f35a	0.07907744
29	0x3db9fe30	0.090816855
30	0xbde0233c	-0.109442204
31	0xbc3864d7	-0.011254511
32	0x3dd16c6b	0.10225757
33	0x3d4587aa	0.048225082
34	0x3dd6d896	0.10490529
35	0xbd2ec2d6	-0.04266628
36	0xbd8cadab	-0.06869062
37	0x3ddb4adc	0.10707638
38	0x3d549b0e	0.051905684
39	0x3df4d1c8	0.11954075
40	0xbd550968	-0.052010924
41	0xbda3bcb1	-0.079949744
42	0xbc6f1c61	-0.014594168
43	0xbdf01e0b	-0.1172448
44	0x3d47f087	0.04881337
45	0x3dbc1b18	0.09184855
46	0x3cf4e3b4	0.029893734
47	0xbc498d2f	-0.012301727
48	0x3d7ce307	0.061739948
49	0xbda1def9	-0.07903857
50	0x3df97de3	0.12182214
51	0xbdfd8e6d	-0.12380681
52	0xbdf4475d	-0.11927674
53	0xbcf10b2f	-0.029424278
54	0x3dd04fe9	0.10171492
55	0x3c4c47a9	0.012468257
56	0x3d43e990	0.047830164
57	0xbdbaeae0	-0.0912683
58	0x3d3a0480	0.045414448
59	0xbc63d5bb	-0.013905938
60	0x3d4c771b	0.049918275
61	0x3db41ac4	0.08794168
62	0x3d5db44a	0.054127015
63	0xbc2d8a43	-0.010592046
64	0xbbfb5788	-0.0076703466
65	0xbd9ff248	-0.07809883
66	0xbd387c3d	-0.045040358
67	0x3da5b7ef	0.08091723
68	0xbd4c864a	-0.049932756
69	0x3d9e5f3e	0.0773301
70	0xbd4a429d	-0.049379934
71	0xbced92c3	-0.029000646
72	0x3b2daa4d	0.0026499212
73	0xbdea0690	-0.11427033
74	0xbaa319d0	-0.0012443606
75	0xbc4dab4a	-0.0125530455
76	0xbc375266	-0.011189079
77	0xbccbf492	-0.024896894
78	0x3dc90cce	0.098168954
79	0x3dbc3307	0.0918942
80	0xbdacd88d	-0.08439741
81	0x3d6ce655	0.05783685
82	0xbdc80876	-0.09767239
83	0xbdd91b55	-0.10600916
84	0x3d1be84a	0.038063325
85	0x3aefd88d	0.001829879
86	0xbd6df56f	-0.05809539
87	0xbdf5f777	-0.12010091
88	0xbd457493	-0.048206877
89	0x3d2a5929	0.041588936
90	0xbdec0bf1	-0.11525715
91	0xbdf7bf85	-0.12097076
92	0x3c816b1e	0.015798148
93	0xbdb7b799	-0.08970565
94	0xbddf6ad3	-0.10909047
95	0xbd448463	-0.047977816
96	0xbca43c9d	-0.020048434
97	0xbde7bc61	-0.11315227
98	0xbdaa489e	-0.08314632
99	0x3c05b70c	0.008161318
100	0xbdf07994	-0.11741939
101	0xbc8f6064	-0.017502017
102	0xbda4aad3	-0.08040395
103	0xbdb0cad1	-0.08632434
104	0x3d4874d2	0.048939534
105	0xbdc448f1	-0.09584225
106	0xbdc14319	-0.09436626
107	0x3d916e68	0.071011364
108	0x3cbeb516	0.023279708
109	0x3de83ef3	0.113401316
110	0xbd085523	-0.033284318
111	0xbd765b8b	-0.060145896
112	0xbc3cd190	-0.011524573
113	0x3a251af6	0.0006298268
114	0x3dc27a97	0.094960384
115	0xbdfe0677	-0.12403577
116	0xbc115427	-0.008870161
117	0x3d619d7d	0.055081833
118	0xbd8c6f46	-0.06857161
119	0xbd8195d2	-0.06327404
120	0x3d76783c	0.06017326
121	0xbdf45c1e	-0.119316325
122	0x3cf1b391	0.02950457
123	0xbdc57004	-0.09640506
124	0x3d7d8254	0.06189187
125	0xbdda0cee	-0.106469974
126	0x3d9cc928	0.07655555
127	0xbdf16878	-0.11787504
128	0xbdd65c01	-0.10466767
129	0x3aee04d8	0.0018159403
130	0x3dc8efac	0.09811339
131	0xbdda686c	-0.10664448
132	0xbd6385fe	-0.055547707
133	0x3ddff009	0.10934455
134	0xbcab5329	-0.020913677
135	0x3d534cbd	0.051586855
136	0xbdf55457	-0.11978977
137	0xbd2078a5	-0.039177556
138	0xbd81859b	-0.06324311
139	0x3dd6f76a	0.10496409
140	0x3d5396f7	0.051657643
141	0xbdba2873	-0.09089746
142	0x3ca47510	0.020075351
143	0xbabbfcaa	-0.0014342268
144	0xbd51a7d1	-0.051185433
145	0xbd91bbea	-0.0711592
146	0xbd294607	-0.04132655
147	0x3dc8f735	0.09812776
148	0xbdb6d06f	-0.08926474
149	0xbdb5a982	-0.08870222
150	0xbd1d8928	-0.03846088
151	0x3b0d9487	0.0021603422
152	0x3d0ad1cd	0.033891488
153	0x3b747a33	0.0037304282
154	0xbcf5a0a9	-0.029983835
155	0xbd9aae12	-0.075527325
156	0xbcb7088c	-0.022342943
157	0xbd4d56f6	-0.05013176
158	0x3dce0562	0.100596204
159	0xbdf84588	-0.12122637
160	0xbda2ac6f	-0.07943045
161	0xbdcf7ada	-0.10130854
162	0xbcba7844	-0.022762425
163	0x3dc6adf5	0.097011484
164	0x3ddf8755	0.109144844
165	0xbdde0251	-0.108402856
166	0xbbb1033d	-0.0054019974
167	0x3d95a792	0.07307352
168	0x3d60cbec	0.054881975
169	0x3dd0e155	0.10199229
170	0xbb62b248	-0.0034591127
171	0xbdab58c4	-0.0836654
172	0x3da8ae7d	0.08236406
173	0xbd2eefec	-0.042709276
174	0x3d840768	0.06446725
175	0xbcfb6e29	-0.030692177
176	0x3d58c7f4	0.052925065
177	0x3de55d6c	0.111994594
178	0x3ded10a4	0.115754396
179	0xbde822e3	-0.11334779
180	0xbda8c1af	-0.08240067
181	0xbd52e21e	-0.051485173
182	0xbda2a0af	-0.07940804
183	0x3df4afda	0.119476035
184	0xbc349ec1	-0.011024178
185	0xbda93427	-0.082619004
186	0xbd63000d	-0.05541997
187	0xbd8cea6e	-0.068806514
188	0x3d50001d	0.050781358
189	0xbdde7077	-0.10861295
190	0xbdedc856	-0.11610477
191	0xbdfb62fd	-0.1227474
192	0x3d5b951e	0.053609006
193	0x3d7c58b3	0.061608028
194	0xbd9e5b8b	-0.07732304
195	0x3cfd0d7d	0.03089022
196	0x3dbc44c0	0.091928005
197	0x3c948a01	0.018132212
198	0xbcd74b66	-0.02628107
199	0x3c16bafb	0.009199853
200	0xbc5ab6c8	-0.0133492425
201	0x3d807a19	0.06273288
202	0xbdad204e	-0.08453427
203	0x3d816281	0.06317616
204	0x3d8fd4f7	0.07023042
205	0xbd9a58eb	-0.07536491
206	0x3dd03d75	0.10167972
207	0x3dfa7ccf	0.122308366
208	0xbd48e06e	-0.049042158
209	0xbd0e6fd1	-0.034774605
210	0x3d7e39fe	0.062067024
211	0xbdc7b0a8	-0.097504914
212	0x3d49b64b	0.049246114
213	0x3cee0206	0.0290537
214	0x3da0f005	0.0785828
215	0xbddd7c2d	-0.108147
216	0xbdd3d89e	-0.10344051
217	0x3d651eb7	0.055937495
218	0x3d37ca21	0.0448705
219	0xbded4239	-0.115848966
220	0xbd8e366b	-0.06943973
221	0xbde9503a	-0.11392255
222	0xbdb6ab23	-0.089193605
223	0xbd65fc65	-0.056148905
224	0x3dd30d65	0.10305289
225	0xbccb0bc3	-0.024785882
226	0x3d927da1	0.07152868
227	0x3df24829	0.1183017
228	0x3d68747c	0.056751713
229	0xbde44a2d	-0.111469604
230	0x3d805c6f	0.0626763
231	0x3d42ae37	0.047529425
232	0x3dc5ae2b	0.096523605
233	0xbdfb8bd5	-0.1228253
234	0x3d9cdc77	0.07659238
235	0x3dd0bf99	0.10192794
236	0xbded36c7	-0.115827136
237	0x3c55c8b5	0.013048341
238	0x3dd9bbe2	0.10631539
239	0xbdb97377	-0.09055226
240	0x3d276b2c	0.04087369
241	0x3d616427	0.055027153
242	0x3d05f0ce	0.032700352
243	0x3dfdab48	0.12386185
244	0x3dd0ef5a	0.10201903
245	0x3ddacb2e	0.10683285
246	0xbc7e3db6	-0.015517643
247	0x3dd5e3fe	0.10443877
248	0xbded8ba0	-0.11598897
249	0xbd8988e6	-0.067155644
250	0xbcda0389	-0.026613014
251	0xbd174afb	-0.03693674
252	0x3deba6aa	0.11506398
253	0x3d7090f8	0.058732003
254	0x3da4310d	0.08017168
255	0x3dad7731	0.084699996

init_net.2.bias f4 [64]
0	0xbd7cb129	-0.06169239
1	0xbdf4d810	-0.11955273
2	0x3d89a723	0.06721332
3	0x3de93530	0.11387098
4	0xbd1a04da	-0.037602283
5	0xbde456ac	-0.11149344
6	0x3d160159	0.03662238
7	0xbdb2e99c	-0.08735964
8	0xbda67050	-0.08126891
9	0x3d0b5e0a	0.03402523
10	0xbc446c60	-0.011988729
11	0xbc0a4641	-0.008439601
12	0x3de4ab44	0.11165479
13	0xbcb355e5	-0.021891544
14	0x3d9b67cc	0.07588157
15	0xbd1ee582	-0.038793094
16	0x3dbde016	0.092712566
17	0x3d1acb0c	0.037791297
18	0x3de2e90b	0.11079606
19	0x3d333929	0.043755684
20	0xbd352f70	-0.044234693
21	0x3d5f9716	0.054587446
22	0x3dd90c13	0.10598006
23	0x3cc3a848	0.023883954
24	0x3d6aac5c	0.05729328
25	0xbdb38891	-0.08766282
26	0x3d8a3cfe	0.067499146
27	0xbdf08f2c	-0.11746058
28	0x3de1a434	0.110176474
29	0x3d534081	0.051575188
30	0x3c0454ca	0.008076856
31	0xbdee82f4	-0.11646071
32	0x3de84fcf	0.11343347
33	0x3da2f4dd	0.0795686
34	0x3deb122d	0.11478076
35	0x3d4946c3	0.04913975
36	0x3d2b36f0	0.04180044
37	0xbd03badd	-0.03216063
38	0xbd50ec08	-0.051006347
39	0x3d4abb94	0.049495295
40	0x3d317b3a	0.04333041
41	0xbb8b6148	-0.00425354
42	0x3ca317e1	0.019908847
43	0x3d2ed475	0.042683084
44	0xbdf61a9c	-0.12016794
45	0xbde1c47a	-0.11023803
46	0xbd07f2ad	-0.033190418
47	0x3dad9353	0.084753655
48	0x3d78df01	0.060759548
49	0xbdf3e185	-0.11908249
50	0xbd193455	-0.037403423
51	0xbc56aede	-0.013103215
52	0x3d2818f7	0.041039433
53	0x3dd059b8	0.101733625
54	0x3b2a9a0c	0.002603176
55	0xbdc68334	-0.09692994
56	0x3bf6b309	0.007528667
57	0xbd45495d	-0.048165668
58	0xbd9bc48b	-0.07605847
59	0x3d8d65c5	0.069041766
60	0xbc86cd93	-0.016455447
61	0x3d703b10	0.058650076
62	0x3dc76666	0.09736328
63	0x3c496d54	0.012294132

rnn.weight_ih_l0 f4 [64, 7]
0	0x3d8fa87b	0.07014557
1	0xbd7328cd	-0.059365083
2	0x3d8e5ada	0.06950922
3	0x3ba2c515	0.0049673417
4	0x3da981ab	0.08276685
5	0x3df1e17b	0.11810585
6	0xbdc1fb67	-0.09471779
7	0x3df20c1a	0.118187144
8	0x3dbea028	0.09307891
9	0xbdcd6f2d	-0.10030971
10	0x3d158d59	0.036511753
11	0xbdcfbc06	-0.101432845
12	0x3d1ef2ea	0.03880588
13	0x3c90d005	0.017677316
14	0xbdf37425	-0.11887387
15	0x3d36e0ea	0.04464809
16	0xbd0c18bd	-0.03420328
17	0x3dfe337c	0.124121636
18	0x3df8dd32	0.12151565
19	0x3d2e0bb9	0.04249165
20	0x3dc80427	0.09766417
21	0x3d383562	0.044972785
22	0x3df3718a	0.1188689
23	0xbc3c5c00	-0.011496544
24	0x3cfc25a5	0.030779669
25	0xbca87ddb	-0.020567825
26	0xba66f7fb	-0.00088107557
27	0xbd16155f	-0.036641475
28	0xbd49d80e	-0.04927831
29	0x3d937023	0.07199123
30	0x3d5adeb6	0.05343505
31	0xbd61287f	-0.05497026
32	0xbde0bce5	-0.10973529
33	0x3d78c156	0.060731255
34	0xbdeab640	-0.11460543
35	0xbbb532ec	-0.005529752
36	0xbde42809	-0.111404486
37	0x3dd588bd	0.104264714
38	0x3dcfa632	0.10139121
39	0xbdd1ad92	-0.10238184
40	0xbdf58dc5	-0.11989931
41	0xbd9dd9fd	-0.077075936
42	0x3d0cc695	0.03436907
43	0xbd79899d	-0.060922254
44	0xbcf2ed01	-0.029654028
45	0xbd014d87	-0.031568076
46	0x3cbb51fc	0.022866242
47	0xbd6c4615	-0.057684023
48	0x3d6c5ba7	0.057704594
49	0xbdb67ced	-0.089105465
50	0xbc4f8d3c	-0.01266795
51	0x3dd5c331	0.104376204
52	0xbd8cd4f0	-0.06876552
53	0x3dc3aff4	0.09555045
54	0x3d817e70	0.06322944
55	0xbd2976b1	-0.04137296
56	0x3d30f138	0.043198794
57	0xbda3e917	-0.08003443
58	0x3c243222	0.010021718
59	0x3d1070d0	0.035263836
60	0x3ddcad39	0.10775227
61	0xbd86a973	-0.065752886
62	0xbd8a4588	-0.06751543
63	0xbd7e9841	-0.06215692
64	0xbdfcbee8	-0.123411
65	0x3cce4949	0.02518143
66	0xbdd31d36	-0.10308306
67	0xbd08fa85	-0.03344204
68	0xbd6c07b3	-0.05762453
69	0x3bab986d	0.0052366764
70	0x3d1abad4	0.03777583
71	0xbdba1631	-0.09086264
72	0xbd1691e3	-0.036760222
73	0xbc441b46	-0.011969393
74	0xbd93670b	-0.07197388
75	0x3ce7eb91	0.028310569
76	0x3d3bb18f	0.04582363
77	0xbdb5bb17	-0.08873575
78	0x3dc77c79	0.09740538
79	0x3db5372e	0.08848415
80	0xbd193bdd	-0.037410606
81	0x3c97dea7	0.018538786
82	0x3c6acaa4	0.01433054
83	0xbc90b9c3	-0.017666703
84	0xbdab29ee	-0.08357607
85	0x3dd1d5fd	0.10245893
86	0x3d7afd63	0.061276805
87	0xbdd51e28	-0.104061425
88	0xbdc5ab98	-0.096518695
89	0x3df29d40	0.11846399
90	0x3ca1e09b	0.01976042
91	0xbcea73c9	-0.028619664
92	0x3dab972a	0.08378442
93	0x3d1285c2	0.035772093
94	0x3d37138b	0.044696372
95	0x3dca3f52	0.09875359
96	0xbc24bb44	-0.010054413
97	0x3df1ef8a	0.118132666
98	0xbdb313e1	-0.08744026
99	0xbd960ceb	-0.07326683
100	0x3cacd6da	0.021098543
101	0xbc77a206	-0.015114313
102	0x3d91a8d1	0.07112277
103	0xbd023493	-0.03178842
104	0x3cb13205	0.021630296
105	0xbcd3fdbb	-0.025877824
106	0x3dc20863	0.09474256
107	0xbc05d170	-0.00816761
108	0x3af9473a	0.001901842
109	0x3dbacfc1	0.09121657
110	0x3dfaebf2	0.12252034
111	0x3df61776	0.120161936
112	0xbdf96025	-0.12176541
113	0xbd97b4cf	-0.074075334
114	0xbcdd81ad	-0.027039373
115	0xbcd29a94	-0.025708474
116	0x3d936830	0.071976066
117	0x3d57df83	0.05270339
118	0xbc5957b1	-0.013265536
119	0x3b433f50	0.0029792376
120	0x3d003313	0.03129871
121	0x3ddbd6f5	0.10734359
122	0x3d842791	0.06452859
123	0xbd80783a	-0.062729314
124	0xbd732001	-0.059356693
125	0x3d310d28	0.043225437
126	0xbc4e3ca1	-0.012587697
127	0xbda13bc2	-0.07872726
128	0xbdf6d349	-0.12052018
129	0x3c921ccb	0.017835995
130	0xbd14d7c5	-0.036338586
131	0xbd923378	-0.07138723
132	0x3cc7c26e	0.024384703
133	0x3df85fbd	0.12127636
134	0x3dd93463	0.10605695
135	0x3d9166b1	0.07099665
136	0xbdc05918	-0.09391993
137	0x3d91a4c8	0.07111508
138	0x3d8908a3	0.066911004
139	0x3d32f961	0.043694858
140	0xbcfe3cfa	-0.031034935
141	0xbbf7ff22	-0.007568256
142	0xbd8a523f	-0.067539684
143	0xbce5db35	-0.028058628
144	0xbca84e8e	-0.02054527
145	0xbcbccefc	-0.023047917
146	0xbe03506a	-0.12823644
147	0x3d340212	0.043947287
148	0xbdcb27b3	-0.099196814
149	0xbdbeb5f9	-0.09312052
150	0x3d4f4297	0.050600614
151	0xbdd0a4f2	-0.10187711
152	0x3df78596	0.12086026
153	0x3df849eb	0.12123474
154	0xbd222e65	-0.039595027
155	0xbcc4baee	-0.024014916
156	0xbdc31a3d	-0.09526489
157	0x3bfc5699	0.007700753
158	0x3cb9f8d0	0.02270165
159	0xbd903ee5	-0.07043246
160	0x3d17560d	0.0369473
161	0xbb9d2dfe	-0.0047967425
162	0xbd1cb42c	-0.038257763
163	0xb9e1dd44	-0.000430802
164	0xbdf73382	-0.12070371
165	0xbdb3a8d0	-0.08772433
166	0x3c75b771	0.014997349
167	0x3df3b0e0	0.118989706
168	0xbd972e0d	-0.0738183
169	0x3da06794	0.07832256
170	0x3c3ab662	0.0113960225
171	0xbd5b714a	-0.053574838
172	0x38f6665e	0.000117492615
173	0x3d6f6c79	0.058453057
174	0x3c6003b7	0.013672761
175	0x3de1b668	0.11021119
176	0xbcd3c5ae	-0.025851097
177	0xbdaa4bc3	-0.08315232
178	0x3de6727f	0.11252307
179	0xbd11d246	-0.035600923
180	0x3d9d9e0e	0.07696162
181	0x3da47942	0.080309406
182	0x3cb49d6a	0.022047717
183	0xbdd443a3	-0.10364463
184	0xbdfa5c9e	-0.122246966
185	0x3d722128	0.05911365
186	0x3cf950f7	0.030434115
187	0x3d916bc0	0.0710063
188	0xbde333a4	-0.11093834
189	0xbc8c56c2	-0.017131213
190	0x3dde4ac5	0.10854105
191	0x3d85fb38	0.06542057
192	0x3dd3e7a9	0.1034692
193	0x3dc85957	0.09782665
194	0xbcf7b0b3	-0.030235624
195	0xbdac3680	-0.084088326
196	0xbd9814b7	-0.07425826
197	0x3d2a26ce	0.041540913
198	0xbd4a7383	-0.049426567
199	0x3a0288f1	0.00049795123
200	0x3ca29972	0.019848559
201	0x3d9cfe4d	0.076656915
202	0x3d8ce58a	0.068797186
203	0x3d918f71	0.071074374
204	0x3b9bf43b	0.004759339
205	0x3d8ff85b	0.07029792
206	0xbd6ecef1	-0.058302823
207	0xbd4c1b15	-0.049830515
208	0xbca5d217	-0.02024178
209	0xbd94bba1	-0.0726235
210	0x3de379d3	0.111072205
211	0xbca8d1ab	-0.02060779
212	0x3d14479b	0.0362011
213	0xbb7e48c6	-0.00388007
214	0xbadfc05e	-0.001707088
215	0xbd8b5d03	-0.0680485
216	0xbc2a7266	-0.010403251
217	0xbde412a8	-0.11136371
218	0xbd687b92	-0.05675847
219	0x3dc44065	0.09582595
220	0xbdef2eb2	-0.11678828
221	0x3ca84804	0.020542152
222	0x3cb806e2	0.02246422
223	0xbdef6739	-0.1168961
224	0x3cc7563a	0.024333108
225	0x3d7359dd	0.059411872
226	0x3db8b466	0.09018783
227	0x3cbedfa3	0.023299998
228	0x3dc768e9	0.09736807
229	0x3bc86792	0.006115862
230	0x3d479741	0.04872823
231	0x3d16994a	0.03676728
232	0xbdb8e0df	-0.09027266
233	0xbcdfeb90	-0.027334005
234	0xbdb393cc	-0.087684244
235	0x3dc63036	0.09677164
236	0x3d79ba77	0.060968842
237	0xbd52f595	-0.051503737
238	0xbcba802a	-0.022766192
239	0x3d103fa3	0.03521694
240	0xbdde5b17	-0.10857218
241	0x3b66aa6c	0.0035196794
242	0x3d738233	0.05945034
243	0x3c8dc65f	0.017306505
244	0xbc206d8e	-0.009791745
245	0x3da3fc44	0.080071
246	0x3d69053a	0.05688975
247	0xbde2b598	-0.110697925
248	0x3d96160b	0.07328423
249	0xbdc91039	-0.09817547
250	0x3d945108	0.07242018
251	0x3ddb24a2	0.107003465
252	0x3c3bccf0	0.011462435
253	0xbd367775	-0.044547517
254	0xbd83ba72	-0.06432046
255	0xbd627354	-0.055285767

rnn.weight_hh_l0 f4 [64, 64]
0	0x3dc11bbe	0.094291195
1	0x3cc82498	0.024431512
2	0x3be6e50c	0.0070463475
3	0x3cd1f74c	0.025630616
4	0xbd979e68	-0.074032605
5	0xbcc6b080	-0.024254084
6	0xbb11cbb0	-0.0022246651
7	0xbda1494a	-0.07875307
8	0xbbb115a4	-0.005404191
9	0xbc889222	-0.016671244
10	0xbd32f152	-0.043687172
11	0xbd1c476c	-0.03815405
12	0xbdfe5047	-0.124176554
13	0x3df30285	0.11865715
14	0x3d7b2de2	0.061323054
15	0x3db84599	0.0899765
16	0xbdd90232	-0.10596122
17	0xbdf9afba	-0.1219172
18	0x3dbd8ac4	0.09254983
19	0xbcb2a2ef	-0.021806208
20	0x3ca2e21e	0.019883212
21	0x3d7ebf07	0.062193897
22	0x3c052548	0.008126564
23	0xbb85cdaa	-0.004083355
24	0x3d976478	0.0739221
25	0x3dcb7cae	0.0993589
26	0xbd0e7186	-0.034776233
27	0xbdd95796	-0.10612409
28	0xbd8bc746	-0.06825118
29	0x3db685f9	0.08912272
30	0x3c30b4fa	0.010785336
31	0x3ddadaa7	0.10686236
32	0xbd33b8c5	-0.04387738
33	0xbdf16b04	-0.1178799
34	0x3d1e9296	0.038714014
35	0xbd5a13a0	-0.053241372
36	0xbd988556	-0.07447307
37	0x3d9f73bb	0.07785746
38	0x3c0efb93	0.008726972
39	0xbc2b7dea	-0.010467032
40	0x3df87f5b	0.12133666
41	0x3dde212f	0.10846173
42	0xbdcfde39	-0.101498075
43	0xbdea48e3	-0.11439683
44	0xbd7c4307	-0.06158736
45	0xbdc5e844	-0.09663442
46	0xbd86564c	-0.065594286
47	0x3daba68f	0.08381378
48	0xbda9b80c	-0.08287057
49	0x3dea1b58	0.11430997
50	0x3d205ee5	0.039153
51	0x3bb56ad9	0.005536419
52	0x3cac7474	0.021051623
53	0x3cd7d51c	0.026346736
54	0x3d23ee07	0.040021922
55	0xbdcf9b96	-0.101370975
56	0xbb09090c	-0.0020909933
57	0x3da997b6	0.0828089
58	0x3dfe1e94	0.12408176
59	0xbbd3ed2f	-0.0064674835
60	0xbdb5f162	-0.08883931
61	0x3d6a0f3b	0.05714343
62	0xbde9bde5	-0.11413173
63	0x3de38dc9	0.11111028
64	0x3d9bb95a	0.076037124
65	0x3d608957	0.054818477
66	0x3c89d8ae	0.016826954
67	0x3db7e2c3	0.08978798
68	0xbd4cdd86	-0.05001595
69	0xbdd319ff	-0.10307693
70	0xbd8dee78	-0.0693025
71	0x3dbd1c21	0.09233881
72	0xbd7e13cd	-0.062030602
73	0xbdcb9984	-0.0994139
74	0x3ce4afee	0.027915921
75	0xbd9dd669	-0.07706911
76	0xbba03906	-0.00488961
77	0xbda1e2e3	-0.07904603
78	0x3cd87226	0.026421618
79	0xbcaf8684	-0.021426447
80	0x3c85b691	0.016322406
81	0x3d68df68	0.05685368
82	0xbda398d2	-0.079881325
83	0xbd31f2c6	-0.043444417
84	0xbda76f3c	-0.08175513
85	0x3dd267fe	0.10273741
86	0xbd34708e	-0.044052653
87	0x3d44807a	0.047974087
88	0x3ce83290	0.028344423
89	0xbdfc527b	-0.123204194
90	0xbdb4e9d3	-0.08833661
91	0xbcfc5fcf	-0.030807404
92	0xbdc264ca	-0.0949188
93	0x3d8697d4	0.06571928
94	0x3da1438a	0.0787421
95	0x3a16a5db	0.000574676
96	0x3c6584d6	0.014008721
97	0x3d083b48	0.03325966
98	0x3d270948	0.040780336
99	0xbcc99dc6	-0.024611365
100	0xbd482ba5	-0.048869748
101	0xbd9c9194	-0.07644954
102	0x3bac48d1	0.005257704
103	0x3dca12fa	0.09866901
104	0xbc7e91ee	-0.015537722
105	0x3ddaa12a	0.10675271
106	0x3d365c3c	0.044521555
107	0xbd8312d4	-0.064000756
108	0x3d4769fd	0.048685063
109	0x3d4e82c3	0.050417673
110	0xbd642af0	-0.05570501
111	0xbcb3b731	-0.021937938
112	0xbc49bcb6	-0.012313059
113	0x3d323725	0.04350962
114	0x3dc840f4	0.09778014
115	0xbcde6e59	-0.027152227
116	0x3da61156	0.08108775
117	0x3d8860bd	0.06659076
118	0xbddc7df9	-0.10766215
119	0x3dbba348	0.09162003
120	0xbb9ba3a7	-0.0047497335
121	0x3dc58575	0.096445955
122	0x3dc93ba7	0.09825831
123	0xbdf6cd13	-0.120508336
124	0xbdd31e94	-0.10308567
125	0xbc68c15c	-0.014206257
126	0x3d25997c	0.040429577
127	0xbca04cd1	-0.019567879
128	0xbdf5baf4	-0.11998549
129	0x3d8a7cd4	0.0676209
130	0xbd91d0da	-0.071199134
131	0x3d66a066	0.05630531
132	0x3db4486b	0.08802875
133	0xbd2bb3ce	-0.041919522
134	0x3d99647c	0.07489869
135	0x3c872593	0.016497409
136	0xbd1fc1db	-0.039003234
137	0x3c03a759	0.008035504
138	0x3d37a8d4	0.04483874
139	0x3d82a139	0.06378407
140	0xbd924be2	-0.0714338
141	0x3dbe980c	0.093063444
142	0xbd713515	-0.058888514
143	0xbddc224f	-0.10748731
144	0xbd5ce710	-0.053931296
145	0xbde2081e	-0.110367045
146	0x3d0eb512	0.03484065
147	0x3c052719	0.008126997
148	0xbbbe0aa5	-0.005799609
149	0xbdacdcdb	-0.08440562
150	0x3d86962b	0.06571611
151	0x3ca8c01b	0.020599416
152	0xbd0047b1	-0.03131837
153	0x3cb49545	0.022043834
154	0x3d33a7dd	0.04386126
155	0xbd98b534	-0.07456437
156	0xbd1299a2	-0.035791047
157	0xbd67deac	-0.05660884
158	0x3de1d298	0.11026496
159	0x3cfdda1b	0.03098779
160	0xbdc10c3c	-0.09426162
161	0x3db451d1	0.08804668
162	0xbca34cf4	-0.019934155
163	0x3c09db8f	0.008414163
164	0x3c845ecc	0.016158484
165	0xbc6bbb6b	-0.014387946
166	0x3df1bc58	0.11803502
167	0x3d5d42cd	0.054018784
168	0x3cdbdd3e	0.026838895
169	0xbd39ac9e	-0.045330636
170	0x3cec6c4d	0.028860236
171	0xbdb99d2c	-0.09063181
172	0xbd2fffc2	-0.04296852
173	0x3d81a98c	0.063311666
174	0xbdfb0c3a	-0.122581914
175	0xbb4f6792	-0.0031647426
176	0xbd3bcf9a	-0.04585228
177	0x3d824c9f	0.063622706
178	0xbd9efb92	-0.07762827
179	0x3cb13e0a	0.021636028
180	0xbd12e469	-0.03586236
181	0x3dd59516	0.104288265
182	0xbc9779f3	-0.018490767
183	0xbdb9e6c5	-0.09077219
184	0xbd1e2b77	-0.03861567
185	0x3db40fda	0.08792086
186	0x3d44470e	0.047919326
187	0x3cd9f2e8	0.026605085
188	0x3d9f6711	0.0778333
189	0x3d44b588	0.048024684
190	0xbc8253f4	-0.015909173
191	0xbd86f075	-0.06588832
192	0xbdf42c82	-0.11922552
193	0x3d7697be	0.060203306
194	0x3dc752d3	0.09732594
195	0xbd41e783	-0.047339927
196	0xbd6644d8	-0.056218
197	0x3cad9178	0.021187529
198	0xbc35f5eb	-0.011105995
199	0x3dc3e422	0.09564997
200	0xbb17def8	-0.0023173671
201	0xbb6bcd14	-0.003598039
202	0xbded2e49	-0.11581094
203	0x3d1b081e	0.037849538
204	0x39feb98d	0.000485849
205	0x3cf0bd8e	0.029387262
206	0x3d9bfb17	0.07616251
207	0x3d5a51ec	0.053300783
208	0x398c5795	0.00026768135
209	0xbc1a2168	-0.009407379
210	0xbd80cc09	-0.062889166
211	0x3de6c1ce	0.11267434
212	0x3dd2b85d	0.10289071
213	0xb89d6c75	-7.506545e-05
214	0x3dfe2a9b	0.1241047
215	0x3ddf4ec5	0.10903696
216	0x3d92e8ea	0.07173331
217	0x3d8369a5	0.064166345
218	0x3d4a5745	0.049399633
219	0xbcb6c753	-0.022311842
220	0x3c484d2b	0.0122254295
221	0x3dcf5aa9	0.10124714
222	0xbcac7041	-0.02104962
223	0x3d1d5f49	0.03842095
224	0xbd22283a	-0.039589144
225	0x3ca5c051	0.020233305
226	0x3d946939	0.07246632
227	0x3d9f3c14	0.07775131
228	0x3d798002	0.060913093
229	0x3d71309f	0.05888426
230	0xbcf647f4	-0.030063607
231	0x3de7c407	0.11316686
232	0x3db303dc	0.087409705
233	0x3df19a78	0.11797041
234	0xbdcf2385	-0.10114197
235	0xbd6780e8	-0.05651942
236	0xbdd3e9aa	-0.10347302
237	0x3c31641a	0.010827089
238	0x3dc33092	0.095307484
239	0xbdade7a0	-0.084914446
240	0x3d050beb	0.03248207
241	0xbb248a0c	-0.0025106696
242	0xbdee4f69	-0.1163624
243	0xbba61f16	-0.0050696237
244	0xbc6cb068	-0.014446355
245	0xbd76ded7	-0.06027111
246	0xbd9f4992	-0.07777704
247	0x3d9694ce	0.07352601
248	0xbc53ec47	-0.012934751
249	0xbccc8f94	-0.024970807
250	0xbd106cd4	-0.035260037
251	0xbc831894	-0.01600293
252	0xbd0dd141	-0.03462339
253	0xbd98899d	-0.07448123
254	0x3d59e001	0.053192142
255	0xbb0496c6	-0.002023147

rnn.bias_ih_l0 f4 [64]
0	0xbd3600cc	-0.044434354
1	0x3d675b9d	0.056483854
2	0x3d9e3ceb	0.07726463
3	0xbc0b5661	-0.008504481
4	0x3d149911	0.036278788
5	0x3daa7985	0.08323959
6	0x3db00ba2	0.08595969
7	0x3d7ba16d	0.061433244
8	0x3dbeacc0	0.09310293
9	0x3d2863e7	0.0411109
10	0x3d086fa9	0.033309612
11	0xbdfda84d	-0.123856165
12	0xbcc9550d	-0.024576688
13	0xbd1c3d85	-0.038144607
14	0x3d057d3d	0.03259014
15	0xbd073c00	-0.033016205
16	0xbdf7a409	-0.12091834
17	0x3de826e3	0.11335542
18	0xbd53d4bf	-0.051716562
19	0xbde78454	-0.113045365
20	0xbd8053de	-0.062659964
21	0x3cfd3ecb	0.030913731
22	0xbd40e355	-0.0470918
23	0xbe027cb9	-0.1274289
24	0x3d1e4d40	0.03864789
25	0x3d32a8c7	0.04361799
26	0x3de7706e	0.11300741
27	0xbdf94abc	-0.121724576
28	0xbccce593	-0.025011813
29	0xbd45ba94	-0.048273638
30	0xbd3de6a2	-0.046362527
31	0x3c060c25	0.008181606
32	0x3df409b0	0.1191591
33	0xbc21e7e7	-0.00988195
34	0x3de20454	0.11035982
35	0x3cb84956	0.022495907
36	0xbd8ec79c	-0.06971666
37	0xbca15075	-0.019691685
38	0x3d7b7b95	0.061397154
39	0x3d8cdf7e	0.06878565
40	0xbd38daaa	-0.04513041
41	0xbc82734c	-0.015924118
42	0xbdd9b7f8	-0.106307924
43	0xbdb017e4	-0.08598307
44	0xbcf2970a	-0.029613037
45	0x3d82d67a	0.063885644
46	0x3b42fde9	0.0029753393
47	0x3d7a5ff8	0.06112668
48	0xbdd8939e	-0.10575031
49	0x3cf0fdd2	0.029417906
50	0xbdd66eae	-0.10470329
51	0xbcebc3d2	-0.028779898
52	0x3dce382f	0.1006931
53	0x3c185917	0.009298584
54	0xbdc6b94e	-0.09703313
55	0xbdfbe9cc	-0.123004526
56	0xbd1d49c1	-0.038400415
57	0xbd3a25be	-0.04544615
58	0xbdf4c9aa	-0.11952527
59	0x3d9d46ae	0.07679497
60	0xbb9fa14c	-0.004871523
61	0xbcc0ddb8	-0.023543224
62	0x3dc87a65	0.0978897
63	0xbdec319e	-0.11532901

rnn.bias_hh_l0 f4 [64]
0	0x3d1cc43e	0.03827309
1	0x3db56a39	0.08858151
2	0x3cd363bc	0.025804393
3	0x3d8d95ba	0.06913324
4	0xbd35cd74	-0.04438539
5	0xbe00b9a1	-0.12570812
6	0x3df3907c	0.118927926
7	0xbe01cc73	-0.12675647
8	0xbd2eff9e	-0.042724244
9	0x3dde7ed9	0.10864038
10	0xbd777984	-0.06041862
11	0xbcd48efd	-0.025947088
12	0xbd830912	-0.063982144
13	0x3cc7f436	0.024408441
14	0xbd248836	-0.040168963
15	0x3d497bec	0.049190447
16	0x3de9ac52	0.114098206
17	0xbdaccdea	-0.084377125
18	0x3dab8f9f	0.08377003
19	0xbcd60a4a	-0.026127953
20	0xbe0a3940	-0.13498402
21	0x3d717f2c	0.05895917
22	0xbdb45776	-0.08805744
23	0x3d8fcc3f	0.07021379
24	0xbcc87570	-0.024470061
25	0xbda2f05d	-0.07956002
26	0xbde403f3	-0.11133566
27	0x3ce6815c	0.028137855
28	0xbdf8aaf9	-0.121419854
29	0x3d8a7a06	0.067615554
30	0x3d35c989	0.044381652
31	0xbdcd2582	-0.1001692
32	0x3d8b9857	0.06816166
33	0xbdc29639	-0.09501309
34	0x3c864d36	0.016394239
35	0xbcfb397e	-0.030667063
36	0x3da094a3	0.0784085
37	0xbde76b2d	-0.11299739
38	0xbd2b8720	-0.041876912
39	0xbd48bf44	-0.04901053
40	0xbc6e555a	-0.014546717
41	0x3c435d23	0.011924061
42	0xbda402c9	-0.08008344
43	0x3c283ec5	0.010268872
44	0x3c12682b	0.008935968
45	0xbd968f90	-0.07351601
46	0x3ccb85dc	0.024844103
47	0x3db1c578	0.08680242
48	0x3d7f0713	0.062262606
49	0x3d348f26	0.04408183
50	0xbd7152a1	-0.05891669
51	0xbda8f978	-0.082507074
52	0x3d967667	0.07346802
53	0x3cbef78b	0.023311397
54	0x3bc032f2	0.005865448
55	0x3d81249e	0.06305812
56	0xbd6e0ca1	-0.058117513
57	0xbdf64648	-0.12025124
58	0xbdb71dd0	-0.08941233
59	0xbddd196a	-0.10795863
60	0x3d8fa2af	0.07013451
61	0x3d9232b1	0.07138575
62	0xbd62a4df	-0.055333015
63	0xbccede07	-0.025252355

output_net.weight f4 [2, 64]
0	0xbcbbb931	-0.022915455
1	0xbd1e5cd3	-0.038662743
2	0xbda6f0b2	-0.08151378
3	0x3d3924cd	0.04520111
4	0xbd492493	-0.049107146
5	0xbdb49b9d	-0.088187434
6	0x3cf132b6	0.029443126
7	0xbd4302dc	-0.04761015
8	0x3cb9f9df	0.022702156
9	0xbb40a720	-0.002939649
10	0x3d10f4f5	0.03538986
11	0x3da0c5de	0.0785024
12	0xbde5a57f	-0.112132065
13	0xbd6d54e9	-0.057942305
14	0x3dfa4cde	0.122216925
15	0x3c75a628	0.014993228
16	0xbca4f6e0	-0.02013725
17	0x3dd64716	0.10462777
18	0x3dd7da96	0.10539739
19	0x3d51fcf2	0.051266618
20	0xbde7dade	-0.113210425
21	0x3e03699f	0.1283326
22	0xbdf12257	-0.11774128
23	0xbe09990b	-0.13437288
24	0x3cbbc675	0.02292178
25	0xbd070438	-0.032963008
26	0xbdebd3cb	-0.11515006
27	0x3daea78c	0.08528051
28	0x3c27441a	0.010209108
29	0xbd876568	-0.066111386
30	0x3d261e58	0.04055628
31	0x3da468ca	0.080277994
32	0xba506138	-0.0007949057
33	0x3db3819f	0.08764958
34	0x3daa75e1	0.08323265
35	0x3cdb0431	0.026735397
36	0xbd883000	-0.0664978
37	0xbdcefbd3	-0.101066254
38	0xbb74d1d6	-0.0037356517
39	0xbd1440a9	-0.036194477
40	0xbde6a613	-0.11262145
41	0xbdea7f56	-0.11450069
42	0xbdb82ad2	-0.08992542
43	0x3ab11a08	0.0013511786
44	0xbd6e1d9e	-0.058133714
45	0xbde05963	-0.10954549
46	0xbc95e88b	-0.018299362
47	0xbd59881e	-0.053108327
48	0xbd13513b	-0.03596614
49	0x3da001e8	0.078128636
50	0x3d83ba57	0.06432026
51	0x3da12960	0.0786922
52	0x3e00d252	0.12580231
53	0x3c547990	0.012968436
54	0xbd8ddf46	-0.06927352
55	0xbc8a9564	-0.016916938
56	0x3c80742f	0.0156804
57	0xbd49c454	-0.0492595
58	0x3db02299	0.08600349
59	0x3d836474	0.06415644
60	0xbdc48c3f	-0.09597062
61	0x3c56b1ef	0.013103946
62	0x3c31092f	0.010805412
63	0x3d12b74b	0.035819333
64	0xbdb06347	-0.08612686
65	0x3de252e9	0.1105097
66	0xbd407a5b	-0.046991687
67	0x3d2762e1	0.040865783
68	0xbd67eb8b	-0.056621116
69	0x3d4a79e4	0.04943265
70	0xbd49d0b0	-0.049271286
71	0xbd8bc55b	-0.06824752
72	0xbde03038	-0.10946697
73	0x3d2c58c6	0.04207685
74	0x3cb2ed03	0.021841532
75	0x3d2bc5d7	0.04193672
76	0xbd86814e	-0.06567632
77	0x3ccf5f7c	0.025314085
78	0xbd511d03	-0.05105306
79	0x3cce34f0	0.025171727
80	0x3ded6d4c	0.11593112
81	0xbde27fa8	-0.11059505
82	0x3d502c2d	0.05082338
83	0xbdb3e64a	-0.087841585
84	0x3d5a1f53	0.05325253
85	0xbd166d53	-0.036725353
86	0x3d64ba07	0.055841472
87	0xbda84d74	-0.08217898
88	0x3daafeca	0.083493784
89	0x3d88d8e1	0.06681991
90	0xbdb0bdc7	-0.08629947
91	0xbd9c6ae2	-0.07637574
92	0x3d955be2	0.07292916
93	0xbdc99ad4	-0.09843984
94	0x3d53c877	0.05170485
95	0xbd518cb6	-0.051159583
96	0xbdfdeb86	-0.12398438
97	0x3d2f9e04	0.042875305
98	0xbd6f472c	-0.058417484
99	0xbdb3bc4f	-0.087761514
100	0x3d1986e3	0.037482154
101	0x3d81cac2	0.06337501
102	0x3dd2192f	0.1025871
103	0x3dff7aef	0.124746196
104	0x3d3277c2	0.04357124
105	0xbd1be589	-0.0380607
106	0xbc2ba342	-0.010475935
107	0x3dc2a50b	0.09504136
108	0xbdc27c16	-0.09496324
109	0x3dc14b6f	0.09438216
110	0x3d5e417a	0.054261662
111	0x3d3caf4d	0.046065617
112	0x3d36123b	0.04445098
113	0xbdd97c9d	-0.10619471
114	0x3d6c4220	0.05768025
115	0xbba3ad23	-0.0049950047
116	0x3867df4a	5.5282646e-05
117	0xbd7ecfce	-0.062209897
118	0x3dbe9c21	0.09307123
119	0xbc8a4a3e	-0.016881105
120	0x3bab5102	0.0052281627
121	0xbdcfec3c	-0.1015248
122	0x3ddefd7d	0.10888193
123	0xbde8d37a	-0.11368461
124	0x3da96cb5	0.08272687
125	0x3d5a3f06	0.05328276
126	0x3ca30704	0.019900806
127	0xbdf1246c	-0.11774525

output_net.bias f4 [2]
0	0xbf0832e7	-0.5320267
1	0x3eeec62f	0.46635577
