pred_training/trained_rnn_models/T3_resnet50/pred_rnn/cosine_True_0.01_0.9mammograms_pred_rnn_0.508_10.pth (torch, 322372 bytes, 10 tensors)

init_net.0.weight f4 [64, 15]
00000000: c9e1 edba 5329 053e ed4d 4cbe a8ae 36be
00000010: 9c36 bfbd 1c21 853d f561 9dbb 97d1 443e
00000020: 263b b0bc 975e 833d 5009 96bd 532c 43bd
00000030: 5225 6dbe dc65 24be e2a6 ccbd 2a1b 123c
00000040: 65bf c43d db2a 153e f048 28be 8c30 d8bd
00000050: a052 b43d 2d8f 4e3e c154 4cbd 5ac4 393e
00000060: 7408 20bd 4f20 d23c 77c7 603e 7146 66be
00000070: 6fce 1bbe 825f 7bbd 88b6 c0bd dcc0 553e
00000080: d4f5 20be 6189 e4bd 616c 2dbe 727b 68be
00000090: 4a75 11be d04b 553e fd71 dd3d 5399 f03d
000000a0: 13d8 503c f68c febd 28af 273d f38c 68be
000000b0: d95c 33be 1852 01be 3b40 1d3e 1936 123e
000000c0: 542d dcbd d64e 0fbc f5c1 1e3e e509 783e
000000d0: 0f11 c53d 9d24 063d 9373 263e 9b28 12be
000000e0: e708 393d 2374 40be 09be 2abe 3d3b 00be
000000f0: d0ae e03d 78b1 c73d bc0a 13be cbfb 953d
00000100: 8945 083e b6a5 fabc f81b 183c 430c 663d
00000110: 12fe 193e de58 6e3e a44a 3fbe 13f0 b5bd
00000120: 431b c33d e9af 4d3e f602 583e 83ff 5a3e
00000130: c992 453d f2dc 57be b7ae b63c 314b 1bbe
00000140: d056 67be e789 5c3e eabc 3c3e 689d 77be
00000150: 60d9 393d 5944 27bd c964 23bd 3642 e3bd
00000160: ede2 be3d 0907 13be 7a9f b53d 4886 fc3d
00000170: 567a 323e c2a1 b93d 96ae 75be 9906 21be
00000180: 7e60 fa3d 6316 503d fd9a 41be baed 0ebe
00000190: c285 693e 3a4b 273e ed38 d8bd 01df 73bd
000001a0: 8e76 6cbe 7fc6 8ebb 64ee 3abe 1c79 3fbe
000001b0: 6fd6 5abc fb14 153d 9550 cbbd 544b 133e
000001c0: a50e 17be 873c 613e ae1c 2a3e f853 51be
000001d0: 2b1f 77bd 4a36 333c 3ade 103d b17e 6b3d
000001e0: 80ac c23d f9dc 6c3c f540 f2bd 70eb ea3d
000001f0: 281d 6ebe ab20 13be 2cc9 78bd e5d7 f1bd
00000200: 6caf adbd 5274 4bbe 9035 53bd 943a 543d
00000210: 5fb7 21be bdff 4cbc 32b2 313e 418e c4bc
00000220: 8619 9b3b c439 bcbc bff2 483d 92d5 1d3e
00000230: 8c22 6b3e c72b 1a3e 9476 6b3e 1250 90bc
00000240: 96fd 5ebe 355c ebbd 17ed 283e bf24 f5ba
00000250: 4e18 ffbd c238 3ebe 577d 68be 3873 51be
00000260: b9f2 48bd 7c21 083e 1834 063e ab66 6fbe
00000270: 0001 1b3e 383d 42be 35e8 51bd f74a c9bd
00000280: 4840 3fbd 68f4 42bd c7bf 5ebe 1829 56be
00000290: 055f 1bbd f071 3c3b 8053 e0bd 372c bc3d
000002a0: db6b 5fbe c804 86bc 424c 5a3e fe93 c8bd
000002b0: 0936 603e 03da b33d 5a03 60be 1e0e 1d3e
000002c0: aeea e4bc 7a6e ddbd 86ad 473e c697 48be
000002d0: ab8d d33c 10c9 4ebd 6c98 313e 9c95 8a3d
000002e0: 388d ee3d 5654 af3d 5ad6 6cbd c8ae 50bd
000002f0: b68a 4cbe 3183 063e 4b17 453e a1d9 293e
00000300: 470b 2fbe 6cd8 3a3c 5afc 2ebe b504 09be
00000310: 6408 10be 2d33 ab3d 56ec 13be 394d adbb
00000320: af14 273c a527 213e 5898 3bbe 5c62 2abe
00000330: d220 10be d4be 2d3e 5663 b2bd 927f 513e
00000340: e648 b63d 6375 fb3c 4e66 f3ba 8cf8 43bd
00000350: 4bd6 f93c 67ba 62bd ef40 dfba eb60 fd3c
00000360: 812a 42be ee1a 02be f488 483e 2b73 49be
00000370: 8398 8ebc 22a1 753e 0257 b33d ae1c e63b
00000380: 471e 57be cf55 f53d 31f0 30be 765e 8dbd
00000390: ef91 a6bd f009 13bd fcc5 2d3b 2e6a 4c3e
000003a0: d0e0 f73c 6452 5e3e 0ad8 173e 15ef 1cbe
000003b0: 0ba9 de3d 1a79 2fbe b11c d3bd 4505 923d
000003c0: bb24 a43d 6ec8 393e a3b9 a0bd 8975 cb39
000003d0: c096 ff3d 930f 70be ccb1 323e b147 4dbe
000003e0: d698 593b c7d3 28bd 75bc 02be 452f 033d
000003f0: 7730 4d3e 37ec 92bd 645f 13be 0483 b8bd
-0.0018148954 0.13004045 -0.19951601 -0.17840064 -0.09336588 0.06500456 -0.004802937 0.19220577
-0.02151258 0.06414526 -0.07325995 -0.047649693 -0.23158768 -0.16054481 -0.09992768 0.008917609
0.09606818 0.1456713 -0.16434073 -0.105561346 0.08804822 0.20171805 -0.049885515 0.18141308
-0.03907056 0.025650172 0.2195109 -0.22487809 -0.15215467 -0.06137038 -0.09409815 0.20874351
-0.15718776 -0.111590154 -0.16935875 -0.2270334 -0.14204898 0.20829701 0.10812757 0.11747994
0.012746829 -0.1242923 0.040938526 -0.22710018 -0.17515887 -0.12628973 0.15356533 0.14278449
-0.10750833 -0.008746823 0.15503676 0.24222524 0.09622394 0.03274976 0.16255026 -0.14273302
0.045174506 -0.18794303 -0.16674055 -0.12522598 0.10970843 0.09750646 -0.14359564 0.07323416
0.13307776 -0.030596595 0.009284012 0.056164037 0.15038326 0.23276088 -0.18680817 -0.08883681
0.09526684 0.20086636 0.2109488 0.21386532 0.04823569 -0.21080378 0.022300107 -0.15165402
-0.2259171 0.2153698 0.1843144 -0.2418114 0.04537332 -0.040836666 -0.039891038 -0.11096613
0.093206264 -0.14358152 0.08868308 0.123302996 0.1742948 0.09064056 -0.2399238 -0.15725173
0.12225436 0.0508026 -0.1890678 -0.13957873 0.22804931 0.1633729 -0.10557733 -0.059538845
-0.230921 -0.0043571587 -0.18255001 -0.18698543 -0.013356789 0.03639696 -0.09927479 0.14384204
-0.1475168 0.21995746 0.16612503 -0.20442188 -0.06033246 0.0109382365 0.03536818 0.05749387
0.09505558 0.014456981 -0.11828796 0.114706874 -0.2325331 -0.1436793 -0.060738727 -0.11808757
-0.08480725 -0.19868591 -0.051564753 0.051813677 -0.15792607 -0.012512145 0.17353132 -0.023993613
0.0047332672 -0.022976764 0.049059626 0.15413502 0.22962397 0.15055762 0.22994453 -0.017616306
-0.21776423 -0.114921965 0.16496693 -0.0018702968 -0.124558076 -0.18576339 -0.22704063 -0.20454109
-0.049059603 0.13294023 0.1310581 -0.23379008 0.151371 -0.18968666 -0.05124684 -0.098287515
-0.046692163 -0.047596365 -0.21752845 -0.20914114 -0.037932415 0.0028754435 -0.10953426 0.09188121
-0.21818487 -0.016359702 0.21318153 -0.09793852 0.21895613 0.08781817 -0.21876279 0.15337417
-0.027943935 -0.10812087 0.19499788 -0.19589147 0.025824388 -0.050484717 0.173433 0.06766817
0.11648029 0.08561008 -0.05782161 -0.050947934 -0.19974789 0.13135983 0.19247167 0.16586925
-0.17094146 0.011404138 -0.17088452 -0.13380702 -0.14065701 0.083593704 -0.14445624 -0.0052887467
0.010197802 0.1573778 -0.18319833 -0.16639084 -0.1407502 0.16967326 -0.08710353 0.2045882
0.08900623 0.030695623 -0.0018569918 -0.047844455 0.03049769 -0.05535355 -0.0017032902 0.030930003
-0.18961526 -0.12705585 0.19583493 -0.1967284 -0.017406708 0.23987249 0.0875683 0.007022462
-0.21007644 0.11979257 -0.17279126 -0.069027826 -0.081333034 -0.03589815 0.0026515713 0.1996238
0.030258566 0.21711117 0.14828506 -0.15325578 0.10872086 -0.1713604 -0.10308207 0.07129911
0.08014818 0.18142864 -0.078479074 0.00038806748 0.12479925 -0.23443441 0.17450637 -0.2004688
0.003320267 -0.04121759 -0.12767203 0.0320275 0.20038019 -0.07173961 -0.14391857 -0.09009364

init_net.0.bias f4 [64]
00000000: 3967 31be a285 573d 943e 613e b9db 72be
00000010: 3bd2 76be cc50 fe3c 1c6e 3c3e 900b 17be
00000020: f448 5a3d f655 2a3e 5368 993d 5799 5b3d
00000030: 9b45 783e 8a18 233e eb72 0bbe 2ad9 a83c
00000040: 7bd4 fb3d 2a49 5d3e ccd6 76be 46b4 053e
00000050: d306 8fbd 72c9 72be 2c9b 633d e046 05be
00000060: eee5 103d 5955 20be f718 39be ccad a7bc
00000070: ef4d a7bd a017 113e cbcc a03c 39d5 463e
00000080: c1c5 3a3d 44a4 9fbd 72a3 283e fb46 713c
00000090: 8266 393d 524c 9fbd 85c8 1d3b 9e11 3abd
000000a0: 4c4c aebc 5620 42be 182e aeba b7ab 4dbe
000000b0: 5c30 5abd f4c9 0e3e 8ae2 2dbe 910d 27be
000000c0: 0e55 74bd 4c3a 89bd 3e6c 203d ca03 263d
000000d0: 9d1b f63d dbf4 2abe b2b2 88bc 0bf0 093e
000000e0: 1f46 563e 93ff 5bbc d509 0fbe 81e9 903d
000000f0: 084f 0d3e 8b09 1bbe 6297 10be d688 db3d
-0.17324533 0.052617677 0.21996528 -0.2371663 -0.24103634 0.031044386 0.18401378 -0.14750504
0.05329223 0.16634354 0.074906014 0.053613033 0.24245302 0.1592733 -0.13618056 0.020611364
0.12296387 0.21609941 -0.24105376 0.1305705 -0.069837235 -0.23709658 0.055567905 -0.13015318
0.035375528 -0.15657558 -0.1807593 -0.020468615 -0.081691615 0.14169168 0.019628903 0.19417275
0.04559875 -0.07795003 0.164686 0.014726396 0.045263775 -0.07778229 0.0024075818 -0.045426957
-0.021276616 -0.18957648 -0.0013288883 -0.20085035 -0.053268775 0.13944227 -0.16980949 -0.16313769
-0.059651427 -0.06700572 0.039165728 0.040530957 0.120169856 -0.16694967 -0.016686771 0.13470475
0.20925187 -0.013427633 -0.13968594 0.07075787 0.1379968 -0.15140359 -0.14120248 0.10719459

init_net.2.weight f4 [128, 64]
00000000: aeb8 06bc 88d6 e1bd da2f 8abd 3d90 433d
00000010: 4475 22bd 2543 a73d ec22 c03d 78da 8b3c
00000020: 9e25 17bc 6556 16bd c130 bcbb e8f5 b23c
00000030: 4912 b6bd 657d dcbc 9ae5 c7bd 3ec0 933d
00000040: b08a 97bd faa3 de3d 998c f6bc 2012 88bd
00000050: 9422 673d 4fb5 8f3c da28 a93d f8a5 493d
00000060: 3b52 e7bd 4f52 983d e6c0 b2bc 1794 51bd
00000070: 57ad 983d c787 af3d b1b2 d2bd cc35 24bc
00000080: 1990 c53d af2a 3a3d 01bc ca3d 8be5 21bd
00000090: 977e 84bd d7b8 ce3d a27a 493d f698 e73d
000000a0: db30 48bd df15 9abd 277f 5ebc a930 e2bd
000000b0: 9dba 3d3d 1ffa b13d c8ca e83c 69e5 3abc
000000c0: 5c87 6f3d 3f64 98bd a602 ed3d 176a edbd
000000d0: 787d e4bd 9924 e3bc c375 c43d 6f27 413c
000000e0: 93e3 3b3d 5309 afbd d7ae 303d 3d95 48bc
000000f0: 16bd 433d 83bf a93d 6f4d 513d 407b 23bc
00000100: 13e2 ecbb bd4d 96bd 828e 2dbd 3b51 9c3d
00000110: 4a91 40bd cbb7 953d 5f0a 3dbd 25e8 dfbc
00000120: 87ac 243b 9324 dcbd 431b 8fba 579e 3ebc
00000130: 670e 28bc 1d89 bcbc 757e bd3d ad72 b13d
00000140: ee5e a2bd 83b7 613d 6165 bcbd 2009 ccbd
00000150: 5303 133d 2208 e43a b90a 5ebd a1aa e7bd
00000160: 09eb 39bd cfc8 203d 3543 debd 15eb e8bd
00000170: ef13 743c 230f adbd dd61 d2bd 9b5e 38bd
00000180: 0a7b 9abc a367 dabd 3c64 a0bd 1c5e 023c
00000190: 099b e2bd 830d 87bc 4104 9bbd f544 a6bd
000001a0: ff28 3d3d c9ee b8bd dc06 b6bd 731c 893d
000001b0: 71d2 b43c e920 db3d 221d 00bd d5de 67bd
000001c0: c565 30bc 34f8 213a fe0d b83d d2c4 eebd
000001d0: bf7d 03bc c0a3 543d 594d 84bd 1434 74bd
000001e0: 1389 693d 69d4 e5bd 41c4 e43c 7173 b9bd
000001f0: 4204 703d ef80 cdbd 03d0 933d 1e84 e3bd
00000200: 2907 cabd 224c 493a 52bc bc3d 5c59 cebd
00000210: 905e 57bd f6d4 d03d 1d9f afbc ef24 473d
00000220: aa64 e7bd 65e9 1abd 306a 75bd 9ce5 c83d
00000230: d14d 423d 2b50 b3bd 09d4 9a3c a083 caba
00000240: c584 4abd 7682 8ebd b38d 20bd 9cb1 ba3d
00000250: 8671 acbd b15f abbd bdaa 1dbd 329b d73a
00000260: de23 023d 6d38 563b c439 ebbc 0d26 94bd
00000270: 69d2 acbc d14e 42bd b03f c13d 6ff7 ebbd
00000280: 859d 99bd 308b c3bd b05d b1bc 25f9 b83d
00000290: 9583 d23d 0a51 d1bd c84c b5bb b396 8b3d
000002a0: 54eb 523d de7d c43d e8be 68bb 81b1 a1bd
000002b0: 85dc 9d3d b635 27bd 1828 773d 739e efbc
000002c0: 3950 4a3d bde6 d73d 6c47 dc3d 376f ddbd
000002d0: 46e7 a1bd f7c7 46bd 3d81 99bd 367c e63d
000002e0: 87aa 3fbc 3b53 a1bd 9d2a 58bd ecb5 87bd
000002f0: dee7 3e3d 0aa7 d1bd bc63 e0bd 11f1 ecbd
00000300: 4af3 4e3d 0cdb 6d3d 3b3c 95bd da7c ee3c
00000310: 2374 b13d 143b 8c3c 9ebe cabc 4e0f 0e3c
00000320: 3d12 4ebc 0338 723d 7d2d a3bd b8e2 733d
00000330: f890 873d 7278 91bd 8e42 c43d 9515 ec3d
00000340: 9137 3dbd b03c 06bd 069c 6f3d 572a bcbd
00000350: 871c 3e3d 4753 e03c 56a9 973d 21b9 d0bd
00000360: f8a9 c7bd 11f0 573d fb40 2d3d ff98 dfbd
00000370: d107 86bd 1be4 dbbd bd24 acbd 42aa 58bd
00000380: 1ae9 c63d 8d5d bfbc 4f11 8a3d 1161 e43d
00000390: a914 5b3d 8828 d7bd 9e03 723d 5277 373d
000003a0: 9a4e ba3d dc0f edbd 01d9 933d cebd c43d
000003b0: ef92 dfbd cbaa 493c 9a34 cd3d d3c9 aebd
000003c0: d2d1 1d3d 9372 543d 5f7d fc3c 3212 ef3d
000003d0: e9ec c43d 5d35 ce3d 5099 6fbc 4897 c93d
000003e0: 77d7 dfbd 419d 81bd 5056 cdbc 5b73 0ebd
000003f0: 9e22 de3d 4bba 623d 8ac1 9a3d d87c a33d
-0.008222742 -0.11027247 -0.06747408 0.04774498 -0.039662614 0.08167104 0.09381661 0.017071947
-0.009225277 -0.036703486 -0.0057431166 0.021845773 -0.08890206 -0.026915262 -0.0976059 0.07214402
-0.073994994 0.1087112 -0.030096339 -0.06644082 0.05642946 0.01754251 0.08259745 0.049230546
-0.11294981 0.07437574 -0.021820497 -0.05116662 0.07454937 0.08570819 -0.10287989 -0.010022592
0.09646625 0.045450862 0.0989914 -0.03952555 -0.064694576 0.10093849 0.049189217 0.11308472
-0.048874717 -0.07523703 -0.01358012 -0.110444374 0.046320546 0.08690285 0.028417006 -0.011407235
0.058478698 -0.074409954 0.11572771 -0.11592501 -0.11156744 -0.027727412 0.09592774 0.011789187
0.04587133 -0.085467 0.04313549 -0.012242612 0.04778775 0.08288481 0.051099237 -0.009978116
-0.0072290986 -0.07339046 -0.042372234 0.07632681 -0.04701356 0.07310446 -0.04615247 -0.027332375
0.0025127248 -0.107491635 -0.0010918159 -0.011634431 -0.01025734 -0.0230146 0.092526354 0.08664451
-0.07928263 0.05510665 -0.09199024 -0.09962678 0.035891842 0.0017397443 -0.054209445 -0.11311842
-0.045390163 0.039254006 -0.108526625 -0.11372963 0.014897331 -0.08450153 -0.10272572 -0.045012098
-0.018857498 -0.106642984 -0.07831618 0.007957008 -0.11064727 -0.016485935 -0.07569171 -0.08118621
0.046181675 -0.0902992 -0.08888027 0.066948794 0.022073003 0.106996365 -0.031277783 -0.056608994
-0.010766451 0.0006178648 0.08987044 -0.11658634 -0.008025586 0.051913977 -0.064600654 -0.059619978
0.05701549 -0.11222155 0.027925612 -0.09055222 0.05859781 -0.10034358 0.072174095 -0.11109184
-0.09864647 0.0007678886 0.09215607 -0.10075638 -0.052580416 0.10196869 -0.021438176 0.048619207
-0.11298497 -0.03782024 -0.05991572 0.098094195 0.047437493 -0.08755525 0.018899934 -0.0015450604
-0.049443025 -0.06958477 -0.039197635 0.091159075 -0.084200904 -0.08367861 -0.038492907 0.001644945
0.031772487 0.003268744 -0.028714068 -0.0723382 -0.021096425 -0.047438446 0.094359756 -0.115218036
-0.075007476 -0.09548032 -0.021651119 0.090318955 0.102790035 -0.10220535 -0.0055328347 0.06815853
0.051493958 0.0959432 -0.003551418 -0.07895184 0.077080764 -0.040822707 0.06034097 -0.02925036
0.049392913 0.10542057 0.1075581 -0.10812228 -0.0790544 -0.048530545 -0.07495353 0.1125416
-0.011698372 -0.07877203 -0.052775014 -0.06626496 0.046607845 -0.10236938 -0.10956523 -0.11569417
0.050524987 0.058070228 -0.07286879 0.029112268 0.086647294 0.017118014 -0.024749096 0.008670641
-0.0125775905 0.05913545 -0.079676606 0.059542388 0.066194475 -0.07103051 0.09583007 0.11527554
-0.04619557 -0.03277272 0.058498405 -0.09187763 0.046413925 0.02738346 0.07405345 -0.101915605
-0.09749216 0.05271918 0.0422983 -0.109178536 -0.065444596 -0.10736867 -0.08405445 -0.052896746
0.09712429 -0.023360038 0.067415826 0.111513264 0.0534865 -0.105057776 0.05908548 0.044791527
0.09097023 -0.115752906 0.072191246 0.09606515 -0.10916697 0.012308787 0.100197986 -0.08534589
0.03853018 0.05186708 0.0308215 0.11673392 0.096154995 0.10068772 -0.014623955 0.09843308
-0.109297685 -0.06328822 -0.025065571 -0.03477798 0.108464465 0.055353444 0.07556446 0.079827964

init_net.2.bias f4 [128]
00000000: 83c4 33bd a0de 4c3c 7c38 75bd 036c 993c
00000010: 2924 b9bc b098 a2bd 7557 093c d201 433d
00000020: b132 efbc b57d 2cbb 0fd7 f4bd 358f 16bd
00000030: 6b32 f1bd c846 f63d ca36 d13d 51fe d3bd
00000040: dce4 b0bd 2187 cfbd 0a82 833d f09d c13c
00000050: 4a3f ddbd 0e28 22bd bb37 b23d 9ac3 a6bb
00000060: e132 dcbd 031e 203d beab e93d dcf5 e23d
00000070: 6860 153c 2d89 febc 818a 393c d47b ac3d
00000080: 77d2 393d f93c c2bd c46f 743d efdf 9e3d
00000090: df2f c4bd 0ba3 a1bd 243c 983d 6b36 733d
000000a0: ef81 d0bd 0587 0c3d fc38 833d 6792 f33c
000000b0: 619f 793d baee 103d 9d65 0d3d e729 863d
000000c0: 0e75 25bd 39ac 31bb e86a dfbc 07e6 9cbc
000000d0: 01f7 483d 1a49 4abd 3d50 2bbb c85d cb3d
000000e0: 9e28 253d b184 f03d b04c dcbb 49f0 09bd
000000f0: 0e32 d73d 7be7 a0bd 3091 5a3d 4ead ca3d
00000100: 67cf 8cbd ca1d e5bc 7cdf d93d 1aa1 4ebc
00000110: 2db6 d7bd 06be 85bd 8ca4 e7bd 8aba 9ebc
00000120: bee4 8c3d d390 a1bc e452 78bc 9bc5 503c
00000130: 5c21 06bc b11a 8abc 4cbf f1bc ebec 873c
00000140: e737 b3bb 620a 44bc 322c 00bd a0cb ef3c
00000150: c386 41bd 1497 edba 00de a7bc 0e7c a83d
00000160: 84df 433d cd02 4c3d e501 5b3b 0b66 97bd
00000170: 2ae3 053c 2f13 c0bd 9dc6 2d3b c883 ec3d
00000180: 3ddd 5abc 00e5 ed3d a69e 9bbd 4ddf b53d
00000190: b147 373d 3f36 3dbd 6b0e e4bd 981b 59bd
000001a0: 4181 643d b7d5 e93d 6393 c3bd b1f8 4ebd
000001b0: 42f4 2a3d dbba f5bc df03 cbbd 1067 17bd
000001c0: a98a 223d 97d6 e9bd 856e 42bd b450 7f3d
000001d0: f025 573d add8 35bd 4827 e33d f26e 7a3c
000001e0: 3873 6a3d a3df 25bc 5f80 31bd e80a dd3d
000001f0: 05d2 debd 3694 203d 6ecd 49bd d7ec 0dbd
-0.04388858 0.01250425 -0.05986832 0.018728262 -0.02260025 -0.07939279 0.008382668 0.047609158
-0.029198976 -0.0026320044 -0.11955082 -0.036757667 -0.117771946 0.12025219 0.10215528 -0.103512414
-0.086374015 -0.10133196 0.06421287 0.02363488 -0.10803087 -0.03958898 0.08702036 -0.0050892355
-0.10751892 0.03909112 0.1140971 0.1108205 0.009117223 -0.03107127 0.011324526 0.08422056
0.04536673 -0.09484286 0.0596769 0.07757556 -0.09579443 -0.07892426 0.07433346 0.05937807
-0.10181033 0.034308452 0.06407353 0.029732896 0.06094301 0.035383917 0.034520734 0.06550961
-0.040394835 -0.002711071 -0.027272657 -0.019152654 0.049063686 -0.04938612 -0.0026140355 0.09929997
0.04032194 0.11744059 -0.006723009 -0.03367642 0.10507594 -0.078566514 0.053361118 0.098963365
-0.06875496 -0.027968306 0.106383294 -0.012611652 -0.10532794 -0.06530385 -0.11310682 -0.019376058
0.068795666 -0.019722378 -0.015156481 0.012742425 -0.008186664 -0.01685843 -0.029510163 0.016592463
-0.0054693106 -0.011965366 -0.031292148 0.0292719 -0.04724766 -0.001812669 -0.0204916 0.082267866
0.047820583 0.04980736 0.0033417877 -0.0739251 0.008171836 -0.09378659 0.0026516088 0.11548573
-0.013358411 0.11615944 -0.07598619 0.08880482 0.044746105 -0.04619431 -0.111355625 -0.05300483
0.05578733 0.11417716 -0.09549596 -0.05053014 0.04173685 -0.029996326 -0.09912848 -0.036963522
0.039683018 -0.11417883 -0.04746868 0.062332824 0.052526414 -0.04439609 0.11091477 0.0152852405
0.057238787 -0.01012412 -0.043335315 0.10793096 -0.10879902 0.039203845 -0.04926818 -0.034649696

lstm.weight_ih_l0 f4 [512, 7]
00000000: 49bc 813d 0636 98bd 94ac 36bc d8c2 e6bc
00000010: f12a 793d e042 7fbd 2013 80bc 8697 07bd
00000020: fae5 7f3d 307a 853d 158b e03a 5283 083d
00000030: c52f ae3d bc62 8fbd e06a cc3a 97d6 9c3d
00000040: adb9 b1bc 72aa 7bbd d385 963d 0844 a33d
00000050: aa71 4c3d ca7e 7f3d bc6a f4bb 3fea 6bbd
00000060: ac4b 96bd 2e3a 0d3d 6092 c1bc 4178 a53d
00000070: 41d1 173c ee2b 633d 6549 af3b d237 9cbc
00000080: 70b1 02bd 0c43 8ebd 2da2 a2bd a822 8bbc
00000090: 3d4e 8fbd 67d2 a9bd 266d 293d ca72 15bd
000000a0: 679e 023b c5d3 9ebc f6ec 7fbd 8d16 c9bc
000000b0: 4c48 5abd 0f1a 753c 6aa4 9f3d 2289 98bc
000000c0: 00aa 4f3c 94fd 413d bc4a 143d 1c66 e83b
000000d0: 6131 e9bc fd0a 85bc 3a9e 38bc d2c7 a93d
000000e0: 0779 403c 1074 803d 63d1 413d 7d06 8c3d
000000f0: c333 6b3c 5a64 2c3c f869 83bc ea3c 593d
00000100: e5a4 7c3d 5813 843d d7e4 96bd 3c1f c13b
00000110: 4406 50bd 1067 60bd 5855 94bd b8a0 01bd
00000120: 14ec 973d 8c50 3e3d 8ef0 6abd e53b 8bbc
00000130: 1d83 153d 7b6b 473d 8714 763d 8ec8 32bd
00000140: 1f2b 09bd 64f0 373d b530 9c3c 847c 2dbd
00000150: c1b2 80bd b5ac 373b ec6a 903d fa94 06bd
00000160: 2c7d 3cbc 7741 1f3d 2851 80bd 098b 09bd
00000170: e36f 3a3c 9124 1bbd 07e9 843d 848d 40bc
00000180: 6a70 0f3d 60c7 7fbc f8e4 1cbc 5cba 9d3d
00000190: 0251 87bd cc7e 6cbd deae fcbc 9c1b 8a3c
000001a0: b972 bebc f3a3 d53c 62d2 1cbd 7939 fc3c
000001b0: 1a83 9ebd 3301 4e3b 87f9 303d e443 663c
000001c0: f7a1 15bd e571 fcbc c608 943c c490 6abd
000001d0: 27fb 83bd f5a1 7fba 09d3 90bd 2561 983c
000001e0: cbdd 46bd 5aca 3b3d dc46 463d bd4b 893d
000001f0: 161a 3abd fc77 223c 1abf 9d3d 6505 9bbc
00000200: caaf f23c 955c 383d 0e94 3c3b 9fac dabc
00000210: 0d9e c03c 1d84 b93c 0666 83bd a1fc f7bc
00000220: 2a1b 8fbd baac 8fbd 3a29 7a3d 5c06 6f3d
00000230: 46a1 67bd e8d5 a4bd 9004 8abd 834f 213d
00000240: 2a99 8d3d 9139 49bc 5d0d ebbc ecd0 88bd
00000250: dc7b d9ba 0690 3c3d 7df4 233d a0fd 0abd
00000260: 2c59 06bd 8916 813c 18c1 243d 560b 8d3d
00000270: 26d1 8f3c 9e2c 543d 4590 8a3d 562a 45ba
00000280: 7151 90bc 1d60 4b3d 929f 823c 3ca8 a23d
00000290: 93e6 373d 2489 9a3c 8f55 91bd 7cac 693d
000002a0: 2cbc edbc b45a 6abc 521f 183d 920d bc3c
000002b0: 92f3 b8bc 5038 9cbb 2c71 81bd 14ac 0ebd
000002c0: 9d46 a5bc b999 073a 4841 abbc c8fe 3b3d
000002d0: 9fdf 2ebb 3723 51bd 5086 ba3c 77f5 d8bc
000002e0: a9d1 723d d511 1bbb 862a 933d 7f5e 933d
000002f0: 2932 a83d d2ca 113c a66d 853d 2452 82ba
00000300: dcb1 dd3c cfe3 1ebd 893d 84bd f252 7fbd
00000310: 35b1 a1bd 9a33 9bbc b31e 92bd b213 843d
00000320: 24fb 8dbd 107c 823d 9221 953c 7492 74bd
00000330: 8583 913d 81c8 e13c 4277 dabb 6c9a 863d
00000340: 25f8 8bbd f466 783d 3b88 edbb 3c18 913b
00000350: eb7c f83c 9639 0bbd 215c 8fba 7ea9 793d
00000360: 4aa4 0d3d a149 243d 257d 903d b46e 5bbd
00000370: ef91 78bc de2e 943d b5d5 f0bc d915 c13c
00000380: 7db7 063d 0657 9abd 88a5 8f3a 7e08 9d3d
00000390: a975 65bc 3f17 a6bd cad3 9abd 881b 4f3c
000003a0: 5700 9cbc 4472 62bd 1c0d 8a3d 32f3 3fbd
000003b0: 69dd 5ebd fbdb 7d3d 4b0d 813d 7d76 f43c
000003c0: 91be a93d b7cd 093b da09 7f3d a2e7 41bd
000003d0: 17b8 87bd 4509 183c 4d12 63bd c24d 19bb
000003e0: db84 08bc 872f 513c f90f 97bc 760e aebb
000003f0: 8647 9abd 12ab eebc 961c 1c3d 2dbd 933d
0.06334741 -0.07432179 -0.011149544 -0.02816908 0.060831968 -0.062319636 -0.01563412 -0.03310349
0.062475182 0.06517446 0.0017131293 0.03332836 0.08505205 -0.07001254 0.0015595816 0.07658117
-0.021694982 -0.061441846 0.07349744 0.0797196 0.049913086 0.062376775 -0.007459013 -0.05759644
-0.07338652 0.034479313 -0.023629367 0.08079577 0.009266199 0.055461816 0.0053493255 -0.019069586
-0.0319075 -0.06946382 -0.07941089 -0.016984299 -0.06997345 -0.08292084 0.041363858 -0.036486425
0.001993084 -0.019388089 -0.062481843 -0.024546886 -0.053291604 0.014959826 0.07795031 -0.018620078
0.0126748085 0.04736097 0.036204085 0.0070922505 -0.028465929 -0.016240591 -0.011268193 0.08290066
0.011747605 0.06272137 0.047318827 0.06837175 0.014355603 0.010521973 -0.01604174 0.053036608
0.061680693 0.06449002 -0.073678665 0.005893616 -0.050787225 -0.054785788 -0.072428405 -0.031647414
0.07418075 0.046463534 -0.057358317 -0.016996333 0.036501992 0.048686486 0.06007817 -0.043648295
-0.03348839 0.04490699 0.019066194 -0.042355075 -0.062840946 0.0028026525 0.07051644 -0.03285692
-0.011504453 0.03888079 -0.06265479 -0.03357986 0.011379215 -0.03787667 0.06489759 -0.01175249
0.035019316 -0.0156115 -0.009576075 0.07701561 -0.06607248 -0.05773811 -0.030845102 0.016858868
-0.023248063 0.026079154 -0.038286574 0.030789124 -0.077398494 0.003143382 0.043206718 0.014054272
-0.036531415 -0.030816028 0.01807059 -0.057266966 -0.06444388 -0.00097516115 -0.07071502 0.01860101
-0.048551362 0.045847274 0.04840742 0.06703899 -0.045435034 0.009916302 0.07702465 -0.01892347
0.029624838 0.045010168 0.002877477 -0.02669364 0.023512864 0.022646004 -0.06415944 -0.03027183
-0.06987603 -0.07015367 0.061074473 0.058355674 -0.056550287 -0.08048612 -0.067391515 0.03938247
0.06913979 -0.012281791 -0.028692896 -0.06680474 -0.0016592699 0.04603579 0.040028084 -0.033933282
-0.032799885 0.015757816 0.04022321 0.06886928 0.017555784 0.051800363 0.067657985 -0.0007521262
-0.01761696 0.049652208 0.01594523 0.079422444 0.044897627 0.018864222 -0.07096397 0.05704926
-0.029020391 -0.014303852 0.037139244 0.02295569 -0.02257708 -0.004767455 -0.06320414 -0.034832075
-0.020175273 0.0005172748 -0.020905152 0.045897275 -0.0026683582 -0.051058974 0.022769123 -0.026484234
0.05928198 -0.0023661752 0.07185845 0.07195758 0.08212692 0.008898454 0.065150544 -0.0009942693
0.027062349 -0.038791474 -0.064570494 -0.062334962 -0.07895128 -0.018945504 -0.07134762 0.06449069
-0.06932667 0.06371319 0.018204484 -0.05970998 0.071051635 0.027561428 -0.0066670487 0.065724224
-0.06834439 0.06064506 -0.007248906 0.004427938 0.030333003 -0.033990465 -0.0010937491 0.060952656
0.034580506 0.04010928 0.070551194 -0.05357237 -0.015171512 0.07235502 -0.029398778 0.023569988
0.03288983 -0.0753613 0.0010959366 0.076676354 -0.014005103 -0.081099026 -0.07559927 0.012640841
-0.01904313 -0.055284753 0.06740782 -0.04686279 -0.054410372 0.061977368 0.063013636 0.029841656
0.08288301 0.0021027157 0.062265255 -0.047340043 -0.06626909 0.009279554 -0.055437375 -0.0023392295
-0.008332456 0.012767679 -0.018440234 -0.0053117825 -0.07533173 -0.029134307 0.0381132 0.07213817

lstm.weight_hh_l0 f4 [512, 128]
00000000: 9d32 de3c 6ece 943d 7f20 da3c a921 af3c
00000010: 5c28 85bd ba35 033c 84d4 193d 561b 763b
00000020: 8dfe a6bd 0803 56bd b151 a3bd 5d9a 603c
00000030: 2656 db3c 2249 2d3d c33a 533d 9699 63bd
00000040: c646 d03c 7fa8 a53d 0b65 11bd 9681 a9bd
00000050: 3c62 c0bc 50a4 12bd 852d 7e3d 14d3 803d
00000060: 1986 9e3d 6088 683d 5d55 a43b 3650 33bd
00000070: 0c7b 703c 50db 7ebc 8c0c 17bd 7750 8fbd
00000080: 83c4 903d 2272 9bbd 1c95 b8bc a84d bb3c
00000090: 5c87 46bd e4fc adbc 261a 8ebd 1bcd 9a3c
000000a0: 16b6 9a3d c0e3 de3c 52fc 33bc feeb 723d
000000b0: e295 893d 4695 8e3d 1c01 f6bc 8d74 ed3c
000000c0: e157 a73c 331c 973c 8248 793d a134 0bbd
000000d0: 6fa2 6bbd f2d5 0b3d 3af6 983c f8ce 27bd
000000e0: 779e 583d 0d27 0dbc c1e2 983d de0a 88bd
000000f0: dc34 11bd 53d0 1b3d e3dc 3abd e279 13bb
00000100: 34b2 93bc b418 6b3d 3cc0 99bd 8627 6fbd
00000110: d386 8bbd 27b3 3d3c a434 76bb ab75 17bd
00000120: f9ee 79bd 59ba 313d 523c 62bd ffd8 5bbd
00000130: 46a7 44bc 1bae a8bd 25db d8bc 62f2 243c
00000140: 9b9f 3a3d fa88 bb3a 573f a13d e535 7bbc
00000150: c9b9 033d 57df 58bd 295b 2bbc 2996 883d
00000160: 3c37 643d fe75 04bc a186 29bd 4193 e1bc
00000170: a6e7 88bd 9541 263d b5d4 9e3d 4d21 2fbc
00000180: 48f8 45bd fd6b a93d 72fc 01bd 1127 86bc
00000190: 8913 65bd 4a6f 8a3d 2b66 653c 8887 a9bd
000001a0: 9e00 a03d 6e1d 4e3d c10a f83c e5b2 a73d
000001b0: 3b95 913c fdbf 24bd 393d 04bd 86dc 2e3d
000001c0: a4c1 3bbd d4c6 5e3d c96b 3ebd cbe7 8a3d
000001d0: dac0 86bc 194f 813d 140b 3ebd 2f3e c53c
000001e0: a88a 723d 771c 9d3c 36ea 2cbc 87a6 4dbd
000001f0: 9dc2 1dbd 4154 033d 24ed 8b3d 6483 3ebd
00000200: ec6f 25bd f909 51bd 2c97 b53b 0e86 12bd
00000210: 1c07 ec3c 2340 00bd ce38 b4bc d2c9 973d
00000220: db96 2cbd 77ce 92bd 38e5 3a3c b080 80bd
00000230: 1c42 d3bc e4be 86bd b87a 72bd 6187 f33b
00000240: 2f5e 1a3d bc7b acbc 99d0 a3bd 35af 8abd
00000250: 9d31 b3bb 026d 293d 412b a6bc b120 103d
00000260: fc87 8a3c bb25 953d 3007 163d 26a7 573c
00000270: b3e4 31bd b387 f9bb 6432 8d3d 8f16 fb3c
00000280: d2f9 60bd ecfe 873d da6a 373d 0f18 3bbd
00000290: d28b c83b 23a9 ea3c 208f 0c3d e377 44bc
000002a0: 10ac 37bb f9bc 4b3d d69f 503a 51d8 20bd
000002b0: 009b 7c3d 6d1d 743d cd88 0bbd f566 9abd
000002c0: 12e1 23bd 364f 76bd 46ab 5abc c799 94bd
000002d0: 3b72 7cbd c5ec d33c 4e0b 1abc c93c 30bc
000002e0: 714d 4e3c 79e7 d43c caaa 743d a876 2cbc
000002f0: 9324 93bb 8569 9ebd 0c82 a3bd 28e2 66bd
00000300: 4b16 353d a0cf 2a3d 723f ee3c 8532 373d
00000310: adf4 4fbc 9017 65bd eb9b 733d 71e0 9cbc
00000320: 16d1 6cbc e59f 54bd cb3b 683d 7663 813d
00000330: cb7d 23bd 6de1 913d fe41 5a3d 549e bf3c
00000340: 26e0 22bd d2de 63bd f8d0 413c f1d5 153d
00000350: c11d 5ebd 367a 803d 6b6e 523d f750 ba3a
00000360: 82d0 a9bd 494e 84bd 81b2 703d f12e 023c
00000370: 44e0 5cbc 57e8 5abd 0448 1ebd fc53 8d3d
00000380: 527f 223d d998 e23b cd6b 813d a320 46bd
00000390: a0c4 e5bc 44de f23c 5d07 81bd 3dcf 953d
000003a0: 70a2 5c3d 1bc0 5e3c 3fb7 86bd 799e 7d3d
000003b0: ba6a f4bc 1faa 59bc 7680 8d3d 4fcb 94bc
000003c0: 10c6 a13d c3dc 0abc bc17 4cbd 06bc 99bc
000003d0: 0e88 9ebd 0db7 503d 2c63 213d 3e63 733c
000003e0: 807b 94bd eaa5 d93c 7cde 413d 0073 923d
000003f0: 5a04 0ebd 11bb 083d 1996 1d3d e84f 2cbc
0.027123744 0.07265936 0.026626823 0.021378355 -0.065018386 0.008008415 0.037556186 0.0037552915
-0.081540205 -0.052248985 -0.07974566 0.013708678 0.026774477 0.042306073 0.05156971 -0.055566393
0.025424372 0.08088779 -0.035496753 -0.0827667 -0.023484342 -0.03580123 0.06205513 0.0629026
0.07740421 0.056770682 0.005015059 -0.043777667 0.014677774 -0.015555218 -0.0368772 -0.06997769
0.07068732 -0.075901285 -0.022532038 0.022864178 -0.048468933 -0.021238752 -0.06938581 0.01889663
0.075542614 0.027208209 -0.010985451 0.05930709 0.06718041 0.069620654 -0.030029826 0.02898624
0.020427646 0.018446064 0.060860164 -0.033985738 -0.057527956 0.03413958 0.018672097 -0.040968865
0.0528855 -0.008615267 0.07465125 -0.06642698 -0.0354508 0.03804047 -0.04562081 -0.0022503068
-0.01802931 0.057396606 -0.07507369 -0.0583873 -0.06812825 0.011578358 -0.0037567997 -0.03697745
-0.061018918 0.043390606 -0.055233307 -0.05367374 -0.012002772 -0.08236333 -0.026471684 0.010067554
0.045562368 0.001430779 0.07873409 -0.015332674 0.0321596 -0.05294737 -0.010458746 0.06669266
0.055716738 -0.008084772 -0.041388158 -0.027536036 -0.066848084 0.040589888 0.077554144 -0.010689092
-0.048332483 0.0827255 -0.03173489 -0.01637605 -0.055926833 0.06759508 0.0140014095 -0.08277804
0.07812618 0.050321035 0.030278565 0.08188418 0.017771354 -0.040222157 -0.03228495 0.042690776
-0.045838967 0.054388836 -0.04648951 0.06782492 -0.01644938 0.06313915 -0.046397284 0.024077503
0.059214264 0.019178612 -0.010553887 -0.05020764 -0.038515676 0.032062773 0.0683234 -0.046512023
-0.04038994 -0.0510349 0.0055417027 -0.035772376 0.028811984 -0.031311166 -0.021999743 0.07411541
-0.042136054 -0.07168286 0.011407189 -0.06274545 -0.02578836 -0.06579378 -0.059199065 0.00743191
0.037687477 -0.021055095 -0.07998771 -0.06771699 -0.005468561 0.041363724 -0.020284297 0.035187427
0.016910546 0.07282587 0.03662795 0.01316241 -0.043430995 -0.0076150536 0.06894377 0.030650405
-0.054925747 0.06640419 0.044779636 -0.04567724 0.0061201835 0.028645104 0.034316182 -0.011991474
-0.0028026141 0.049740765 0.0007958388 -0.039268795 0.061671257 0.059598375 -0.03406601 -0.07539169
-0.040009566 -0.060134135 -0.013346499 -0.07255893 -0.061632376 0.025869736 -0.009402109 -0.01075668
0.012591706 0.025989281 0.05973319 -0.010526337 -0.004490444 -0.0773497 -0.07983789 -0.056368023
0.044210713 0.041701913 0.029082987 0.044725914 -0.012692613 -0.055930674 0.059474867 -0.01914999
-0.014454147 -0.0519103 0.056697648 0.06317799 -0.039914887 0.07123075 0.05328559 0.023390926
-0.039764546 -0.05563242 0.011829607 0.036580984 -0.054227594 0.0627331 0.051374834 0.0014214803
-0.08291723 -0.06460244 0.058763985 0.007945762 -0.0134812035 -0.053444233 -0.0386429 0.069007844
0.039672203 0.0069151935 0.063193895 -0.04837097 -0.02804786 0.029647 -0.063002326 0.07314918
0.05386585 0.013595606 -0.0657792 0.06191871 -0.029836047 -0.013285189 0.069092676 -0.018163351
0.078991055 -0.008475485 -0.049827322 -0.018766414 -0.07740794 0.05095582 0.03940122 0.014855204
-0.07250118 0.026568372 0.04733132 0.07150841 -0.03467212 0.033381525 0.038473222 -0.010517098

lstm.bias_ih_l0 f4 [512]
00000000: 93fb d5bb add5 303c d9b5 9b3c 8836 2dbd
00000010: 5f6d 20bd 2c67 2bbd 4aa7 8cbd dd4d 10bd
00000020: 49bc 973d e17e 57bd 2167 9f3a f1dd 863d
00000030: 2081 963c cc80 9e3d 22fa 99bd 3a3d 10bb
00000040: 2319 da3c 5e04 b83d 5682 89bb c301 84bd
00000050: a2b8 1bbc 26ba efba 1d32 43bd b190 8e3c
00000060: 207c 03bd 43bb 87bd 0128 1bbd 4cb3 6dbc
00000070: 14f8 3cbd 8a6d 383d 0353 35bd b956 d83c
00000080: 1a2f 82bd cce4 943c ef11 9abd 1fad ec3c
00000090: dfe1 d1bc 2ff4 d9bc a0b0 37bb fe56 80bd
000000a0: 8b6d 3d3d 95e9 913c a18a ab3c 1c73 c63c
000000b0: 4803 8c3c df40 f6bc 9832 16bd be4b b6bc
000000c0: d214 893c 12fb 60bd 2bc8 8cba 8033 703d
000000d0: 6e78 a13b b653 883d 2829 403d 5c89 90bd
000000e0: 4acc 8abd 8740 a63d 674e 1d3d 97ad 96bd
000000f0: 56b4 823c 06e2 143d f16a 013d 6422 c93c
00000100: ae2e db3c 8446 4ebd a9a0 203d 26bc 8a3c
00000110: 6697 8bbd c80e 3cbd 03ee 663d 9e02 efba
00000120: 29fe ac3d 7857 343d 69c3 16bd 50c6 9c3b
00000130: 6c18 99bd 95eb 2fbd e848 9fbd 339b 87bd
00000140: 1080 863b 9fa7 61bd a6ee 98bd 5a4b 7ebd
00000150: f59f 8ebd 0221 f73c fc3e 04bd 26bc ad3c
00000160: 092a ddbc 5fbc dabc d193 88bb 7f81 6bbc
00000170: 17ec 483d 051a 21bd e47d 113d f990 44bd
00000180: 2fdc 9ebc 1d8a a1bc 3bc5 4d3c 0ceb 1f3d
00000190: 31d8 0f3d b042 cebb 5bb6 633d de82 54bb
000001a0: f7bf 3fbd acbd 863d fc80 223d 0a31 903c
000001b0: 3e9f b23c f0d1 763d fba1 e2bb 4520 c33c
000001c0: 5fab 533c 9c52 8dbd 820e 67bd c928 a7bd
000001d0: d5bf 21bc 5999 63bd dedc 96bd 060a 4cbd
000001e0: ddb9 8abd 1acb b63c 9f39 0abc 7761 023d
000001f0: ef65 183d 06cc e43a f50c babc 4a80 32bd
00000200: d1dc 963d 1012 a0bd adfd 09bd 84f4 8b3d
00000210: 1592 913c f84e 973d b71f 98bd 8e71 1cbd
00000220: daa1 103d 7d60 a6bd c7a5 a93d cafb 153c
00000230: 7eea 513c b2ab c3bc 762f 4b3d efb8 bb3b
00000240: 933f 81bd d9e6 4c3d 9d39 a33d 2ddb 943d
00000250: ee78 133d 111c 94bd df93 303d 547d 0b3d
00000260: 7269 a3bd 022c e6bc 7551 9ebd 253d 0cbd
00000270: 7ee3 e2bc cb1f 5abd b13c 043d 27dc e7bc
00000280: 7a10 8cbd 4b64 6cbd 4121 e2bc 520a e83c
00000290: d0bd e2bb 5c51 303c b169 283d 5e9d 953d
000002a0: 71cb 29bd 3798 aa3d 7367 b53d ed57 643d
000002b0: 4ef7 593d 9eda 293d 2f12 9cbd 1bf2 7f3d
000002c0: 626b b339 db8b b13c 0438 34bd f491 82bd
000002d0: bc7e 6cbd 60fb b0bc 0fc6 8c3d 069e 22bd
000002e0: fa71 6abc b525 113c 1618 60bd 315d 4abd
000002f0: 1121 c43c 3607 823d 8d2c a4bd 29ac 9ebc
00000300: 2214 62bc d50e 28bc e512 983d 64fb 153c
00000310: 71c4 f6bc d4c1 ecbb 1c96 0cbc 51ce a0bd
00000320: 37b1 a8bb 2aa3 8a3c 4741 603c c336 563c
00000330: 1e67 82bd 2f19 42bc 0e68 833b 1987 23bd
00000340: 1ddf e0bc 3093 1e3d f27f 683d d298 5dbd
00000350: 6577 fbbb 146b 18bd d00b a9bd a581 7cbd
00000360: 0c88 253d 9354 25bd 24d5 373d 1d79 2ebd
00000370: f8a1 34bd af01 893b 9279 403d 4a8e 913d
00000380: d832 9a3d b981 32bc d3e9 3c3d 05aa a6bd
00000390: d2ff 12bb c8ee 283c c5e4 0e3c 14f3 ff3c
000003a0: 80ad 3a3d 821a 813d 0fa9 77bb 9d95 2abd
000003b0: 9b7c 2fbd 0442 40bc a601 4a3d 07a6 003d
000003c0: 158b 6ebd 3c39 3a3d 5ef8 2f3d 9eff 91bd
000003d0: d5f2 2e3c 1e79 3ebd 857f 8ebd 8a61 a93c
000003e0: 5d76 efbc e28e 943d 5cf9 18bd 7a52 ab3c
000003f0: 7511 58bc 36b6 5abd c8c1 3dbc 4c5c d93c
-0.006530234 0.010793132 0.01900761 -0.042288333 -0.039166804 -0.04184644 -0.06867845 -0.035230506
0.074089594 -0.052611236 0.0012161472 0.06585301 0.018372118 0.0773941 -0.07518412 -0.002200915
0.026623314 0.08985208 -0.0041964455 -0.064456485 -0.009504469 -0.001828973 -0.047655214 0.017402979
-0.032100797 -0.06627514 -0.037879948 -0.01450808 -0.046135023 0.04502634 -0.04426862 0.02640854
-0.0635664 0.018175505 -0.07522952 0.028891144 -0.025620399 -0.026605694 -0.002802886 -0.062665924
0.046247046 0.017811576 0.020940127 0.02422481 0.017091408 -0.03006023 -0.036669344 -0.022252914
0.01673356 -0.05492694 -0.0010740807 0.058642864 0.0049276864 0.066565916 0.04691425 -0.07057449
-0.06777246 0.08117776 0.03840485 -0.073573284 0.015955132 0.036348365 0.031596128 0.024552532
0.026755657 -0.050360218 0.039215717 0.01693542 -0.06815986 -0.045912534 0.05637933 -0.0018235033
0.08446915 0.04402873 -0.03680745 0.004784383 -0.07475361 -0.042949278 -0.07777578 -0.06621399
0.0041046217 -0.055091497 -0.074673936 -0.06208358 -0.06964103 0.030167107 -0.03228663 0.02120788
-0.026997583 -0.02670115 -0.0041680117 -0.014374136 0.049053278 -0.039331455 0.03552045 -0.04798982
-0.019392101 -0.019719178 0.01255923 0.039042518 0.035118286 -0.006294571 0.05559383 -0.0032426636
-0.04681393 0.06579146 0.03967379 0.017601509 0.021804448 0.060258806 -0.0069162822 0.023819098
0.012919276 -0.06900522 -0.05641032 -0.08162076 -0.0098723965 -0.055566166 -0.07366346 -0.049814247
-0.06773732 0.022313643 -0.0084365895 0.03183123 0.037206586 0.0017455823 -0.022711257 -0.043579377
0.07366336 -0.07815945 -0.03368919 0.06833747 0.017769853 0.07388109 -0.07427924 -0.03819423
0.035310604 -0.081238724 0.08283573 0.0091542695 0.012812255 -0.023885582 0.04960581 0.005728833
-0.06310954 0.05002484 0.07969973 0.07268367 0.036004 -0.07231916 0.04310977 0.03405507
-0.079790965 -0.028097156 -0.077303804 -0.034238 -0.027696367 -0.053252976 0.032284442 -0.028303219
-0.0683908 -0.057712834 -0.027603747 0.028325234 -0.0069196 0.010761585 0.04111642 0.07305406
-0.041453782 0.08329814 0.08857622 0.055747915 0.053214364 0.041468255 -0.07620656 0.06248675
0.00034221547 0.021673134 -0.043998733 -0.063754946 -0.05773805 -0.02160424 0.06873714 -0.039701484
-0.014309401 0.008859088 -0.05471047 -0.04940528 0.023941549 0.063490316 -0.0801631 -0.019369202
-0.013798745 -0.0102574425 0.07425479 0.0091541745 -0.030122967 -0.0072252546 -0.008580711 -0.07851852
-0.005148079 0.016923506 0.013687438 0.01307458 -0.06367324 -0.011846825 0.004010207 -0.03992376
-0.027450139 0.038714588 0.056762643 -0.05410082 -0.007674145 -0.037211493 -0.08254206 -0.061647076
0.040412948 -0.04036386 0.044881 -0.04259597 -0.044099778 0.004181109 0.04699094 0.071072176
0.07529229 -0.010895186 0.04612143 -0.081378974 -0.0022430313 0.010310836 0.008721535 0.031243838
0.04557562 0.06303884 -0.0037789976 -0.04164659 -0.042843442 -0.011734489 0.04931798 0.031408336
-0.058238108 0.04546474 0.04296147 -0.07128833 0.010678013 -0.046502225 -0.06957916 0.020676393
-0.029231245 0.07253815 -0.037347183 0.020913351 -0.013187756 -0.053396426 -0.011581846 0.026533268

lstm.bias_hh_l0 f4 [512]
00000000: 659c 843d ffbc 9a3d 5c59 2f3c d6d7 14bc
00000010: 77a4 293d 2834 7a3d 20fa 9e3d 33f8 8b3d
00000020: f5ee 0ebd cde4 0abb f081 423d 9c89 34bc
00000030: 2ba6 c13d 785d a63d b91f 023d b329 53bd
00000040: 8ce9 e7bc 49fa 433d 7b65 15bd 7efa 8abd
00000050: 226c 63bc 047d 81bd 4f94 93bd 7eee 8a3d
00000060: 78b7 1abd 1a67 39bd ef4b 68bd 95b3 903d
00000070: 2d16 85bc bad5 2cbd c0a2 ce3b 47bb 5fbd
00000080: 13c6 ca3b 56fc 40bd b521 73ba 1a98 523d
00000090: d2a2 923d b7f2 933d 52c9 a03d 5861 46bd
000000a0: f0f0 24bd f455 313d 1e51 273d 3c4b 403d
000000b0: 0976 473d 81f5 b93c 8533 a33d f307 3fbd
000000c0: 2367 25bd 5e6f ac3d df1d 46bc 30bf 973d
000000d0: f817 debc bca0 923a 1d0c c9bc 563b 933d
000000e0: c7d8 143d b2c8 653c 7b3a ae3c 61ac bf3c
000000f0: 74fc a2bd a5be 61bd e8bf fdbc 9fd4 983c
00000100: e310 a33d 7f59 2cbd 3b81 ae3c 5fde 9b3c
00000110: bc65 8cbc 22da afbb 07c0 85bd 2eda 8c3d
00000120: d704 25bc 2755 d4bc 17aa 8a3c 57e7 3abd
00000130: 7115 58bd 5f80 98bc a062 1c3d 5109 46bd
00000140: 0993 703c a6c3 e3bb 0b3e 4d3d 609b 4bbb
00000150: 86ac 2ebc 3a69 853d d488 9dbd b5e3 56bc
00000160: 1fdf 303d ea83 8fbd e2f4 803d 8c9a a63d
00000170: f153 8f3c c0bb 05bd e25f 043d 88a8 81bc
00000180: 9119 58bc a504 0bbd ed6f 60bd 3c34 2f3d
00000190: d4f5 843d d9c3 cf3c 2a4d b03d 5c61 b6bb
000001a0: 1e4a 94bd 0550 2bbd ab10 663d 44d5 943c
000001b0: de90 353d 2151 5cbd 6aad 94bd ea45 74bd
000001c0: 1ceb 22bd 86e6 9f3d c905 8e3d c29e ecbc
000001d0: 8244 443d 190d a63d 3a90 633d 691b 253d
000001e0: 267b f43b c079 d1bc 791e 433c 9e4e e03c
000001f0: eb25 a93d 3a04 a13d 5e79 e43c 2ecc 973c
00000200: 502a 203d 2e84 4a3c 37ab aa3b abdb 6d3d
00000210: d90d 693a d611 673d 8439 893d f39f 5d3c
00000220: e899 8dbb 69f0 123d 0946 47bd cbdd d5bc
00000230: aa75 2bbd eeaa 1e3d a13d adbc 35f4 613c
00000240: d237 11bc 3360 ebba 5bfd b83c 687d 973d
00000250: fcbd dbbc 43f0 7d3d 4829 67bd fcba a73d
00000260: 67b1 88bd 800d 4fbd 1669 7abd bab4 183d
00000270: 2ea8 81bd 4900 05bd 6a17 4abd 5e19 a4ba
00000280: 3b10 773d 087a a83d 21d5 2c3c d024 813d
00000290: 1aac 85bd d2ff f23c 705c 2d3d e128 7dbd
000002a0: 7cb0 acbc 8b79 223d bc94 f8bc 8370 cfbb
000002b0: b299 b23b dc84 823d e0c5 9a3d ce4c 053d
000002c0: d47a 4dbc 7f71 78bd 365a a53b 340c d13c
000002d0: de43 1abd 7d49 303c 1acd 4d3d 1580 72bd
000002e0: 1129 9a3d ccf9 163d 813b 97bb bbc7 91bc
000002f0: 561f ea3c f29c 80bd 57a8 db3b b22b 15bd
00000300: 7c9a 49bd 1d11 223d 8df8 513d 4ff5 8a3d
00000310: 6ec7 ef3c 140f 08bd e81e 7abd 0bf4 9e3d
00000320: e190 0dbd 7335 a63d 9b17 013d 68ef 07bc
00000330: e9e7 73bd 0195 eebb 8149 7a3d f7b5 1dbd
00000340: b6a6 643d fa47 1cbd cb15 97bd a59e 6c3d
00000350: 4e10 fe3c d451 febc acd5 463d 6507 6f3d
00000360: 1cdf 093d e11d 923d 5f95 8b3d 3062 93bd
00000370: 6f66 a5bd f2a4 673d 12a9 9cbd fe65 01bc
00000380: 1983 12bd 689f 7ebc 565b c7bc edca a1bd
00000390: 2a4a 023d 58b4 4b3d d5b9 303d 5268 903d
000003a0: ea04 88bd 24f9 693d dac9 39bd dfae f03c
000003b0: 3752 613b ba36 5abb 3ec3 28bd e521 4abd
000003c0: 1784 0e3c 283e fc3c 910c 5b3d 59bc 14bd
000003d0: b05e 3bb8 9f77 81bd a2d8 3a3d de60 34bd
000003e0: b53d 0d3d ccc9 53bb 6c5b 2d3c 2afc 7a3c
000003f0: 8507 b13d 80d6 9bbd d7ad 8f3d 68ac 20bd
0.064751424 0.075555794 0.010702457 -0.009084662 0.04141661 0.061084896 0.07762551 0.068344496
-0.034895856 -0.0021193505 0.0474872 -0.011019137 0.09455522 0.081232965 0.031768534 -0.05155344
-0.028309606 0.047846112 -0.036473732 -0.06786059 -0.013880761 -0.06322673 -0.07206022 0.0678377
-0.037772626 -0.04526434 -0.05671304 0.070655026 -0.016245926 -0.042196013 0.0063060224 -0.05462196
0.006188163 -0.047115646 -0.0009274737 0.051414587 0.07159962 0.072240286 0.07850899 -0.048432678
-0.04026884 0.043294862 0.040848844 0.04694675 0.04869655 0.022700073 0.07968811 -0.04663844
-0.040381562 0.08419679 -0.012092083 0.07409513 -0.027111039 0.0011186819 -0.024541909 0.07189052
0.036339547 0.0140249 0.02126812 0.023397626 -0.07958308 -0.055113453 -0.030975297 0.018656073
0.07962205 -0.042077538 0.021301856 0.019026933 -0.017138354 -0.0053665796 -0.06530767 0.06877552
-0.010071955 -0.02591951 0.016926808 -0.04563078 -0.052754823 -0.0186159 0.038179994 -0.04834873
0.014683493 -0.0069508133 0.050107997 -0.0031067953 -0.01066125 0.06514211 -0.076921135 -0.013115813
0.043181535 -0.070075825 0.06296708 0.08134946 0.017496081 -0.032649755 0.032318003 -0.015827432
-0.013189689 -0.033939976 -0.05479424 0.042774424 0.064922005 0.025361942 0.08608468 -0.0055658054
-0.07240699 -0.04182436 0.05616824 0.0181681 0.04432761 -0.053788308 -0.072596386 -0.059636988
-0.039775 0.07807641 0.06934697 -0.028884295 0.047916897 0.08107967 0.055557467 0.040309343
0.0074609695 -0.02557075 0.011909121 0.027381238 0.082591854 0.07862134 0.027889904 0.018529978
0.039102852 0.012360616 0.0052083987 0.05807082 0.0008890308 0.056413494 0.06700423 0.013526904
-0.0043213256 0.035873804 -0.048650775 -0.026106736 -0.04186026 0.03873723 -0.021147551 0.013791134
-0.008863406 -0.0017957747 0.022581747 0.07396966 -0.02682399 0.06199671 -0.056435853 0.08189961
-0.06674462 -0.050549984 -0.061135374 0.03728173 -0.06330906 -0.032470975 -0.049338736 -0.0012519767
0.060318213 0.082264006 0.010548861 0.063058496 -0.065269664 0.029663 0.042324483 -0.061806563
-0.021080248 0.039666694 -0.03034436 -0.006330551 0.005450451 0.06372997 0.07557273 0.03254395
-0.012541492 -0.060655113 0.0050461544 0.025518514 -0.03766238 0.0107597085 0.05024443 -0.05920418
0.07527364 0.03685932 -0.0046152477 -0.017795434 0.028579395 -0.06279935 0.0067034173 -0.036418624
-0.049219593 0.0395671 0.051262427 0.0678507 0.0292699 -0.033217505 -0.06106463 0.07761391
-0.034561995 0.081156634 0.031516653 -0.008296825 -0.05954734 -0.0072809462 0.061105255 -0.038503613
0.05582305 -0.03815458 -0.073772036 0.057768483 0.031013634 -0.031044878 0.048543617 0.05835666
0.03366004 0.07134605 0.068156 -0.07196462 -0.08076178 0.05655379 -0.07649435 -0.007897852
-0.035769556 -0.015540935 -0.024335545 -0.07900033 0.03180901 0.049732536 0.043145973 0.070511475
-0.06641562 0.057122365 -0.045358516 0.02938026 0.003438128 -0.003329678 -0.041201822 -0.04934873
0.008698485 0.030791357 0.05347878 -0.036312435 -4.467246e-05 -0.06321644 0.045616753 -0.044037692
0.034482677 -0.0032316325 0.010580879 0.01531891 0.08644012 -0.07609272 0.07015579 -0.03922692

output_net.weight f4 [2, 128]
00000000: d0f3 abbd e775 de3d b4b3 2c3c e2f0 88bc
00000010: 3f1d e43d fba3 b5bd 2906 d23c e104 01bd
00000020: f452 1ebe fc67 8d3d 1c05 a5bd b0a4 6abd
00000030: a325 543e 31c1 5dbb f77d ad3c a3a9 823d
00000040: af70 083d 852a 333e c4dc 00be cce1 61bb
00000050: 5c77 60ba 54f1 b4bd 32d0 eb3d a8b5 29be
00000060: eb1c b2bc ccfc c03c 3d30 7bbc 403f 8fbd
00000070: 159d 25bd eb2b bb3d 063e 90bd ed7c 17bd
00000080: 2548 39bd 5b69 153e 4aca 0e3e 1e71 933d
00000090: 65b3 d03d 09c0 233e fdbd 873d 1ef0 a3bc
000000a0: 03f4 04be fa2f ae3d eef4 2bbe 3f07 e6bc
000000b0: 394a 513d 326e 46bc 0a02 f1bb 14d4 e4bd
000000c0: 1702 9abc 18aa d8bd 7180 87bd c28e 8c3d
000000d0: eeb5 4a3d 5735 ae3b a410 92bd 4e89 a73d
000000e0: 8c7a 5cbd 8eda eb3c e174 9cbd 5d76 bf3d
000000f0: d5f0 a6bc 4460 5a3d 8244 27bc de1d 633c
00000100: 35ae 023e bde2 e53d 3336 843d 1868 6c3c
00000110: e942 a8bd 0ea1 a03c 088a 6a3d 6008 a63d
00000120: 13f8 cc3d 1918 713d efcc a93d fce1 e8bc
00000130: 77ac bbbc 139b c3bd 7d17 7f3d 3c6a dd3c
00000140: dbeb efbd 9f6a 4e3d 5293 9a3d 8262 a9bd
00000150: 6b5e f73c 9651 e63d b65c 1b3d 7b87 3f3d
00000160: 4044 77bc 5974 d63d 4d7e 253d ac4d 89bd
00000170: a7c9 7fbb efa2 e0bd 3392 47bd e85a d5bd
00000180: 2f43 9c3d cb45 573e b1c1 cd3b 3b4d 033d
00000190: 4d31 98bd 2e3c 843d 7aa4 983d 1c27 26be
000001a0: e8e8 ddbc d9b4 90bd 4d8d eabc 33ce e6bd
000001b0: 557d d83d 5755 a2bd 3ff7 64bd c7eb ad3b
000001c0: e902 d13d a731 713d f13b 9dbd 866f 423c
000001d0: 6c49 abbd 54e2 e83d 3c2a be3c 6283 f5bd
000001e0: 5a7a be3d aec9 a9bd 42d1 fd3d 659b 2b3d
000001f0: ce41 ef3d 8069 4dbd db0d 49be a07a 6a3d
00000200: 4a5c bd3d 399c 8cbd 08ba cb3d a116 183b
00000210: 396b 71bc 6862 563d d6e7 b0bd ae7a 24bd
00000220: 4d5c 583e 58d1 a53c e6dd 47bd 131a 603d
00000230: 2bfb 33be 6eb2 4f3d 8a82 babd d60f c1ba
00000240: 2d16 a23d 83e7 35be 0723 793d 7da2 52bd
00000250: deba 39bd 7abd e43c fb48 09bc 6e82 3a3e
00000260: 796e 8b3d 7cc9 e3bd 676d 8b3d 69c0 043e
00000270: 4eac 363c 9b7f 0abd 27f6 c93d eeea 27bd
00000280: 4b1c 47bd bc00 24be 8d28 42bd 36b4 b6bd
00000290: f780 3fbe 22a0 adbd 68ed 98bc 508a 93bd
000002a0: 89dd 073e d07f 22bc cc8a 383e 2dc4 f73c
000002b0: 94bb 773c ab40 fd3d a5a3 19bd 9f51 3f3e
000002c0: f53c 26bd 1028 bfba cc57 02bd ec5c 0ebe
000002d0: ad80 2abe 9aa4 a53c db18 12bc 0102 02be
000002e0: 51cc 11bd 2e5c c5bd 5638 1e3c c386 49bd
000002f0: 2b24 fbbd d566 8c3d 6c2a 7bbd 5bfd 973d
00000300: f03b 2bbe 62c2 f3bd 3792 f0bd 0e11 c6bc
00000310: d524 0c3d a196 59bd d534 03bd 586a 06bb
00000320: e90f dabd b9f6 863c 1993 16be d825 a03c
00000330: 86bc cc3c a0b9 063e 14bc 83bc fbee 49bd
00000340: c1b9 0d3e fd53 7f3d 0ef9 963c 3231 563d
00000350: 605f b5bd ac74 31bd fbb1 96bc 9b30 03bc
00000360: bd79 2dbd 02e7 ffbd 8fd4 54bd 4f1d 5cbd
00000370: f39d a8bd 7619 0d3e 9ede acbd 0dfd 433e
00000380: 8a0a c4bd 1fb0 16be 7ab7 c03d af87 f23c
00000390: a60a 0abd 5933 debd 3f04 97bd fe7b 093e
000003a0: d874 aebd cde9 273e a65a 013c 9ea5 0a3e
000003b0: 3657 25be b998 ce3d c15b 3ebd 7d6f 20bd
000003c0: c356 10be d791 c5bd 3aa2 3a3d b02e 9a3d
000003d0: 2681 623c 161c 39be 6047 113d f443 273e
000003e0: 613a debc dd37 f33d 0898 efbd 9392 a6bd
000003f0: 89b1 d2bd 899a ecbb 4112 463e a6a5 813d
-0.08396113 0.10862332 0.010540891 -0.016716424 0.11138391 -0.088691674 0.025637703 -0.031498794
-0.15461332 0.06904599 -0.08057615 -0.057285964 0.20717482 -0.0033837075 0.021178229 0.06380012
0.03331059 0.17496689 -0.12584215 -0.003446686 -0.0008562708 -0.08835092 0.115143195 -0.16573203
-0.021742305 0.023558043 -0.015331325 -0.06994486 -0.04043301 0.09139236 -0.0704308 -0.036984373
-0.045234818 0.14590971 0.13944355 0.0719931 0.10190467 0.15991224 0.06628034 -0.020011958
-0.12983708 0.085052446 -0.16792652 -0.028079627 0.051096175 -0.012111234 -0.0073549794 -0.11173263
-0.018799825 -0.10579318 -0.06616295 0.068631664 0.049489908 0.005316417 -0.0713208 0.08180486
-0.053827807 0.028790738 -0.076394804 0.09348748 -0.02037851 0.053314462 -0.010209205 0.013862101
0.12761767 0.112248875 0.0645565 0.014429115 -0.08215887 0.019608047 0.057260543 0.08107066
0.10008254 0.058860872 0.08291041 -0.02842807 -0.022909386 -0.095510624 0.06227826 0.027028196
-0.11714908 0.05039465 0.0754763 -0.08270742 0.03019639 0.1124603 0.037930213 0.046760064
-0.015091956 0.1047141 0.040403653 -0.06704268 -0.0039030106 -0.10968577 -0.04872341 -0.104177296
0.07630002 0.21022718 0.0062791933 0.032056075 -0.074312784 0.06456791 0.074532464 -0.16225857
-0.027088597 -0.07065744 -0.02863183 -0.11269798 0.1057078 -0.079264335 -0.055899855 0.005307648
0.10205633 0.058885243 -0.076774485 0.01186741 -0.083636135 0.11371294 0.023213498 -0.1198795
0.093006805 -0.082904205 0.123934284 0.041896243 0.11682473 -0.05014944 -0.19634192 0.05724585
0.09246118 -0.068657346 0.09947592 0.0023206847 -0.0147350365 0.05233994 -0.08637969 -0.04015606
0.2112896 0.020241424 -0.048795603 0.054712366 -0.17576282 0.050707273 -0.091069296 -0.0014729451
0.07914386 -0.17764096 0.06082442 -0.051424492 -0.045344226 0.02792238 -0.008379216 0.18213817
0.0680818 -0.111224145 0.06807976 0.12964024 0.011149479 -0.0338131 0.09861403 -0.04099553
-0.048610967 -0.16015905 -0.047401953 -0.08921091 -0.1870154 -0.084778085 -0.018667892 -0.072041154
0.13268103 -0.009918168 0.18021697 0.030244911 0.015120406 0.1236585 -0.03750958 0.1868348
-0.040585477 -0.0014584083 -0.03182201 -0.13902634 -0.16650648 0.02022009 -0.008917059 -0.12696077
-0.035595242 -0.096367225 0.009656986 -0.049200784 -0.12262758 0.06855551 -0.061319754 0.074213706
-0.16722083 -0.1190231 -0.11746638 -0.024178054 0.034214813 -0.053122167 -0.032032806 -0.0020510163
-0.10647566 0.016475068 -0.14704551 0.019549295 0.024992239 0.13156748 -0.016080894 -0.049300175
0.1384039 0.062335957 0.018429305 0.05229301 -0.08856082 -0.043324158 -0.018395415 -0.008007194
-0.042352427 -0.12495233 -0.051960524 -0.05373889 -0.082332514 0.13779244 -0.08440898 0.191395
-0.09572323 -0.14715622 0.094099954 0.029605715 -0.03370156 -0.108496375 -0.07373857 0.13426206
-0.0851838 0.16397782 0.007895147 0.1353974 -0.1614655 0.10087723 -0.046474222 -0.039168824
-0.14095597 -0.09646957 0.045564868 0.07528436 0.013824737 -0.1807712 0.03546846 0.16334516
-0.027127447 0.118758895 -0.116989195 -0.081334256 -0.102877684 -0.0072205705 0.19342901 0.06330423

output_net.bias f4 [2]
00000000: b70b febe 4426 f23e
-0.49618313 0.4729482
