pred_training/trained_rnn_models/T3_resnet50/pred_rnn/cosine_True_0.01_0.9mammograms_pred_rnn_0.505_4.pth (torch, 43259 bytes, 10 tensors)

init_net.0.weight f4 [64, 15]
00000000: b612 faba 5dfc 0b3e 51c6 56be 590b 40be
00000010: 5d03 c9bd c1f3 8b3d db72 a5bb cae7 4e3e
00000020: 5343 b9bc 221a 8a3d c7b9 9dbd 022d 4dbd
00000030: a84c 79be c4d2 2cbe f023 d7bd 97cc 1a3c
00000040: 9a25 ce3d cc7c 1c3e dbe8 30be f344 e3bd
00000050: 5690 bd3d ba88 583e a9d3 56bd bb42 433e
00000060: 6d3e 28bd 31e5 dc3c 4447 6c3e 9d13 72be
00000070: 3475 24be ae20 84bd 302a cbbd 1b3b 613e
00000080: 172c 29be be3f f0bd b44f 36be 8465 74be
00000090: 047f 18be 1049 603e 55d7 e83d 28f3 fc3d
000000a0: 1d97 5b3c a1c8 05be 436a 303d c8e8 73be
000000b0: 088e 3cbe 9695 06be 41aa 243e 9903 193e
000000c0: 1176 e7bd e6a6 16bc eae4 263e 66b9 813e
000000d0: 1624 cf3d c902 0d3d 42f7 2e3e 0ca6 19be
000000e0: b781 423d 1651 4abe 08d4 34be 96cd 06be
000000f0: aa0f ec3d d6d2 d13d 9797 1abe 95ab 9d3d
00000100: 4741 0f3e 0ebf 03bd 25ff 1e3c f5d6 713d
00000110: 2ee1 213e 3790 7a3e 5f18 49be 0543 bfbd
00000120: 7717 cd3d 4a29 583e ef14 633e e14c 663e
00000130: 873d 503d 59dc 62be 680b c03c 9c40 23be
00000140: da31 73be ef02 683e be6d 463e 0327 82be
00000150: 4460 433d d9d6 2fbd 91c5 2bbd e5e0 eebd
00000160: 3312 c93d ef8f 1abe 0e64 bf3d c6e8 033e
00000170: 52c0 3a3e 2125 c33d e822 81be 3847 29be
00000180: ef34 023e b572 5a3d da90 4bbe f042 16be
00000190: 537d 753e b0d4 2f3e b295 e3bd 5794 83bd
000001a0: e994 78be 9117 96bb e682 44be 4f49 49be
000001b0: 8f0d 66bc e4b8 1c3d 1dbc d5bd b8d7 1a3e
000001c0: 91cc 1ebe 92c7 6c3e 77d4 323e 470e 5cbe
000001d0: b5e4 81bd 9965 3c3c c64a 183d 4f90 773d
000001e0: 2ceb cc3d 3ee5 7a3c 7ba3 febd 68f5 f63d
000001f0: 3951 7abe dcaa 1abe 6c8c 82bd c238 febd
00000200: 0f94 b6bd a0e1 55be 8a08 5ebd 0422 5f3d
00000210: e9ff 29be 2a5e 55bc 72cd 3a3e afc0 d5bc
00000220: 0014 e13b f8d1 b5bc 243f 533d 55ec 253e
00000230: 602f 773e 1a5d 253e 83b9 773e 1119 97bc
00000240: 206b 6abe 166c f7bd 58ad 313e 1fa8 dcba
00000250: 9d23 02be 5bf8 47be da28 74be 5243 5cbe
00000260: 0ed9 53bd 731b 0f3e c214 0d3e 82ab 7bbe
00000270: 3eba 223e 5c32 4cbe b4ac 5cbd 339e d3bd
00000280: 890d 49bd 79f0 4cbd 302a 6abe 595d 61be
00000290: 8755 23bd be3f 533b f9d0 ecbd a6eb c43d
000002a0: 12df 6abe 15e3 8cbc 4d7c 653e c56a d4bd
000002b0: bba6 6b3e f705 bd3d 5d7f 6bbe 7b1a 253e
000002c0: 88da f0bc 3be7 e8bd 4df7 503e 99df 52be
000002d0: ca31 e03c 2fc9 5abd 724b 3a3e b8af 913d
000002e0: ebc6 fa3d 7c50 b83d a45f 7bbd e28f 5bbd
000002f0: dc0c 57be ae64 0d3e 6b30 4f3e f88b 323e
00000300: 7e12 38be f75e 383c 1ef4 37be 3ca6 0fbe
00000310: f30b 18be 3f69 b23d 0a81 1bbe f12e b6bb
00000320: c8a4 2f3c 0d3d 283e 2843 45be dc24 33be
00000330: 7d86 17be 32a6 363e 0d9c bbbd d120 5c3e
00000340: d2cc bc3d 422c 043d 23c8 f8ba d35b 4ebd
00000350: 82ee 023d f958 6ebd 10b2 eaba aa2e 053d
00000360: 021e 4cbe dbc5 08be c2b4 523e 2fc6 53be
00000370: 4ee7 95bc 0f12 813e e187 bc3d c309 ec3b
00000380: 9724 62be a540 013e f3e0 39be 0e2e 94bd
00000390: 581b afbd fd92 1abd dcad 363b cd36 573e
000003a0: 2d4f 023d acba 693e 85a0 1f3e 18fa 24be
000003b0: 8213 ea3d 2577 38be d33d ddbd e380 993d
000003c0: fb39 ac3d 5bdd 433e 56cb a7bd efe2 d539
000003d0: 0f58 063e 2d5d 7cbe 63d3 3c3e f5c8 57be
000003e0: 3a43 663b 8c76 31bd 7d6f 09be aaf8 093d
000003f0: b2d0 573e 0d2a 98bd d9ec 1abe f2e2 c0bd
-0.0019079063 0.13670488 -0.20974089 -0.18754329 -0.098150946 0.06833602 -0.005049092 0.20205608
-0.02261511 0.06743266 -0.0770145 -0.05009175 -0.24345648 -0.16877276 -0.105049014 0.009448192
0.10065766 0.15281981 -0.17276327 -0.110971354 0.092560455 0.21145907 -0.05244795 0.19068424
-0.04107516 0.026964756 0.2307406 -0.23640294 -0.16060334 -0.06451546 -0.09920156 0.21995203
-0.16520725 -0.11730908 -0.17803842 -0.2386685 -0.14892203 0.21902871 0.11369196 0.12351066
0.013402727 -0.13064815 0.04307009 -0.23819268 -0.18413556 -0.13143 0.16080572 0.14942779
-0.11301816 -0.009195065 0.16298261 0.2533676 0.10114305 0.034426484 0.17086509 -0.15004748
0.047486987 -0.19757494 -0.17659009 -0.13164362 0.11526425 0.10245292 -0.1509689 0.07698742
0.13989745 -0.032164626 0.009704386 0.05904289 0.15808555 0.24469076 -0.19638203 -0.09338955
0.10014241 0.211095 0.22175954 0.22490264 0.050839927 -0.22154368 0.023442939 -0.15942615
-0.23749486 0.22657369 0.19377801 -0.2542039 0.047699228 -0.042929504 -0.04193646 -0.11663989
0.09817924 -0.15093969 0.09345256 0.12881765 0.18237427 0.09528566 -0.25221944 -0.16531074
0.12715505 0.05333205 -0.19879475 -0.14673972 0.23973589 0.17170978 -0.111125365 -0.06424778
-0.24275555 -0.004580446 -0.19190559 -0.19656871 -0.014041319 0.038262263 -0.104362704 0.15121353
-0.15507723 0.23123005 0.17463861 -0.21489821 -0.063424505 0.011498832 0.037180685 0.060440358
0.10005793 0.015313445 -0.12433525 0.12058526 -0.24445046 -0.1510424 -0.063744396 -0.124131694
-0.08914959 -0.2088685 -0.054207362 0.0544758 -0.16601528 -0.013022939 0.18242434 -0.026092855
0.0068688393 -0.022194847 0.051573887 0.16203435 0.24139166 0.16148797 0.24191861 -0.01844457
-0.22892427 -0.12081163 0.17351282 -0.0016834772 -0.12708898 -0.19528334 -0.23843709 -0.21510056
-0.05172067 0.13975315 0.1377745 -0.24577144 0.15891358 -0.19941086 -0.05387564 -0.103329085
-0.049085174 -0.05003402 -0.22867656 -0.22008266 -0.039876487 0.0032234038 -0.11563296 0.09615259
-0.22936657 -0.017198125 0.22410698 -0.10371927 0.23012821 0.09229653 -0.22997804 0.16123383
-0.029401079 -0.11372229 0.20406838 -0.20593108 0.027367491 -0.05341452 0.18192843 0.07113594
0.12244972 0.08999726 -0.061370507 -0.053604014 -0.21000999 0.13807938 0.20233314 0.17436206
-0.17975804 0.01125311 -0.17964217 -0.14028257 -0.14848308 0.0871148 -0.15185943 -0.005559795
0.010720439 0.16429539 -0.192639 -0.1749453 -0.14797397 0.17836836 -0.09160624 0.21496893
0.09218754 0.03226877 -0.0018980544 -0.05038054 0.03196574 -0.05819032 -0.001790585 0.032515205
-0.19933322 -0.13356726 0.20576766 -0.2068107 -0.018298771 0.2520909 0.09205604 0.007203312
-0.2208427 0.12622316 -0.18152218 -0.07235347 -0.08550137 -0.037737835 0.0027874624 0.21016999
0.03181379 0.22825116 0.15588577 -0.16111028 0.11429502 -0.180142 -0.10802808 0.07495286
0.084094964 0.19127409 -0.0819308 0.00040795605 0.13119529 -0.24644919 0.18440013 -0.21072753
0.0035135285 -0.043325946 -0.13421436 0.03368441 0.21075705 -0.074298956 -0.15129413 -0.094182864

init_net.0.bias f4 [64]
00000000: ae7e 3abe 78e6 5f3d e358 6d3e ed51 80be
00000010: d1c4 81be 727a 063d c463 443e 45c9 1ebe
00000020: 6501 663d b602 373e edcf a03d aa12 633d
00000030: 0a1f 823e 6f0a 2a3e 48c7 12be e642 b43c
00000040: 0983 053e 48d6 653e b1e2 81be 9d71 0d3e
00000050: f954 97bd 9d91 7fbe afc0 673d 553b 0ebe
00000060: 5fc6 133d 3b5a 29be 2c95 44be da10 b2bc
00000070: e542 afbd 028c 183e b5ee b23c d39d 4b3e
00000080: 2e0e 443d dcd2 a7bd 6db3 303e a8d3 673c
00000090: 67fc 433d 89da a7bd fa4e 563a a0cb 49bd
000000a0: 8c81 b2bc 8894 4bbe 3cc4 d6ba c48f 58be
000000b0: b255 61bd 600a 173e c392 35be e406 30be
000000c0: 9b5a 7fbd 3b27 8fbd e546 313d 1442 2e3d
000000d0: 8974 043e 76c3 33be 6931 93bc 05e4 113e
000000e0: 28b9 613e ecc6 98bc e8ea 16be e5f0 953d
000000f0: bb87 143e be09 23be b95a 17be 2fae e63d
-0.18212387 0.05466315 0.23178439 -0.25062504 -0.25345472 0.032831617 0.19178683 -0.15506466
0.056153674 0.17872128 0.07852159 0.05543772 0.25414306 0.16605543 -0.14333832 0.022004556
0.13038267 0.22445023 -0.25368264 0.13812871 -0.07389254 -0.24957891 0.05658024 -0.13889821
0.036077853 -0.16538326 -0.1919753 -0.021736551 -0.08557681 0.14897159 0.02184234 0.19884424
0.047865085 -0.08194515 0.17255946 0.014149584 0.04784813 -0.08195979 0.00081752206 -0.049266458
-0.021790288 -0.19880879 -0.0016385387 -0.21148592 -0.055013366 0.14750051 -0.17731766 -0.17190129
-0.062342267 -0.069899045 0.0432805 0.042543486 0.1293508 -0.17555031 -0.017967897 0.14247139
0.22043288 -0.01864954 -0.14738047 0.073213376 0.14504902 -0.15921685 -0.14780702 0.11263692

init_net.2.weight f4 [64, 64]
00000000: 35a0 0dbc c5a7 eebd 29af 91bd adeb 4c3d
00000010: 8b63 2bbd 0668 ae3d 01b7 c73d 4e05 933c
00000020: 9ed0 1fbc 716c 20bd c373 ccbb 4dea b73c
00000030: 7905 c1bd 49c7 f1bc a22a d2bd f613 9b3d
00000040: 6fee a0bd 18c3 e63d 1446 02bd 83c2 90bd
00000050: 42c8 723d 23aa 963c 22e7 ae3d 34f5 523d
00000060: ad66 f3bd 85cf 9f3d e656 bebc e65d 5fbd
00000070: be72 a03d a745 b83d 2e15 debd 94d7 36bc
00000080: c27c cf3d 23b5 433d b0db d43d ed36 2dbd
00000090: 6a61 8bbd 2245 d93d b0a8 523d 4086 f23d
000000a0: 4b15 53bd 7639 a2bd f308 6dbc 8cea edbd
000000b0: 5b10 463d b65d ba3d f194 f23c dfd7 47bc
000000c0: 9e8b 7a3d da5f a0bd 8e26 f73d 2e40 fbbd
000000d0: e813 f2bd 32d1 eebc db64 ce3d da61 4a3c
000000e0: 920c 423d 9338 b9bd 6849 383d feec 61bc
000000f0: 717f 4a3d 8b71 b23d fda9 5b3d f4ee 2bbc
00000100: e505 f9bb 0d62 9ebd dfb7 36bd 1d37 a43d
00000110: e199 4abd dafd 9c3d ca10 48bd b661 ebbc
00000120: eb3b 2c3b b9c7 e7bd 6287 9fba 9611 4bbc
00000130: 679d 34bc d446 c9bc 6832 c73d 1c7a ba3d
00000140: dd23 abbd 603c 6b3d ab29 c6bd bffa d6bd
00000150: 307c 1a3d e42d ee3a 3f48 6bbd 34aa f3bd
00000160: 219a 43bd b6d1 283d e4d4 e9bd b158 f5bd
00000170: 8841 803c ce00 b6bd a24f ddbd c88b 42bd
00000180: 4fa8 a2bc 1899 e5bd 4eb1 a8bd 8550 053c
00000190: 2140 eebd 480a 8ebc 511e a3bd 7a14 afbd
000001a0: 10a7 463d 4f76 c2bd e471 bfbd e81b 903d
000001b0: 842f bd3c 8e27 e63d 76fd 06bd 0602 74bd
000001c0: 57c0 3abc b3bb 243a e5d7 c03d f98b fbbd
000001d0: bcd2 0ebc ea88 5f3d 5221 8bbd 1762 80bd
000001e0: 4d70 743d 9f03 f2bd eaa4 ef3c 477f c3bd
000001f0: 806b 7b3d e109 d8bd 4659 9b3d 1c2e efbd
00000200: c561 d4bd 7d2c e73a 200e c73d 7a69 d8bd
00000210: 8573 61bd 70cf dd3d 3e4d aabc ad59 513d
00000220: dd11 f3bd 2323 1fbd 9858 80bd 82ea d43d
00000230: 2c6e 513d 0f9c b8bd c6ee a23c a1a0 baba
00000240: 5dee 4fbd 839a 90bd d9c0 27bd db02 c73d
00000250: ab22 b5bd 95fd b3bd 4278 1cbd 5a88 0b3b
00000260: cf85 093d 6bd6 713b fa7d f3bc 6758 99bd
00000270: 6561 b5bc d079 4bbd bd15 cc3d d10c f6bd
00000280: 582f a1bd cf90 cdbd f1d1 b8bc bbc0 c43d
00000290: 5476 dd3d 10f6 dbbd 20a1 afbb 9234 943d
000002a0: c0b0 5e3d 99f2 ce3d 309e 61bb cbc8 a9bd
000002b0: d114 a73d ab64 2dbd a3c7 823d 183e f9bc
000002c0: 2eba 563d cd3e e33d cbc0 ea3d 9819 e6bd
000002d0: ed53 a7bd 56f0 50bd 3621 a1bd 536c f23d
000002e0: 04c8 33bc 00b8 a7bd 7dfb 60bd 67b7 8bbd
000002f0: c5dd 4d3d 1263 dcbd 4197 ebbd 4011 f9bd
00000300: 8a8e 593d af53 7a3d 78d6 9cbd 86df fa3c
00000310: ef92 ba3d 8ddb 933c 0124 d4bc 0557 153c
00000320: 769b 58bc 21e2 7e3d 977c abbd 9f53 803d
00000330: 95b5 8e3d f497 98bd 6852 ce3d 2e34 f83d
00000340: 668f 46bd 2e44 0cbd 99f7 7b3d b2a0 c5bd
00000350: 90e0 473d 51dc eb3c 1dd4 9f3d bc60 dbbd
00000360: d7de d1bd ca11 633d 6b3d 363d 38e2 eabd
00000370: aee3 8cbd 1f1f e7bd 49e6 b4bd d587 63bd
00000380: 1d21 d13d 382c c9bc 0e2e 913d de3b f03d
00000390: ba55 663d ae2d e2bd d079 7e3d a629 413d
000003a0: 8ee4 c33d 8e33 f9bd 217b 9b3d ecd8 ce3d
000003b0: daf0 eabd 8c8f 543c 90cb d73d c5ae b7bd
000003c0: 0d07 263d d157 5f3d ae30 053d 6387 fb3d
000003d0: a942 cf3d 73c6 d83d 62cf 7bbc 6fed d33d
000003e0: b023 ebbd fd1e 88bd d8a6 d7bc 7068 15bd
000003f0: 47b7 e93d 0b59 6e3d a4b1 a23d 6add ab3d
-0.008644153 -0.11653093 -0.07113487 0.050029445 -0.04184298 0.08515935 0.09751702 0.017946865
-0.009754328 -0.039165918 -0.006239386 0.02245059 -0.09424872 -0.029513972 -0.10262038 0.075721666
-0.078579776 0.1126768 -0.031805113 -0.0706835 0.059273012 0.018391674 0.08540179 0.051503375
-0.11884818 0.07803253 -0.023234796 -0.054532908 0.07834385 0.0899766 -0.108438835 -0.011159796
0.101312175 0.047780167 0.103934646 -0.04228871 -0.0680569 0.10608889 0.051430404 0.118420124
-0.05153398 -0.07921116 -0.014467466 -0.11617002 0.04835544 0.09099905 0.029612036 -0.012197464
0.061168306 -0.07830782 0.120679006 -0.12268101 -0.11820203 -0.029152486 0.100778304 0.012352431
0.04737527 -0.09043994 0.04499188 -0.0137894135 0.049437944 0.08713063 0.05362891 -0.010493983
-0.0075995796 -0.077335455 -0.044608947 0.080183245 -0.049463157 0.07665606 -0.048844136 -0.028733116
0.002628083 -0.11317391 -0.0012171085 -0.0123943295 -0.011023856 -0.024569906 0.09726411 0.09105322
-0.0835645 0.057430625 -0.09675916 -0.10497045 0.03771609 0.0018171635 -0.057441946 -0.11897698
-0.04775441 0.04121562 -0.11417559 -0.11979807 0.015656248 -0.08886872 -0.108062044 -0.047496587
-0.019855646 -0.11210841 -0.08236943 0.008136873 -0.11633325 -0.017338887 -0.07964767 -0.085488275
0.048499167 -0.09495222 -0.09347895 0.07036573 0.023093946 0.11238013 -0.032956563 -0.059572242
-0.011398396 0.0006284073 0.094161786 -0.12282557 -0.008717235 0.05457393 -0.06793465 -0.06268709
0.05967741 -0.11817097 0.029253442 -0.095457606 0.061381817 -0.10548759 0.07585387 -0.116787165
-0.103702106 0.001763716 0.09719491 -0.10566993 -0.05504181 0.10830581 -0.020788785 0.051110912
-0.118686415 -0.03885187 -0.06266898 0.10396291 0.05113046 -0.09014141 0.019889247 -0.0014238545
-0.05076443 -0.07060721 -0.0409554 0.097173415 -0.08844503 -0.08788601 -0.038200624 0.0021290989
0.033574875 0.0036901485 -0.029723156 -0.074875645 -0.022141168 -0.049676716 0.09965084 -0.12014163
-0.07870358 -0.10037386 -0.022561045 0.09607073 0.10813585 -0.10740292 -0.005359784 0.072365895
0.05436778 0.101048656 -0.0034426562 -0.08290251 0.08158267 -0.042332333 0.06385734 -0.030425116
0.05242365 0.11095963 0.114625536 -0.1123535 -0.081703044 -0.051010452 -0.078676626 0.118370675
-0.01097298 -0.08189392 -0.054927338 -0.068220906 0.050260324 -0.10761084 -0.11503459 -0.12161493
0.05311445 0.061114963 -0.07658094 0.030624162 0.091100566 0.018049026 -0.025896074 0.009114985
-0.0132206585 0.062227372 -0.08373373 0.062659495 0.06968228 -0.07450858 0.100743115 0.121193275
-0.0484766 -0.03424471 0.061515424 -0.09649791 0.048798144 0.028791578 0.07804129 -0.1071181
-0.102475815 0.055436887 0.044492166 -0.11468929 -0.06879364 -0.11285233 -0.08832986 -0.05554946
0.10211394 -0.024557218 0.07088862 0.11730169 0.0562341 -0.11043869 0.06212789 0.04715886
0.09565078 -0.121680364 0.07591844 0.10099968 -0.1147172 0.012973677 0.10536873 -0.089688815
0.040534068 0.054527108 0.032517128 0.12281682 0.10120136 0.10584726 -0.015369268 0.10348021
-0.11481416 -0.066465355 -0.026324674 -0.036476552 0.114119105 0.058190387 0.079440385 0.08391841

init_net.2.bias f4 [64]
00000000: 85a8 7abd 991d f2bd b3fb 873d 1ce3 e73d
00000010: b5d6 18bd 0401 e3bd af00 163d 3c25 b1bd
00000020: 2228 a5bd 17b3 0a3d 094e 49bc 3682 09bc
00000030: 999e e23d f72d b2bc 2d7a 9a3d 6f16 1dbd
00000040: d802 bc3d 2bde 183d 134e e03d 1ffa 343d
00000050: d10a 35bd d014 5f3d c7b9 d63d b7e8 c53c
00000060: 4a62 683d 3746 b2bd a0fe 883d 92c7 edbd
00000070: 081e e03d 852a 523d 4736 003c 4990 ecbd
00000080: 41cf e63d 9a07 a23d f87b e93d cc1e 483d
00000090: 861b 293d a99d 02bd 0410 4ebd 668f 493d
000000a0: 4225 303d 9a70 8dbb c0c0 a13c 41bc 2c3d
000000b0: 72ae f2bd 92b6 dfbd 9cad 06bd 3b29 ac3d
000000c0: a920 763d f1ff f2bd ac30 18bd 3923 51bc
000000d0: 1593 273d 0668 ce3d 1454 083b d0df c4bd
000000e0: c21c f23b 28a7 43bd 5f46 9abd 7b03 8c3d
000000f0: ac85 82bc e293 6c3d b455 c73d 7533 483c
-0.06119587 -0.118220516 0.06639805 0.113226146 -0.037314136 -0.11084178 0.036621746 -0.0864968
-0.08064295 0.0338622 -0.012286671 -0.008392861 0.11065406 -0.021750433 0.075428344 -0.038351472
0.0918023 0.03732125 0.109523915 0.044183847 -0.04419977 0.054463208 0.10484653 0.024158819
0.05673436 -0.08704799 0.06689191 -0.11610331 0.10943228 0.05131008 0.007825441 -0.11550958
0.11269999 0.07911606 0.11400598 0.048857495 0.041286014 -0.031888638 -0.050308242 0.04920902
0.04300428 -0.0043164017 0.01974523 0.04217172 -0.11849679 -0.109234944 -0.03288041 0.084063016
0.06008974 -0.11865223 -0.037155792 -0.012764745 0.040911753 0.10078435 0.0020802068 -0.09613001
0.007388682 -0.047766834 -0.075329535 0.06836601 -0.01593288 0.05775822 0.097331434 0.0122193

rnn.weight_ih_l0 f4 [64, 7]
00000000: 0a59 8e3d 3a47 76bd b30a 8d3d de3f a13b
00000010: d9fc a73d 0fc7 eb3d 13d8 c2bd 40c8 ef3d
00000020: dbe5 bc3d 048a cbbd 182d 143d e9e5 cdbd
00000030: efc5 1f3d b6e9 8f3c c139 f1bd c2ad 353d
00000040: decd 0abd 50db fb3d 378c f63d ff0f 2d3d
00000050: 1552 c63d 6689 363d 01ef f93d 299f 3abc
00000060: ffd2 f93c a4dc a6bc 390f 873b 02f3 04bd
00000070: effd 47bd ccca 8f3d d0d9 583d df14 5fbd
00000080: 8faa debd 9a96 703d 9fa9 eabd 3b79 b4bb
00000090: 6afe f7bd 7a90 d33d 8fbb cd3d 33d8 cfbd
000000a0: 6ac0 04be 6153 afbd d88a 0b3d 7217 60bd
000000b0: 43af f0bc 2a1c 00bd 17da b93c 19d3 52bd
000000c0: 24c3 7d3d e0c4 b4bd 1c0b 82bc 57ca d33d
000000d0: ab88 8bbd 77e6 c13d b910 753d 18f1 32bd
000000e0: 5c61 2f3d 4cb7 92bd 5cae 223c 101b 0f3d
000000f0: 68ba da3d 7fd4 6ebd a3be 77bd 4343 7cbd
00000100: b268 00be 1162 cc3c d52a d1bd c2c2 07bd
00000110: 8227 78bd 8ad7 0e3b f44e 193d b321 bebd
00000120: 4d2e 15bd dd4b 42bc 620b 92bd 0597 d13c
00000130: 6ef5 303d 320e b4bd bda8 c03d 298b b33d
00000140: 07d2 17bd 5489 963c 03e2 3f3c c7cd 9fbc
00000150: 9998 a9bd 6e51 ce3d 91ac 783d ed26 d3bd
00000160: c6e0 c3bd 62de ed3d 8c98 983c ab6b e8bc
00000170: 9643 ab3d bc2b 113d 1563 353d 2153 c83d
00000180: 386a 22bc 22fa ef3d 385b b1bd 930f 8dbd
00000190: 9a3e ab3c 7258 75bc d36e 903d f6bf dabc
000001a0: 3aa8 ce3c 37fd d1bc 1aca cc3d 6095 04bc
000001b0: 9cec f63a 0918 b93d 8f75 013e 6c60 fd3d
000001c0: a720 f7bd a3cb a8bd 8376 dbbc 0baa d0bc
000001d0: bff3 913d 2567 2d3d 0069 aebc 0154 443b
000001e0: 9ad1 2b3d bfcf d93d 92ef 823d d646 7ebd
000001f0: 233a 3fbd cf89 583d b22b 4cbc 047a 9ebd
00000200: 528c f4bd 5cc3 903c f868 13bd 4d67 8fbd
00000210: d0ec ca3c ef24 f63d 6f98 e63d 4a0f 903d
00000220: ed92 bebd 7468 903d b8cb 973d 60f4 4b3d
00000230: e51d fcbc a48a b2bc 8c0b 89bd 1bbe e3bc
00000240: 4732 a7bc 39ed 1abd 84a0 0ebe df6f 323d
00000250: 7b2d b8bd 99f3 bcbd 3d59 4d3d 9296 cebd
00000260: e044 023e e4d6 013e c5d4 20bd 1301 ecbc
00000270: 7e4d c1bd 2004 fa3b 44c3 b73c feda 99bd
00000280: e8fe 023d e3d9 9bbb e6eb 2cbd dbc7 dfb9
00000290: bdeb f4bd de08 b2bd 61d1 2f3c 8977 e93d
000002a0: 8cc9 95bd 1a75 9c3d 71fd 383c 116b 59bd
000002b0: 0104 cf38 8324 693d 5309 4c3c db98 df3d
000002c0: e8c3 f7bc 84b9 a8bd 4452 e43d 059b 10bd
000002d0: 0095 923d d0a4 9a3d 0beb b23c acb7 d8bd
000002e0: 590d f8bd 34e5 6f3d 01f2 f63c e09a 893d
000002f0: 60d2 e6bd 0fe2 8abc 6c2d d73d c8be 843d
00000300: adf2 d13d 8098 c63d e93c 05bd 21b0 aebd
00000310: ceb4 96bd 7f35 1d3d 5b95 48bd 8660 013a
00000320: 08ee a03c 50e0 953d 4d8e 863d d038 903d
00000330: 48e5 ae3b 60a4 8e3d 5b9b 6cbd 1b2c 4abd
00000340: 9435 a4bc 8cc6 92bd 575d e13d 897f cdbc
00000350: 76e9 123d 5ffc 7bbb fbee deba dbfb 94bd
00000360: ee6a 6dbc c8f0 e1bd 9493 5bbd d770 c23d
00000370: b0f9 ecbd 8909 a73c 4b0e d23c a79d e7bd
00000380: d1ab c53c 168a 863d 2f00 b73d 501c bd3c
00000390: fca9 c53d eaa9 543c 9eb5 5d3d 843e 153d
000003a0: c12a b1bd b0da ddbc 99eb b1bd 0664 c43d
000003b0: 86ab 823d 6199 45bd 8981 b8bc f211 233d
000003c0: fb4d dcbd 448f 643b 7575 713d a975 be3c
000003d0: 6a6b 9fbb cd81 a23d 873b 803d 299e e0bd
000003e0: a6b3 943d 781e c7bd 22de 9f3d b335 e43d
000003f0: 13bd 393c 2898 47bd 5c83 82bd f85b 60bd
0.069505766 -0.06012652 0.06886806 0.0049209436 0.08202524 0.11512577 -0.09513869 0.117081165
0.09223529 -0.09938434 0.036175817 -0.100536175 0.039007124 0.017567497 -0.11778594 0.04435516
-0.033887736 0.1229769 0.120384626 0.042251583 0.09683625 0.044564627 0.122037895 -0.011390486
0.030496119 -0.020368882 0.0041216877 -0.032458313 -0.048826154 0.07021102 0.052942097 -0.054463264
-0.10872375 0.058737375 -0.11458134 -0.005507616 -0.121090725 0.10330291 0.100455396 -0.101486586
-0.12964025 -0.08560825 0.03406796 -0.05470986 -0.029380446 -0.03127686 0.022687001 -0.05147085
0.06195368 -0.088266134 -0.015874438 0.10341328 -0.06813177 0.09467786 0.0598304 -0.043686956
0.04281746 -0.07163867 0.009929266 0.03493792 0.106800854 -0.05830812 -0.06048454 -0.061587583
-0.12539938 0.024949105 -0.10213248 -0.03314472 -0.060584553 0.0021795952 0.03742881 -0.09283771
-0.03642111 -0.0118589075 -0.07131077 0.025584707 0.04320281 -0.0879177 0.09407184 0.08766777
-0.037065532 0.01837603 0.0117116 -0.019507302 -0.08281059 0.10074125 0.060711447 -0.10310159
-0.095643565 0.11614682 0.018627428 -0.028371653 0.083625 0.0354421 0.044283945 0.097814806
-0.00991302 0.11717631 -0.08659977 -0.06887736 0.020903874 -0.0149747 0.07052388 -0.026702862
0.025226701 -0.025633438 0.09999485 -0.008092254 0.0018838826 0.090377875 0.12642501 0.12371907
-0.12066775 -0.082419656 -0.02678991 -0.025471708 0.07126569 0.042334694 -0.021290302 0.0029957297
0.04194794 0.106353275 0.06393351 -0.062079273 -0.046686303 0.0528658 -0.01246159 -0.077381164
-0.119408265 0.01767128 -0.035988778 -0.07002125 0.024771124 0.12018763 0.11259543 0.07034166
-0.093053676 0.07051173 0.07411903 0.0497936 -0.030775974 -0.021794625 -0.066916555 -0.02780061
-0.020409716 -0.03782389 -0.1392842 0.04356372 -0.0899305 -0.0922615 0.050133932 -0.10087313
0.12721586 0.1267963 -0.039265413 -0.028809106 -0.094386086 0.0076298863 0.022431977 -0.075124726
0.03198138 -0.0047561987 -0.042217158 -0.00042682778 -0.11959026 -0.086930975 0.010731072 0.11399753
-0.07313833 0.07639523 0.011290894 -0.053080622 9.871275e-05 0.056919586 0.012453395 0.10917827
-0.030244783 -0.08238509 0.111485034 -0.03530409 0.07157326 0.07550967 0.021840593 -0.10581908
-0.12111921 0.058568195 0.030144693 0.06718993 -0.112705946 -0.016953496 0.105067104 0.06481701
0.10251365 0.09697056 -0.03252879 -0.08529688 -0.073587045 0.038381096 -0.04897056 0.00049353426
0.019644752 0.07318175 0.065701105 0.07042086 0.005337391 0.06964946 -0.057765346 -0.04935847
-0.02004508 -0.07166776 0.11004131 -0.025085228 0.035867177 -0.0038449985 -0.0017008478 -0.072746
-0.014490826 -0.110322535 -0.05360754 0.09494179 -0.115710616 0.020390289 0.025641581 -0.11309367
0.02412978 0.065693066 0.08935582 0.02308479 0.096515626 0.012979964 0.05412828 0.036436573
-0.08650733 -0.027081817 -0.08687515 0.095893905 0.06380372 -0.048241977 -0.022522705 0.039812036
-0.10757061 0.0034875432 0.058949906 0.023249464 -0.0048650997 0.07934914 0.06261354 -0.10967667
0.07260828 -0.09722608 0.0780604 0.11143055 0.011336583 -0.048729092 -0.06372711 -0.05477521

rnn.weight_hh_l0 f4 [64, 64]
00000000: 6d71 c03d d436 c73c 3ef4 d83b 5003 cf3c
00000010: d5b1 95bd c46a c2bc b560 40bb a27b 9fbd
00000020: 84b4 a8bb 8481 89bc 0d35 32bd 8e33 1abd
00000030: c19f fcbd 1ee1 f03d 5330 783d 8049 b63d
00000040: 6205 d7bd 7b9a f7bd 7c72 bb3d 1795 b0bc
00000050: 107c a93c c035 7a3d be2e 0b3c a213 85bb
00000060: c1db 953d aa56 c93d 681d 0ebd 3787 d6bd
00000070: fe8a 8abd c66e b53d 243b 2e3c 3e89 d93d
00000080: 5dc3 34bd 54d0 eebd 7381 1d3d 7bcf 59bd
00000090: 1f2e 97bd 9150 9f3d 948b 103c f68a 22bc
000000a0: ce80 f63d 3af1 db3d f417 cdbd b49a e7bd
000000b0: 1627 7abd 12b2 c3bd 4395 85bd 6568 a93d
000000c0: 2e7e a8bd 5b9f e83d ac36 213d 041a bb3b
000000d0: 1609 a73c 5777 d63c 8f17 223d 56f9 cdbd
000000e0: d23a ffba 161b a93d 0264 fd3d 7dd5 ccbb
000000f0: 8276 b3bd 003f 673d 2d3a e8bd b2f2 e13d
00000100: 78a3 983d e05e 5a3d 59cc 893c 1b82 b53d
00000110: b561 4abd 1970 d0bd 0f03 8cbd baa3 ba3d
00000120: 5d7a 7cbd ef41 c9bd 153b e73c 27f7 9bbd
00000130: e508 8fbb 8888 a0bd eda2 d73c cc45 b3bc
00000140: 60db 853c 5ed5 643d 2483 a1bd 0467 33bd
00000150: cf8d a5bd a6f5 cf3d 3235 33bd bfdb 453d
00000160: dfa1 e43c 5029 fabd e67c b2bd 4aba f6bc
00000170: cbc5 bfbd 6690 843d ad98 a03d f617 5a3a
00000180: b846 5f3c c319 073d 0c02 233d dc3c c8bc
00000190: 4194 45bd 8c96 9bbd 33b7 ad3b 5bb5 c73d
000001a0: 5ede 7cbc b13f d83d 7936 363d 8215 82bd
000001b0: 9e4f 463d aed7 4d3d 9119 61bd 0cb5 afbc
000001c0: 1b8a 3cbc bf61 2d3d 666a c63d aad5 ddbc
000001d0: 468f a53d 1749 863d 2aca d9bd 46d8 ba3d
000001e0: f5b9 96bb 6ec4 c23d 0496 c73d da0b f5bd
000001f0: 18f1 d0bd e512 64bc 65af 253d bba4 9fbc
00000200: 56b0 f3bd 5aa2 893d df35 90bd ba24 643d
00000210: 6794 b23d e30b 2bbd 4f55 983d afc0 853c
00000220: 911b 1ebd 7819 033c 4bbd 353d 3f41 813d
00000230: 87ff 90bd b8b6 bc3d c7d6 6ebd 86f9 d9bd
00000240: 005c 5bbd 92d1 dfbd 1006 0d3d 1128 033c
00000250: 2076 c4bb 0fad aabd 0bfe 843d 8ff3 a63c
00000260: 8dee fdbc 60e6 b33c 8ce1 313d b196 97bd
00000270: 626f 11bd f5f5 65bd f092 df3d 658d fb3c
00000280: 8305 bfbd 62aa b23d 7f18 a2bc b262 093c
00000290: 436b 833c d680 6bbc 55b6 ef3d 3805 5b3d
000002a0: 3c03 da3c b290 37bd dd61 e93c 240b b8bd
000002b0: d437 2ebd c181 803d 8098 f8bd ac0f 4dbb
000002c0: 9b93 3abd f73f 813d 6fab 9dbd 69aa af3c
000002d0: 4b0d 11bd 945d d33d b976 95bc f512 b8bd
000002e0: 0aa9 1cbd cf56 b23d 948b 413d c350 d73c
000002f0: 19c5 9d3d 5997 423d 1308 81bc 3ec5 85bd
00000300: b0cd f1bd a75a 7b3d a505 c73d 3211 3bbd
00000310: 20ad 68bd a18c 9d3c 410b 17bc 72a3 c23d
00000320: afbc 1ebb 6ed4 52bb 91f8 ebbd 7e4a 153d
00000330: adce fc39 90d5 ed3c 0f32 9b3d 1515 603d
00000340: 8f49 4ab9 883a 01bc c159 7fbd 66eb e73d
00000350: 5138 c93d 38a4 113b 345c f93d 01b8 d93d
00000360: 63b4 923d 3e10 833d 16e9 483d 78e3 c6bc
00000370: 16b4 393c b02c cd3d b911 b1bc 0045 153d
00000380: e78a 15bd d7f6 9f3c 817c 953d ea09 a13d
00000390: 64c5 753d 8bdd 673d 8cf8 fabc aa87 e33d
000003a0: c627 b03d 1595 f03d e1d9 d1bd e53a 68bd
000003b0: f15d d2bd cf9d 173c b16f c13d b8b4 abbd
000003c0: 29f8 fe3c 808a f7ba a9d1 efbd 1c8a acbb
000003d0: 842d 63bc 965b 71bd 6342 9fbd 58eb 933d
000003e0: f75a 5cbc 3f95 d0bc 7aa5 1abd 97af 7dbc
000003f0: a94e 13bd 3de1 96bd 5bad 583d ccfb 2cbb
0.09396634 0.024318136 0.006620913 0.025270134 -0.073093094 -0.02373255 -0.0029354517 -0.07787253
-0.0051484723 -0.01678539 -0.043507624 -0.037646823 -0.12335158 0.11761688 0.06059296 0.08900738
-0.104990736 -0.12090012 0.091526955 -0.021555467 0.02068904 0.061086416 0.008495031 -0.0040611783
0.07317305 0.09830983 -0.034696013 -0.10475009 -0.06764792 0.08859019 0.010634217 0.1062188
-0.044131625 -0.11660829 0.03845353 -0.053176384 -0.07381844 0.07779039 0.0088223405 -0.009920826
0.12036286 0.1073937 -0.10014334 -0.11308804 -0.06107243 -0.095554486 -0.0652261 0.08271865
-0.08227192 0.1135852 0.03935878 0.0057098884 0.020390075 0.026179953 0.03957325 -0.10057323
-0.0019472486 0.08257119 0.123725906 -0.0062510357 -0.08762838 0.056456566 -0.11339221 0.110326186
0.07453054 0.053313136 0.016821073 0.08862706 -0.049409587 -0.10177631 -0.06836521 0.091132596
-0.061640132 -0.09827029 0.028226415 -0.076155 -0.004365074 -0.07838541 0.026322806 -0.021883868
0.016339958 0.055867545 -0.07886341 -0.043799415 -0.080836885 0.101542756 -0.043751903 0.04830527
0.027909217 -0.12214911 -0.08715229 -0.030118126 -0.09363898 0.06472854 0.078416206 0.00083196105
0.0136277005 0.032983553 0.039796874 -0.024443083 -0.04823709 -0.07597074 0.00530138 0.09751388
-0.015433876 0.10559023 0.044485543 -0.063517585 0.048415773 0.050254516 -0.054956023 -0.021448635
-0.011507536 0.042329546 0.09688263 -0.027079422 0.08083968 0.065569095 -0.10634263 0.09123282
-0.0045998045 0.09510122 0.0974541 -0.11965151 -0.10202235 -0.01392052 0.040450472 -0.01948773
-0.11898868 0.06720419 -0.07041525 0.055699088 0.08719712 -0.041759383 0.07438146 0.01632723
-0.038600508 0.008001678 0.044369977 0.06311273 -0.07079988 0.09214538 -0.058310296 -0.10643296
-0.053554535 -0.10928644 0.03442961 0.008005158 -0.005995527 -0.083337896 0.06493767 0.02037981
-0.030997539 0.021960437 0.04342799 -0.07401789 -0.035506614 -0.056142766 0.10916698 0.03070707
-0.09327223 0.08723904 -0.019787071 0.008385347 0.016042357 -0.014373979 0.11704699 0.053471774
0.02661287 -0.044815727 0.028489048 -0.089865 -0.04253371 0.062747486 -0.12138462 -0.0031289859
-0.045550924 0.063110285 -0.07698714 0.021443563 -0.035413068 0.10320583 -0.018245088 -0.08987991
-0.038247146 0.08707964 0.047252253 0.026283627 0.07703609 0.047507618 -0.01575092 -0.065317616
-0.1180681 0.06136575 0.097178735 -0.045670696 -0.05680573 0.019232096 -0.009218992 0.09503831
-0.002422135 -0.0032170075 -0.1152202 0.036447994 0.0004821917 0.029032499 0.07577907 0.054707605
-0.00019291624 -0.00788749 -0.062341455 0.113241956 0.098251946 0.0022223126 0.121757895 0.10630799
0.07163312 0.06399582 0.049050413 -0.024278387 0.01133444 0.10018289 -0.021614896 0.036442757
-0.03650942 0.019526882 0.07299138 0.07863219 0.0600027 0.056607764 -0.030636095 0.1110986
0.08601336 0.11747185 -0.10246635 -0.05669679 -0.10271824 0.009253933 0.094451316 -0.08384079
0.031124191 -0.0018885881 -0.117099114 -0.0052654874 -0.013865832 -0.058925234 -0.07776334 0.07222623
-0.013449422 -0.025461791 -0.037755467 -0.015483758 -0.035963688 -0.073671795 0.0528997 -0.00263952

rnn.bias_ih_l0 f4 [64]
00000000: 1850 41bd f05a 673d a64b 9d3d 5bf6 5e3a
00000010: 2dc5 083d 082b 793d bab9 c53d c744 603d
00000020: 46b9 da3d bca9 0b3d 981f e33c c8b0 02be
00000030: 6b01 d8bc 2944 18bd 9f78 273d a279 b0bc
00000040: db1d 0ebe d7bc 0a3e 2a57 4cbd 95ca c5bd
00000050: 9649 bbbd e99c 3e3d 14ed 69bd 3ff2 09be
00000060: 03c2 133d f5ad 0a3d 6f64 d83d 5898 00be
00000070: 6bb5 f8bc 2742 41bd a225 65bd c927 683c
00000080: 8f0a 073e 4341 61bb 70ac f63d 7df9 0e3d
00000090: 5a05 a0bd 3e4b 17bd 8223 663d 2c37 6f3d
000000a0: 5bc7 55bd 1d9e 57bc 8c37 eebd 388f cbbd
000000b0: 970a abbc 47a1 2a3d 0a7a b2bb 9342 563d
000000c0: 8fd2 e7bd f6c2 193d a41a eabd 99d0 44bc
000000d0: 0686 c93d 3eee a23c d344 dcbd 4329 02be
000000e0: ac5e 26bd 0fee 21bd f364 07be b1f1 c03d
000000f0: 0721 b6bc 126e 0bbd fdbc cf3d 1a1b e2bd
-0.047195524 0.05648321 0.076804444 0.0008505338 0.033391166 0.060832053 0.09654565 0.05475309
0.10679869 0.03409742 0.027725026 -0.12762749 -0.026367864 -0.037174378 0.040886518 -0.021542374
-0.13878576 0.13548599 -0.049887814 -0.0965778 -0.09144895 0.04653636 -0.05711086 -0.13471316
0.036073696 0.033857305 0.10566031 -0.12558115 -0.030359944 -0.04718223 -0.055944093 0.014169642
0.13187622 -0.0034371174 0.120446086 0.0349059 -0.07813521 -0.03693699 0.056186207 0.058402225
-0.052192073 -0.013160256 -0.116316885 -0.09939426 -0.020879073 0.041657712 -0.005446677 0.052309584
-0.11319458 0.037539445 -0.114308625 -0.012012624 0.09840016 0.019888993 -0.10755315 -0.12711053
-0.04061763 -0.03953367 -0.13222103 0.09421099 -0.022232546 -0.034040518 0.101434685 -0.110403255

rnn.bias_hh_l0 f4 [64]
00000000: e054 0e3d a2ce b43d 1182 d33c f246 9f3d
00000010: 0295 3ebd 4eb2 15be 8d4f 043e 7bdc 06be
00000020: 4689 e3bc 15db ce3d 5267 85bd 51da fabc
00000030: 93f5 85bd c12c cb3c 069a ffbc e05f 753d
00000040: f4a3 c03d 857d 77bd 1bbf ac3d 3669 2bbc
00000050: 3c05 27be b336 983d 3416 c8bd 454a 7a3d
00000060: c8c6 d8bc f699 b4bd dfd2 eebd 3796 bb3c
00000070: 55e6 00be be85 8a3d aa1c 0b3d fdd5 bebd
00000080: 809a a63d 83c7 b3bd 9c07 e03c 5d8b 91bc
00000090: 658a 8c3d ab7c 04be 2af8 3cbd 7ad3 6ebd
000000a0: cc53 b3bc 0f70 6c3c 3e01 b9bd b610 84bb
000000b0: acd6 8d3c c17c c1bd 7fe0 843c 983a 9f3d
000000c0: e42f 5a3d 5a45 553d c332 8dbd bc9e 85bd
000000d0: f547 923d 1455 0a3d cf9f b7bb ca6f 6a3d
000000e0: cd62 76bd a7c0 e8bd c6af d1bd d8f0 b5bd
000000f0: 7d53 553d ebcf 753d 7a55 4ebd e852 adbc
0.03474891 0.088284746 0.025818856 0.077772036 -0.046528824 -0.14618799 0.12920971 -0.13170044
-0.027775418 0.1010038 -0.065138474 -0.03062168 -0.0654098 0.024801614 -0.031201374 0.059905887
0.094062716 -0.06042244 0.08434888 -0.010462096 -0.1631059 0.07432308 -0.0976986 0.061105985
-0.026461974 -0.08818428 -0.11661314 0.022898776 -0.12587865 0.067637905 0.033962883 -0.09318159
0.08134937 -0.08778288 0.027347378 -0.017766649 0.06862334 -0.12938182 -0.046135105 -0.05830715
-0.021890543 0.014431014 -0.0903344 -0.0040303124 0.017314278 -0.09447623 0.01622033 0.07774848
0.05326833 0.052068092 -0.06894448 -0.06524417 0.07142631 0.033772543 -0.0056037675 0.057235517
-0.060152818 -0.113648705 -0.10238604 -0.08883828 0.052081574 0.06001274 -0.050374486 -0.021157697

output_net.weight f4 [2, 64]
00000000: 84c8 60bc 8302 3ebc 13df 96bd 49a8 6e3d
00000010: e738 7bbd e164 debd 87d4 313d 1679 27bd
00000020: 116d cb3c 7df3 36ba a8ba cd3c 98eb 843d
00000030: 1ead edbd 0cf2 67bd 4a78 fd3d 4fe3 1c3d
00000040: dbf1 dbbc eefb f53d 08dd ca3d 8cae 923d
00000050: e985 1abe e9b2 1c3e 1a40 02be c0cc 21be
00000060: 9a87 f73c 7056 e0bc 77c3 eabd 321a 733d
00000070: f071 f2b8 77e3 85bd b70f ef3c a1f3 773d
00000080: cd05 dc3c 39a7 a93d fa02 cd3d 3306 303d
00000090: ca90 8dbd 484f ecbd 3b10 31bc 6b5d 32bd
000000a0: b50c f0bd fd84 d9bd 1fe9 eabd 15b4 b5bb
000000b0: 2f97 72bd 7e47 00be ed10 abbc d43e 5cbd
000000c0: 8cf0 5abd 978a b73d 7266 443d 209a 9d3d
000000d0: 59d3 013e 0c3b bd3c 9d13 a4bd dcfb ddbc
000000e0: 3b2d 043c 8d5f 5dbd 0795 663d 8122 923d
000000f0: 4a65 e5bd e9b6 4f3c 041e 213c 3c00 f53c
00000100: 1129 c1bd 4a89 a93d 71c2 5bbd 933d dd3c
00000110: 65d8 31bd 9dc1 8f3d 0726 81bd df59 97bd
00000120: 53e9 e2bd 82af 213d 8e64 013d 4ded 5e3d
00000130: 683b 76bd 0211 c73c 4024 5abd 2c85 c33a
00000140: b15c f93d ca0b 01be 0940 643d 7de5 dcbd
00000150: 9a62 bb3d 9f08 7fbd 4be6 863d 489d 67bd
00000160: b90b 9a3d 1591 793d c1ff adbd 0ef7 4ebd
00000170: e4ee a83d e000 c8bd 70e2 7e3d 91c8 01bd
00000180: 0e19 1abe 3164 3e3d c3a8 9abd 34d7 d3bd
00000190: 3b61 253d 86d4 9f3d 7db6 de3d 7e6e 063e
000001a0: 1ee1 473d 5616 38bd 5b7c 793c 6ff2 ce3d
000001b0: c75a bdbd 71ca e13d da79 673d 1eaa 3f3d
000001c0: 845f 7d3d 9b7d f0bd 175a 953d 9c00 81bb
000001d0: 23bb 08bb 4739 93bd 635d d43d 9057 d1bb
000001e0: 933a 4f3c 4545 c3bd 8313 0c3e 04a2 f6bd
000001f0: c085 ca3d 977b 593d 85aa a83c 947c e3bd
-0.013719682 -0.0115972785 -0.07366767 0.058265958 -0.061333563 -0.10859085 0.043415572 -0.04088696
0.02483228 -0.00069790316 0.025113419 0.064902484 -0.11605285 -0.05662732 0.12376459 0.038302716
-0.026848724 0.120109424 0.099054396 0.071621984 -0.15090145 0.15302624 -0.12719765 -0.15800762
0.030216027 -0.027384967 -0.11463063 0.059351154 -0.00011560682 -0.06537526 0.029182298 0.060535077
0.026858235 0.08283848 0.10010333 0.042974662 -0.06912382 -0.11538559 -0.010807092 -0.04354612
-0.11721174 -0.106210686 -0.114702456 -0.005545149 -0.05922621 -0.12527272 -0.020882094 -0.053770855
-0.05345206 0.08961981 0.047949262 0.07695413 0.12678279 0.023099445 -0.080115534 -0.027097635
0.008067424 -0.054046202 0.056294467 0.07135487 -0.1120096 0.0126778865 0.009833816 0.029907338
-0.09431661 0.08278139 -0.05365223 0.0270069 -0.04341926 0.07019351 -0.06306081 -0.073901884
-0.11079659 0.039474018 0.031590037 0.054425526 -0.060115248 0.024300102 -0.053257227 0.0014917008
0.121758826 -0.12602153 0.05572513 -0.10785959 0.09149666 -0.06226408 0.06586894 -0.05654648
0.07521767 0.060929377 -0.08496047 -0.05052858 0.0824869 -0.09765792 0.062227666 -0.031685416
-0.1504862 0.04648227 -0.0755172 -0.10343781 0.04037593 0.078042075 0.108746506 0.13128087
0.048798673 -0.044943176 0.015227403 0.10104834 -0.0924583 0.11024941 0.05651269 0.046793096
0.06185867 -0.11742707 0.07292574 -0.00393684 -0.0020863495 -0.07188659 0.103693746 -0.006388612
0.0126482425 -0.095346965 0.13679318 -0.12042621 0.09888792 0.05309638 0.020589123 -0.11107746

output_net.bias f4 [2]
00000000: b7a4 00bf 10f9 df3e
-0.50251335 0.43744707
