pred_training/trained_rnn_models/T3_resnet50/pred_rnn/cosine_False_0.0005_0.9mammograms_pred_rnn_0.5_6.pth (torch, 111876 bytes, 10 tensors)

init_net.0.weight f4 [64, 15]
000000 73 dd e7 ba 0f cb 01 3e 0c 23 47 be b4 0f 32 be
       -0.0017689898 0.12675117 -0.19446963 -0.17388803
000010 92 60 ba bd 0d c3 81 3d fb 66 99 bb 33 d7 3f 3e
       -0.091004506 0.06336031 -0.0046814657 0.18734436
000020 18 c6 ab bc ef 0b 80 3d d8 3d 92 bd a6 3c 3e bd
       -0.020968482 0.06252276 -0.07140702 -0.046444558
000030 d8 25 67 be 75 3d 20 be d3 79 c7 bd f9 82 0a 3c
       -0.2257303 -0.15648444 -0.09740033 0.008454078
000040 46 f6 c0 3d ab 2a 12 3e 5d 07 24 be c1 b8 d2 bd
       0.09421973 0.14274089 -0.16018434 -0.10289145
000050 0b c3 af 3d f7 8e 4a 3e cf 0a 47 bd 7e 1f 35 3e
       0.08582123 0.197811 -0.048594292 0.17687795
000060 8f f9 1b bd c0 d6 cc 3c 7b 25 5b 3e 73 73 60 be
       -0.038079794 0.025004745 0.21401016 -0.2191904
000070 82 7f 16 be b3 03 75 bd ca cf bc bd ee 3d 51 3e
       -0.14697078 -0.05981798 -0.0921932 0.2043378
000080 d4 cf 1c be a6 c1 de bd 72 09 29 be 21 9a 62 be
       -0.15313655 -0.10876779 -0.1650751 -0.22129108
000090 9a 0d 0d be fa f8 4f 3e d1 f5 d7 3d 07 8d ea 3d
       -0.1377472 0.20309821 0.10544933 0.1145268
0000a0 fd a6 4b 3c 9e 28 f8 bd 30 e8 23 3d 57 b2 61 be
       0.01242995 -0.12117122 0.040016353 -0.22040688
0000b0 6a d3 2e be 89 6c f9 bd 03 a5 18 3e 6f db 0d 3e
       -0.17072836 -0.121789046 0.14906697 0.13853239
0000c0 b5 9b d6 bd d3 ae 0b bc 22 be 1a 3e 3f 84 70 3e
       -0.104789175 -0.008525568 0.15111592 0.23487948
0000d0 7c 0d c0 3d 5b be 02 3d 61 39 22 3e 21 76 0e be
       0.09377572 0.03191982 0.15842201 -0.1391225
0000e0 8d 58 34 3d 06 96 3b be 79 b5 27 be e1 f9 f9 bd
       0.04402976 -0.18318948 -0.1637782 -0.12205864
0000f0 a2 4e da 3d 53 c0 c1 3d d4 62 0f be c1 30 92 3d
       0.10659529 0.09460511 -0.14002544 0.07138205
000100 0d d3 04 3e c3 4e f4 bc f2 27 0e 3c fb 18 60 3d
       0.12971134 -0.029822713 0.008676516 0.054711323
000110 f0 11 16 3e 51 50 68 3e 0c 74 3a be 9f 5a b1 bd
       0.1465528 0.22686888 -0.18208331 -0.08659863
000120 b7 10 be 3d c0 f9 47 3e 46 8c 52 3e 7e ed 54 3e
       0.09280532 0.19528866 0.20561323 0.20793721
000130 4f 90 3a 3d 74 64 53 be c4 0f b2 3c b9 5d 17 be
       0.04554778 -0.20643789 0.021736033 -0.14781846
000140 c7 7c 61 be d0 cf 54 3e cb cd 37 3e 14 61 71 be
       -0.22020255 0.20782399 0.17949598 -0.23572189
000150 44 1c 35 3d ee 0e 23 bd d7 6b 1f bd de b5 dd bd
       0.04421641 -0.03980916 -0.038921203 -0.10825704
000160 00 13 b5 3d ff 4e 0f be 1a 63 b1 3d a5 93 f4 3d
       0.088415146 -0.13994978 0.0866148 0.119422235
000170 47 1d 2d 3e b3 ef b4 3d b4 77 6f be fe f3 1c be
       0.169057 0.088347815 -0.23385507 -0.1532745
000180 16 5c f1 3d 47 70 4a 3d c8 bd 3c be d9 50 0b be
       0.11785142 0.049423482 -0.18431771 -0.1360506
000190 6a 9e 63 3e 16 ff 22 3e 83 f0 d2 bd e4 38 74 bd
       0.22228399 0.1591762 -0.1029978 -0.059624568
0001a0 77 7b 66 be e9 29 8b bb 25 34 36 be 5f a1 3a be
       -0.22508036 -0.0042469394 -0.17793329 -0.1822562
0001b0 71 4d 55 bc b1 4f 11 3d 35 2c c6 bd 90 91 0f 3e
       -0.013018952 0.03547639 -0.096764006 0.14020371
0001c0 95 3c 13 be 0d 8a 5b 3e 29 cf 25 3e 90 08 4c be
       -0.14378579 0.21439381 0.16192307 -0.19925141
0001d0 12 df 70 bd 06 ae 2e 3c 2e 34 0d 3d dc 89 65 3d
       -0.058806486 0.010661608 0.03447359 0.056039676
0001e0 04 12 bf 3d ee 98 6f 3c bf ef eb bd 36 fa e4 3d
       0.09329608 0.014623864 -0.11520337 0.111805364
0001f0 65 17 68 be f6 67 0f be 24 60 70 bd 88 aa eb bd
       -0.22665174 -0.14004502 -0.058685437 -0.11507136
000200 4a 3f a9 bd fc 4e 46 be e9 dd 4d bd 89 03 4f 3d
       -0.082640246 -0.19366068 -0.05026046 0.05054048
000210 60 9b 1d be 1c 92 3d bc 70 33 2d 3e 9c 36 c4 bc
       -0.15391302 -0.01157048 0.16914153 -0.023951821
000220 5d ce bc 3b 10 45 ae bc a0 dd 43 3d 92 d7 19 3e
       0.005761905 -0.021273166 0.04781878 0.1502364
000230 02 30 65 3e af 31 18 3e 82 a4 65 3e dc 4d 8c bc
       0.22381595 0.14862703 0.22426036 -0.01712697
000240 99 59 59 be 3e 68 e5 bd 4c b7 24 3e 25 63 da ba
       -0.21225585 -0.11201523 0.16085547 -0.0016661627
000250 f0 fd f3 bd f6 68 39 be 91 de 62 be e3 0f 4c be
       -0.11913669 -0.18106446 -0.22155215 -0.19927935
000260 a1 40 43 bd f8 af 04 3e 01 cf 02 3e 76 58 69 be
       -0.047669057 0.12957752 0.12774278 -0.22787651
000270 52 55 17 3e 26 54 3d be bd 97 4c bd 3f 36 c4 bd
       0.14778641 -0.18489131 -0.049949396 -0.09580659
000280 05 6a 3a bd 57 05 3e bd 6a 1d 59 be e0 7f 50 be
       -0.045511264 -0.04639181 -0.21202627 -0.2036128
000290 05 71 17 bd 41 7a 44 3b 2b e8 db bd 56 2a b6 3d
       -0.03697302 0.0029980096 -0.10737642 0.08894794
0002a0 3c c5 59 be 05 a1 82 bc e3 c6 54 3e 6d 7b c5 bd
       -0.21266645 -0.01594592 0.20778994 -0.09642682
0002b0 e4 70 5a 3e 5c 3a af 3d e7 58 5a be 95 15 19 3e
       0.21332127 0.08556053 -0.21322976 0.14949639
0002c0 dc 7a df bc 44 ff d7 bd 36 60 41 3e 0b 85 43 be
       -0.027280264 -0.10546735 0.18884358 -0.1909372
0002d0 62 e4 cd 3c 49 ca 47 bd c8 8b 2d 3e 2d 14 87 3d
       0.025133315 -0.0487769 0.16947854 0.06595645
0002e0 8c 84 e8 3d ff e4 aa 3d e7 d7 63 bd 58 40 4b bd
       0.11353406 0.08344459 -0.055625822 -0.04962191
0002f0 5f 5c 47 be 7e 1c 03 3e 7d 1b 40 3e 4a 94 25 3e
       -0.1946883 0.12803838 0.18760486 0.16169849
000300 a6 8e 2a be d0 41 44 3c 4a 8f 2a be ac 3e 05 be
       -0.16655979 0.011978582 -0.16656223 -0.13012189
000310 59 e5 0c be 83 a8 a5 3d 8c 2e 10 be 1d eb a8 bb
       -0.13759364 0.08088782 -0.14080256 -0.005154981
000320 e5 da 22 3c 5f 26 1c 3e ea dc 36 be dd 16 26 be
       0.009939884 0.15249012 -0.1785771 -0.16219659
000330 47 7e 0c be 77 58 29 3e 09 eb ad bd 9a 14 4c 3e
       -0.13720046 0.16537653 -0.08492095 0.19929734
000340 6d 73 af 3d 3c 19 f5 3c 0e 3c e8 ba 46 4f 3f bd
       0.085669376 0.02991926 -0.0017718093 -0.04670646
000350 72 f0 f2 3c 4b fe 5c bd 5f 9b d9 ba 6f f8 f6 3c
       0.029655669 -0.05395345 -0.001660209 0.03014776
000360 6d 41 3d be e5 a0 fd bd 26 64 43 3e cc 5a 44 be
       -0.18481989 -0.12384204 0.19081172 -0.19175261
000370 24 fd 8a bc d7 57 6f 3e a8 cd ae 3d 5f 9c db 3b
       -0.01696641 0.23373352 0.085353196 0.0067019905
000380 6b ad 51 be ff e1 ee 3d f7 81 2c be e0 0a 8a bd
       -0.2047631 0.11664199 -0.16846453 -0.067403555
000390 76 5b a2 bd d2 51 0f bd d9 60 29 3b 03 15 47 3e
       -0.07927601 -0.03499014 0.002584508 0.19441609
0003a0 fa 96 f1 3c 5b b2 58 3e 8e 00 14 3e 07 f7 18 be
       0.029490937 0.21161787 0.14453337 -0.14937983
0003b0 5c 06 d9 3d d6 08 2b be 52 1c ce bd 95 53 8e 3d
       0.10596916 -0.1670259 -0.100639954 0.06949536
0003c0 f2 96 9f 3d 99 d2 35 3e a1 2e 9b bd 2f 50 c6 39
       0.077924624 0.17756118 -0.07577253 0.00037825244
0003d0 df 1f f9 3d 34 fd 69 be 9d 72 2f 3e 29 10 48 be
       0.12164282 -0.22850496 0.17133565 -0.19537415
0003e0 f0 b4 55 3b ec 88 24 bd f1 da fe bd f8 09 00 3d
       0.0032609068 -0.04016964 -0.124441035 0.031259507
0003f0 5e 1a 48 3e 93 40 8c bd 1e a5 0f be 44 68 b3 bd
       0.19541308 -0.06848254 -0.14027831 -0.087601215

init_net.0.bias f4 [64]
000000 81 ea 2c be ff 89 57 3d fb 84 5c 3e 2b 00 6e be
       -0.16886331 0.052621838 0.21535103 -0.23242252
000010 88 16 71 be 25 f2 e3 3c c9 08 36 3e 8e 39 13 be
       -0.23543751 0.027825424 0.17776789 -0.14377424
000020 0b 53 57 3d 69 5a 28 3e 12 04 96 3d ee 09 51 3d
       0.05256943 0.16440739 0.07324995 0.05103486
000030 36 e0 72 3e ce db 1d 3e 3b 11 08 be 58 39 a3 3c
       0.23718342 0.1541588 -0.13287823 0.019924805
000040 16 6a f8 3d 4e c3 56 3e f9 c1 6f be 6d 24 03 3e
       0.12129609 0.2097294 -0.23413838 0.12806864
000050 1e 76 8c bd f6 3d 6d be 1f 52 57 3d 39 0a 04 be
       -0.068584666 -0.23168167 0.05256855 -0.12894525
000060 a0 85 07 3d 68 45 1c be 4f a0 36 be 5e d5 ab bc
       0.03308642 -0.15260851 -0.1783459 -0.020975765
000070 a0 9f a2 bd 93 64 0c 3e 5e 3e b1 3c 7d f0 3c 3e
       -0.07940602 0.13710241 0.021636184 0.18451114
000080 74 95 36 3d af 9a 9b bd 9b 8c 23 3e e8 2b 52 3c
       0.044576123 -0.07597863 0.15971605 0.012827851
000090 62 ae 35 3d 54 c0 9b bd 10 e2 3f 3a 2b 11 3f bd
       0.044355758 -0.07605043 0.0007319758 -0.046647232
0000a0 85 f9 a8 bc 08 f2 3c be 79 51 fb ba 0e 83 48 be
       -0.020626793 -0.18451703 -0.0019174061 -0.19581243
0000b0 31 39 55 bd 67 eb 0c 3e f0 80 27 be be f0 23 be
       -0.052056495 0.13761674 -0.1635778 -0.16009805
0000c0 68 0c 6b bd b3 81 83 bd 40 25 1f 3d 57 3b 23 3d
       -0.05738488 -0.064212225 0.038853884 0.039851513
0000d0 ef 13 f5 3d be ae 26 be 7d 9e 88 bc f2 3f 07 3e
       0.11966693 -0.16277596 -0.016677136 0.13207987
0000e0 96 c5 4e 3e 73 26 94 bc 67 61 0c be a2 ce 88 3d
       0.2019256 -0.01808474 -0.13709031 0.06680037
0000f0 8a 48 0c 3e 99 23 17 be 99 9c 0c be 6c d2 d5 3d
       0.13699546 -0.14759673 -0.13731612 0.104405254

init_net.2.weight f4 [128, 64]
000000 5a 50 03 bc 0b b2 dd bd a2 38 87 bd 09 cd 3d 3d
       -0.008014763 -0.108249746 -0.06602599 0.046338115
000010 eb 1b 1f bd 1b 36 a1 3d 2d 68 b8 3d e5 50 88 3c
       -0.038844984 0.07871648 0.09004245 0.016640136
000020 88 81 14 bc dd 8b 15 bd db 9d bf bb 45 f6 a8 3c
       -0.009064086 -0.036510337 -0.0058476753 0.020625243
000030 45 89 b3 bd e5 26 e3 bc 23 e0 c2 bd 73 af 8f 3d
       -0.087664165 -0.027728507 -0.09515407 0.07015886
000040 93 b5 95 bd ec e4 d4 3d 87 fd f1 bc cd d8 86 bd
       -0.07310023 0.10395226 -0.029539837 -0.0658432
000050 e5 0d 61 3d 88 81 8b 3c 30 3e a1 3d 23 3a 43 3d
       0.05494489 0.017029539 0.078731894 0.047662865
000060 37 bf e1 bd 7c 12 94 3d b8 37 b1 bc 5b 17 50 bd
       -0.110227995 0.07230088 -0.021633014 -0.050803524
000070 40 c3 94 3d a9 c8 aa 3d a4 24 ce bd 4a cc 2c bc
       0.072638035 0.08339054 -0.100655824 -0.010546753
000080 18 52 c0 3d 39 75 35 3d 2f 48 c5 3d 03 7e 21 bd
       0.09390658 0.044301245 0.096329086 -0.039426815
000090 b0 40 81 bd 25 6f c9 3d dd e7 42 3d 57 a0 e0 3d
       -0.06311166 0.09835652 0.047584403 0.109680824
0000a0 9b e1 43 bd c6 80 96 bd 5a c9 5c bc 1c a6 dc bd
       -0.047822576 -0.0734878 -0.01347574 -0.1077387
0000b0 8c 27 37 3d 19 81 ac 3d e2 15 e0 3c 60 2c 3a bc
       0.04471545 0.08423061 0.027354185 -0.011363119
0000c0 dd d1 67 3d ae c5 94 bd 68 7a e4 3d e3 86 e9 bd
       0.056596626 -0.07264267 0.1115616 -0.11402681
0000d0 85 fe e0 bd a5 73 dd bc 72 50 bf 3d 55 65 3b 3c
       -0.10986046 -0.027032683 0.093415156 0.011437734
0000e0 9d ca 32 3d 19 18 ac bd 36 67 2a 3d 88 56 56 bc
       0.04365026 -0.08403034 0.041602336 -0.013082154
0000f0 e6 9b 3a 3d a0 72 a5 3d de 83 4b 3d 71 73 1f bc
       0.045558833 0.080785036 0.049686305 -0.009732113
000100 3c e4 e6 bb 58 2e 92 bd d0 09 29 bd 88 6c 98 3d
       -0.0070462506 -0.071377456 -0.041269124 0.07442576
000110 b1 8d 3b bd a2 52 92 3d 14 12 37 bd 4d 3e da bc
       -0.045789424 0.07144667 -0.044694975 -0.026641035
000120 a8 ad 21 3b 51 45 d6 bd 62 5c 85 ba 62 b6 37 bc
       0.0024670158 -0.1046244 -0.0010174627 -0.011212917
000130 47 4d 20 bc 90 6e b5 bc cf b4 b8 3d 16 09 ad 3d
       -0.009784049 -0.022147447 0.090188615 0.08448999
000140 a0 dc 9d bd 8e 95 5d 3d 09 91 b7 bd 91 63 c6 bd
       -0.077080965 0.054097705 -0.0896321 -0.096869595
000150 8f 4f 0f 3d 11 72 e0 3a 47 13 57 bd f0 a8 e1 bd
       0.034987982 0.0017123838 -0.05250862 -0.110185504
000160 7b 20 35 bd e3 d5 1c 3d 59 80 d8 bd 19 b5 e2 bd
       -0.04422043 0.038289916 -0.105713554 -0.11069698
000170 ca fe 6d 3c a9 a3 a8 bd a8 e1 cc bd 0b 1a 33 bd
       0.0145260785 -0.08234341 -0.10003978 -0.04372601
000180 ac 70 96 bc 86 e1 d4 bd 51 4b 9c bd 7f ab 01 3c
       -0.018364273 -0.10394578 -0.07631553 0.007914423
000190 ca dc dc bd 38 9a 83 bc e1 f0 96 bd 50 e3 a1 bd
       -0.107843 -0.016064748 -0.07370163 -0.079046845
0001a0 1e 7e 38 3d 8c 2d b4 bd 8b 4e b1 bd aa ae 85 3d
       0.04504215 -0.0879775 -0.08657559 0.06527455
0001b0 6e f1 b0 3c 73 cd d5 3d a0 17 f9 bc f4 ce 61 bd
       0.021599498 0.10439577 -0.030406773 -0.055129007
0001c0 09 63 2a bc 68 a2 24 3a 4c dd b3 3d 03 5a e8 bd
       -0.010399588 0.0006280304 0.087824434 -0.113452934
0001d0 cd bf f9 bb 90 43 4f 3d 46 ed 80 bd 74 fd 6d bd
       -0.0076217414 0.050601542 -0.06295256 -0.05810304
0001e0 a7 6e 64 3d 4e cc df bd 23 a3 df 3c b0 4e b4 bd
       0.05576959 -0.1092764 0.02729947 -0.08804071
0001f0 6b da 6a 3d 33 4e c8 bd 4d 22 90 3d 83 c2 dd bd
       0.057337206 -0.0978054 0.07037792 -0.10828116
000200 07 eb c4 bd bc a3 ca 3a 59 7d b8 3d a3 b1 c8 bd
       -0.096151404 0.0015460174 0.09008283 -0.097995065
000210 1b 1d 51 bd 7f 70 cd 3d 82 44 9f bc 89 1b 42 3d
       -0.051053148 0.100312226 -0.019441847 0.04738954
000220 69 64 e1 bd 26 e4 13 bd ff 1b 6e bd d8 36 c5 3d
       -0.1100548 -0.03610625 -0.058132168 0.09629601
000230 40 a6 41 3d 42 71 ab bd c0 09 97 3c 78 b9 b0 ba
       0.04727769 -0.083712116 0.018437266 -0.0013483008
000240 26 29 41 bd bf 86 86 bd e1 9e 1b bd 91 36 b8 3d
       -0.047158383 -0.065686695 -0.037993316 0.08994783
000250 12 f4 a7 bd 7b ea a6 bd 5a d5 11 bd 90 01 fd 3a
       -0.082008496 -0.08150192 -0.03560386 0.0019302834
000260 ae e8 fe 3c 5a df 5e 3b 92 06 e2 bc ac 63 8e bd
       0.03111681 0.003400764 -0.027591024 -0.06952605
000270 f8 27 a8 bc f0 b7 3c bd 0e 1a bd 3d 61 4d e4 bd
       -0.020526871 -0.046073854 0.09233485 -0.11147571
000280 0b 78 95 bd 30 99 be bd f1 7e ab bc 1a 46 b6 3d
       -0.07298287 -0.09306562 -0.020934554 0.089000896
000290 d8 55 cd 3d 61 f4 cb bd a7 58 a4 bb ee 57 89 3d
       0.10026139 -0.09958721 -0.005015451 0.067062244
0002a0 1b 6d 4e 3d 74 d5 bf 3d 13 ff 52 bb f5 75 9d bd
       0.05039702 0.09366885 -0.0032195493 -0.07688514
0002b0 4a cf 9a 3d 71 15 21 bd 02 4d 72 3d ea 39 e7 bc
       0.075590685 -0.03932709 0.05915547 -0.028225858
0002c0 5a d7 46 3d 47 a7 d2 3d eb 5c d9 3d 0a 9c d5 bd
       0.04854522 0.10285812 0.10613426 -0.10430153
0002d0 7e 55 9b bd 90 bb 41 bd 0d 6b 95 bd 85 c1 e0 3d
       -0.07584666 -0.047298014 -0.07295809 0.10974411
0002e0 66 95 28 bc 93 a3 9b bd 19 c9 50 bd 59 ca 81 bd
       -0.010289526 -0.07599559 -0.05097303 -0.06337423
0002f0 73 51 3e 3d 09 58 cc bd 7e 7c da bd 29 ef e6 bd
       0.046464395 -0.09977729 -0.10668276 -0.11276085
000300 5a b7 49 3d 3d 64 68 3d d3 62 91 bd 11 bf e8 3c
       0.049247123 0.05673622 -0.07098927 0.02841142
000310 d0 02 ad 3d d4 c1 89 3c f1 a5 c3 bc 62 77 0a 3c
       0.08447802 0.016816057 -0.023882838 0.008451315
000320 53 ae 48 bc df 9a 6c 3d a4 f1 9e bd a7 3c 6e 3d
       -0.012248593 0.057764884 -0.07760933 0.05816331
000330 d3 85 84 3d 11 42 8d bd 00 4e bf 3d c2 2a e6 3d
       0.064708374 -0.06897367 0.09341049 0.11238624
000340 31 da 37 bd 9f 5e 01 bd 83 af 69 3d 26 05 b7 bd
       -0.044885818 -0.03158438 0.057052147 -0.08936529
000350 2a 54 39 3d 13 bf da 3c bb 7d 94 3d 90 59 cb bd
       0.04524628 0.02670244 0.07250544 -0.09929192
000360 6e 8f c2 bd ec 96 52 3d 43 15 29 3d 1b 9f d9 bd
       -0.09500013 0.05141346 0.041280042 -0.1062605
000370 1d a2 82 bd 2e 4a d6 bd 91 a9 a7 bd f6 bc 52 bd
       -0.06378577 -0.104633674 -0.08186639 -0.05144974
000380 29 eb c1 3d 6d 86 ba bc 43 9e 86 3d 04 e2 de 3d
       0.09468681 -0.022769177 0.06573155 0.10882953
000390 3c 8f 55 3d 57 b5 d1 bd 1d 16 6c 3d 31 2c 33 3d
       0.052138552 -0.10239666 0.057638276 0.043743316
0003a0 a8 a7 b5 3d 9f 06 e7 bd 0a 30 90 3d 21 cd bf 3d
       0.088698685 -0.1128056 0.07040413 0.09365297
0003b0 70 bf d9 bd be e0 45 3c 26 27 c8 3d d4 46 aa bd
       -0.10632217 0.0120775085 0.09773092 -0.08314291
0003c0 5c 1b 1a 3d 53 24 4f 3d 2f f2 f7 3c 52 6b e9 3d
       0.03762375 0.05057175 0.03026685 0.11397423
0003d0 e9 4f c0 3d 55 fe c8 3d 38 58 69 bc 42 82 c4 3d
       0.09390242 0.09814135 -0.014242224 0.09595157
0003e0 fd d2 d9 bd d0 2f 7c bd 2e a8 c7 bc c0 2c 0a bd
       -0.10635946 -0.061569035 -0.024372187 -0.033734083
0003f0 27 de d8 3d 54 ff 5c 3d 20 e0 96 3d 4f 5a 9f 3d
       0.10589247 0.053954437 0.07366967 0.07780897

init_net.2.bias f4 [128]
000000 a5 30 3f bd 9d 90 53 3c e6 4a 5e bd 2b e5 9a 3c
       -0.04667725 0.012912896 -0.054270647 0.018908104
000010 e1 a0 c8 bc bb ed 95 bd 6c 05 ff 3b d0 e9 35 3d
       -0.024490776 -0.07320734 0.0077826288 0.044412434
000020 2b 7c 9a bc 63 15 25 3b 2d 52 e8 bd 44 48 2c bd
       -0.018858036 0.002518975 -0.11343799 -0.042061105
000030 66 d9 ee bd c1 8f ec 3d a9 f8 c6 3d fd a0 c9 bd
       -0.11662559 0.115508564 0.09715397 -0.09845159
000040 ed 60 b1 bd a5 36 ca bd c7 6d 78 3d 70 c5 bf 3c
       -0.08661065 -0.09873704 0.060651567 0.023409575
000050 7d 4e dc bd 04 89 17 bd 07 36 b0 3d 31 0f b7 ba
       -0.10757158 -0.036995903 0.08604055 -0.0013966319
000060 11 02 d4 bd 86 b7 13 3d 1c ff f0 3d 7d b5 d5 3d
       -0.10351957 0.036063693 0.11767408 0.10435007
000070 d0 30 15 3c 49 42 08 bd 04 bc 4b 3c 11 d0 b4 3d
       0.009105876 -0.03326634 0.012434963 0.08828748
000080 64 81 48 3d fb 77 c9 bd 83 ff 7a 3d 56 d2 94 3d
       0.04895152 -0.098373376 0.06127883 0.07266681
000090 5f 58 c3 bd 68 b7 a8 bd d4 e5 a2 3d a1 8e 75 3d
       -0.0953834 -0.08238107 0.079539925 0.059950475
0000a0 55 ca ce bd 45 e0 02 3d 5f 6c 85 3d ac 51 b2 3c
       -0.100971855 0.03195216 0.06514811 0.02176746
0000b0 de 2e 81 3d de 80 1b 3d d9 dd 10 3d 8a 5a 88 3d
       0.06307767 0.037964694 0.03536782 0.06657894
0000c0 fb 32 1f bd 02 fb 6f 3b 48 d1 c6 bc 46 ee a2 bc
       -0.03886698 0.0036618118 -0.024269715 -0.019889008
0000d0 75 75 31 3d 54 94 24 bd c5 9a 8e bb 4a e1 cb 3d
       0.043324906 -0.04018052 -0.004351946 0.0995508
0000e0 03 ed 1f 3d 80 c1 e4 3d 55 0e c8 bb 02 01 22 bd
       0.03904439 0.1116972 -0.006105224 -0.039551742
0000f0 78 1f cb 3d 8b 36 8f bd 46 72 57 3d bb f3 c0 3d
       0.099181116 -0.06992825 0.052599214 0.09421488
000100 f9 0f 85 bd b1 7a c5 bc a0 a8 d1 3d ac e9 2a bc
       -0.06497187 -0.024106355 0.10237241 -0.010431688
000110 1f 3a d2 bd e2 0f 81 bd 2b 89 da bd 45 7a b6 bc
       -0.10264992 -0.063018575 -0.10670694 -0.0222751
000120 a7 36 7a 3d cf d3 83 bc 89 26 99 bc 27 c4 d5 3b
       0.061087277 -0.01609221 -0.018695133 0.0065236273
000130 9a a9 14 bc 6c af a5 bc 9e 26 0d bd e5 97 7c 3c
       -0.009073639 -0.02022525 -0.034460656 0.015417074
000140 84 fe 97 bb a0 fa 98 bc 30 42 f8 bc d6 03 fd 3c
       -0.004638495 -0.018674195 -0.030304998 0.030885618
000150 a8 fd 3c bd ff 99 f1 bb 1e 9f 92 bc bd ea a2 3d
       -0.046140343 -0.007373094 -0.017898139 0.07954929
000160 e2 c0 48 3d be b2 3e 3d eb 88 52 b9 6b e1 93 bd
       0.049012072 0.04655718 -0.00020078167 -0.072207294
000170 30 98 08 3c 6e 8d b8 bd db 40 27 3b 20 70 e5 3d
       0.008337066 -0.090113506 0.0025520835 0.11203027
000180 e0 15 86 bc 02 ca e1 3d ac 33 97 bd ac 38 b6 3d
       -0.016367853 0.11024858 -0.073829025 0.08897528
000190 93 57 2b 3d 60 57 48 bd 22 12 e7 bd 6d 88 60 bd
       0.041831564 -0.048911452 -0.112827554 -0.054817606
0001a0 75 11 60 3d 27 26 e3 3d 0a bf bd bd 71 7c 4e bd
       0.05470415 0.11091261 -0.092649534 -0.050411645
0001b0 11 aa 20 3d dc b6 e9 bc 94 d6 cd bd 23 d5 28 bd
       0.039224688 -0.028529577 -0.10050693 -0.041218888
0001c0 75 a4 21 3d ec 66 e8 bd 4d ca 1b bd 73 e1 88 3d
       0.03946348 -0.11347756 -0.038034726 0.06683626
0001d0 74 1c 5d 3d 66 5d 4b bd 92 d9 da 3d 7c c1 93 3c
       0.053982213 -0.04964962 0.106860295 0.018036596
0001e0 a8 d4 5b 3d ca 41 1a bc ab ed 28 bd f1 fb cc 3d
       0.0536696 -0.009415099 -0.041242283 0.100089915
0001f0 22 73 dc bd 20 09 27 3d 5b 8b 4b bd 6f 95 0e bd
       -0.10764147 0.040780187 -0.049693447 -0.03481048

rnn.weight_ih_l0 f4 [128, 7]
000000 27 eb 7c 3d 22 18 a5 bd ff 63 32 bc 9b 16 e1 bc
       0.061747696 -0.080612436 -0.010888099 -0.0274766
000010 3b 06 73 3d f5 1b 90 bd 5e 6c b7 bc d1 4e 04 bd
       0.059332114 -0.070365824 -0.02239054 -0.032301728
000020 8a a7 4b 3d 9e 1f 82 3d fa 57 dc 3a 87 9f 04 3d
       0.049720325 0.06353687 0.0016810887 0.0323787
000030 e4 75 91 3d 99 7d a0 bd 2b 0c c6 3a 4a 65 84 3d
       0.07102564 -0.07836456 0.0015109828 0.06464632
000040 3f 43 ad bc 15 52 75 bd 8d b7 92 3d 79 98 88 3d
       -0.02115023 -0.059892733 0.07163916 0.06669707
000050 21 a3 22 3d 3f fc 78 3d aa d4 84 bc 19 fa 65 bd
       0.039706353 0.060787436 -0.016214687 -0.056146715
000060 5a 81 92 bd 80 75 09 3d ca fa 01 bd 0b 61 91 3d
       -0.07153578 0.033559322 -0.03173331 0.070985876
000070 95 6f 14 3c 02 af 86 3d f9 22 ab 3b c6 33 98 bc
       0.009059806 0.06576349 0.005222675 -0.018579375
000080 e9 2b fe bc 41 90 60 bd e2 dd 88 bd f9 4b 87 bc
       -0.031026797 -0.05482507 -0.06682946 -0.016515719
000090 2e 9e 67 bd 52 8c a5 bd 59 1b 25 3d c6 10 11 bd
       -0.056547336 -0.080834046 0.040309284 -0.035416387
0000a0 cb c9 4c 3c 4c c3 1c bc 9c 9b 79 bd 3c 1a 04 bd
       0.012499283 -0.009568047 -0.060939416 -0.03225158
0000b0 bf bd 54 bd 66 ff 6e 3c 76 67 9b 3d 00 b2 d1 bc
       -0.05193877 0.014587259 0.07588093 -0.025597572
0000c0 4b 28 b2 3b e5 2d 3d 3d 97 70 52 3d eb b2 e2 3b
       0.005436932 0.046186347 0.051376905 0.0069183013
0000d0 44 3e e3 bc 8a 69 81 bc 9b 10 c7 3b 0d 67 c2 3d
       -0.027739652 -0.015797395 0.0060749776 0.094923116
0000e0 dd 73 3b 3c e8 77 89 3d 10 f4 3c 3d ce 81 88 3d
       0.011441198 0.067123234 0.046131194 0.06665383
0000f0 df 11 65 3c a3 59 8b 3c 93 e4 2f bc e3 0f 54 3d
       0.013981312 0.017010516 -0.010735649 0.051772963
000100 19 92 c4 3d 1d c9 80 3d 93 06 93 bd 47 f9 c1 3b
       0.095981784 0.06288359 -0.07178988 0.0059196088
000110 7a a4 15 bc 3e ed a7 bc 6f 91 90 bd 96 2b e5 bc
       -0.009133453 -0.020498868 -0.07058989 -0.027974885
000120 b0 16 94 3d d9 82 39 3d e2 0a 65 bd 38 60 5b bc
       0.0723089 0.0452908 -0.05591858 -0.01338964
000130 9c 27 1d 3d 58 24 42 3d 68 e1 00 3d 6b 5f 2e bd
       0.038367853 0.04739794 0.031464964 -0.042571466
000140 c3 cc 05 bd d4 db 32 3d 69 46 29 bc 4f e7 84 bd
       -0.03266598 0.043666676 -0.0103317285 -0.06489431
000150 4b 2e 7b bd b8 82 0d bd c6 c2 8c 3d b8 2f 03 bd
       -0.061323445 -0.03454849 0.068730876 -0.03202793
000160 cd e3 3a bc 59 aa 88 b9 30 85 be bd a0 d6 05 bd
       -0.011406851 -0.0002606686 -0.09302747 -0.032675385
000170 82 00 06 3d e3 2f 17 bd 0c 90 81 3d 37 b8 39 bc
       0.032715328 -0.036910903 0.06326303 -0.011335424
000180 dd 8c 63 3d 20 94 55 3b 29 e4 18 bc f3 0c 98 3d
       0.05555426 0.003258951 -0.009331741 0.07424345
000190 43 e7 83 bd b7 85 66 bd 00 23 f6 bc b3 7b 7f 3c
       -0.06440594 -0.056279864 -0.030045986 0.015593457
0001a0 d2 a8 c1 bc 88 52 d0 3c ca 22 eb bc a4 f7 f5 3c
       -0.02364007 0.025429979 -0.028703112 0.03002531
0001b0 08 7a 9a bd 6e 3d 49 3b ab a8 55 3d 63 ae b1 3c
       -0.07542807 0.003070678 0.052162807 0.0216896
0001c0 bb bf 11 bd 85 8e b6 bc 72 5b 90 3c 4d 99 64 bd
       -0.03558324 -0.022284755 0.01762173 -0.05581026
0001d0 31 86 80 bd 6d 11 f7 3b 94 ff 7d bd d9 53 94 3c
       -0.06275595 0.007539919 -0.062011316 0.018106388
0001e0 c4 97 6c bd e2 05 37 3d 2e 3d 41 3d b5 c2 85 3d
       -0.057761922 0.044683345 0.047177486 0.06531278
0001f0 1b d0 67 bd 36 41 5e 39 0a b7 99 3d d9 95 03 bd
       -0.05659495 0.00021195863 0.07505615 -0.032125328
000200 e3 7c ec 3c 67 aa 33 3d bc 62 35 3b de f6 27 bd
       0.028868144 0.04386368 0.0027677258 -0.041006915
000210 76 93 33 3c 91 5c b4 3c 59 15 bd bd 8b ee f1 bc
       0.01096045 0.022016795 -0.09232587 -0.029532691
000220 fb 88 8b bd fc 4e 8c bd ae 75 d7 3c 35 dc f2 3c
       -0.06813236 -0.068510026 0.026301231 0.029646019
000230 58 06 62 bd 5b 53 ca bd 6b 8b 86 bd e0 2e 1d 3d
       -0.05518183 -0.0987918 -0.065695606 0.03837478
000240 73 b1 89 3d 8a 84 0c bd bf 5a 3b bd bf 8a 85 bd
       0.06723299 -0.034306087 -0.04574084 -0.06520604
000250 df 92 f5 bc 02 c1 37 3d b6 c5 1f 3d ca 65 08 bd
       -0.02997726 0.0448618 0.03900691 -0.0333002
000260 fc 63 71 bd df 58 06 bc f1 bf 20 3d fc 20 8b 3d
       -0.058933243 -0.008199899 0.03924555 0.06793401
000270 39 16 8c 3c 8c c2 4e 3d d2 42 87 3d 32 96 48 ba
       0.01710044 0.050478503 0.06604542 -0.00076517754
000280 22 01 8a bc 43 15 46 3d e7 30 52 3c 2b 8b 9e 3d
       -0.016846243 0.04836012 0.012829042 0.07741388
000290 a2 42 33 3d 71 e8 95 3c 0f 14 8b bd 9f b8 5e 3d
       0.043764718 0.018299313 -0.06790935 0.054375287
0002a0 6f fc e7 bc a7 8b 03 bd fa 39 14 3d a2 34 b7 3c
       -0.028318612 -0.032115605 0.036188103 0.022363964
0002b0 d8 0a b5 bc c6 16 b8 bc 94 7c 9d bd ea 2b 0b bd
       -0.022099897 -0.022471797 -0.07689777 -0.033977427
0002c0 32 d1 26 bd 49 55 01 3a 86 07 a7 bc 15 fe 36 3d
       -0.040726848 0.0004933668 -0.02038933 0.044675905
0002d0 94 e1 d3 bc b3 8f 8b bd 12 5e b6 3c b0 d2 82 bb
       -0.0258644 -0.06814518 0.022261653 -0.003992401
0002e0 17 b5 6c 3d bb a2 16 bb 3f b9 8f 3d f8 15 bc 3d
       0.05778989 -0.0022985179 0.07017755 0.09183878
0002f0 3c b2 c9 3d 7f be 0e 3c ed e2 99 3d f2 18 7f ba
       0.09848449 0.00871241 0.07513986 -0.0009731195
000300 48 12 d8 3c 4a 73 1a bd b5 f1 4e bd 61 f8 4d bd
       0.026375905 -0.037707604 -0.05052348 -0.0502857
000310 05 97 9d bd c6 d3 3c bc a3 63 8e bd d5 c4 80 3d
       -0.0769482 -0.0115251 -0.06952598 0.06287543
000320 19 5f 8a bd 6a 20 8d 3d cc 85 c1 3c cc 55 6e bd
       -0.0675642 0.06890948 0.02362337 -0.05818729
000330 44 b9 9e 3d e7 09 dc 3c 77 0e d5 bb 43 48 83 3d
       0.0775018 0.02686019 -0.0065019685 0.06410267
000340 fb d3 6f bd ad f5 86 3d 49 da e6 bb 24 19 03 3c
       -0.05855177 0.06589828 -0.0070450646 0.008001599
000350 00 2c f2 3c 73 b5 07 bd ec aa 84 ba 19 c8 82 3d
       0.029561996 -0.033132028 -0.001012174 0.06385822
000360 e4 fe 16 3d 71 41 20 3d b8 d5 9f 3d 42 da 55 bd
       0.036864176 0.03912491 0.078044355 -0.0522101
000370 e0 2c 72 bc 56 93 90 3d 11 d7 9c bc cc 86 fb 3c
       -0.014781207 0.07059352 -0.01914552 0.030703925
000380 a5 35 03 3d 2a 45 9d bd f5 1b 8c 3a ad 0f 99 3d
       0.03203358 -0.076792076 0.0010689484 0.07473693
000390 fe bf 60 bc 61 db a7 bd 88 46 9c bd d9 56 48 3c
       -0.0137176495 -0.0819614 -0.0763064 0.012227737
0003a0 29 55 72 bd 3d d6 5c bd fc 7f 86 3d c5 e3 3b bd
       -0.059163246 -0.05391525 0.0656738 -0.045871515
0003b0 dd 76 bd bd f0 fa d5 3c 6b b5 7b 3d 88 a2 2d 3d
       -0.09251187 0.026120633 0.06145231 0.04239133
0003c0 1f 74 a5 3d ea 7a 06 3b 23 cd 78 3d b3 66 06 bd
       0.08078789 0.002052004 0.06074251 -0.032812785
0003d0 3b e7 58 bd ae 36 14 3c 4f 91 6c bd e6 54 16 bb
       -0.052954894 0.00904624 -0.057755765 -0.0022938787
0003e0 66 45 05 bc 01 bf 4b 3c 76 03 c8 bc 3e 61 16 bc
       -0.008134222 0.012435676 -0.024415713 -0.009178458
0003f0 37 43 96 bd 3c b7 70 bb 49 20 18 3d ed fe 8f 3d
       -0.07337039 -0.003673031 0.037140165 0.07031045

rnn.weight_hh_l0 f4 [128, 128]
000000 85 5a 70 3d 95 af ad ba 59 10 85 bd dc b0 45 bd
       0.058680076 -0.001325118 -0.06497259 -0.04826437
000010 fb 65 41 3d 97 99 91 bd 4a c7 6e bd 3a 80 5c bd
       0.047216397 -0.07109373 -0.058295526 -0.053833224
000020 69 05 c0 bc 07 8c 04 3d b1 ae 68 3d 62 4f 88 3d
       -0.02344008 0.032360103 0.056807224 0.06655766
000030 33 48 2b 3d 57 c8 6e 3c 1b af bb bc 6d 3e 4a bd
       0.0418169 0.014574132 -0.022910645 -0.04937594
000040 b8 30 27 bd ad 62 f6 3a 57 0c 92 3d 2a 6b cb bc
       -0.040817946 0.0018797718 0.0713126 -0.024831373
000050 d7 ee f6 bb d0 57 fa 3a d2 61 13 bd 6a d6 20 bd
       -0.007535796 0.0019099656 -0.03598196 -0.03926698
000060 0b fb d1 3c 56 35 5c bd d4 d4 05 bc 00 ad b7 bc
       0.025632402 -0.053761803 -0.008168418 -0.02242136
000070 64 f0 83 3c 32 27 2a bc 2f 63 39 bd 28 91 d1 bc
       0.016105838 -0.010385321 -0.045260604 -0.025581911
000080 cf 70 a0 bc 3a 67 26 3d 50 2c 8a 3c f5 c2 c5 bc
       -0.019585041 0.04062579 0.016866833 -0.024140814
000090 cd db 74 3d 1c 1f 31 3c 4f 4f 34 3d c2 ef f2 bc
       0.05977993 0.01081064 0.044020947 -0.029655341
0000a0 00 30 83 bd df 66 a8 bd 44 80 ae bc 92 67 51 3d
       -0.0640564 -0.08222746 -0.021301396 0.051124163
0000b0 b2 3e 46 3d 47 c8 b9 3c 70 dd 95 3c cd 08 59 bd
       0.048399635 0.022678507 0.018294066 -0.05298691
0000c0 ee e7 da bc 86 5e e7 3b 9e 0a 97 bd e3 9c 9a bd
       -0.02672192 0.0070608286 -0.07375072 -0.07549455
0000d0 fc 05 76 bd f4 09 b3 3c 89 3d 2c bc 29 d1 91 bc
       -0.0600643 0.021855332 -0.010512718 -0.01779993
0000e0 7c 82 3b 3d 27 ee 5a bd d4 37 43 bd e1 72 98 bc
       0.045778736 -0.053449776 -0.047660664 -0.018609466
0000f0 8f 03 5b 3d 2d b1 69 3c 1f 06 8e bd 97 68 75 3d
       0.05347019 0.014263433 -0.06934761 0.059914198
000100 ef d8 42 bd ab 1e 86 3d 06 c2 06 3d 6f 73 94 3c
       -0.047570165 0.06548818 0.03289988 0.01812145
000110 63 3f 8b 3d 78 55 ee 3c 7a 77 a4 bd 49 20 14 3d
       0.067991994 0.029093489 -0.08030601 0.036163602
000120 de 1e a7 3d 43 c9 07 bd 74 84 6e 3d a7 09 8d 3d
       0.08160184 -0.033150923 0.058231786 0.06886607
000130 fb dd 8d bc d0 d1 da ba 0d 47 48 bc 02 03 8e 3d
       -0.017317763 -0.0016694609 -0.012223971 0.069341674
000140 f4 86 0e 3d 1f b3 78 3d 30 41 89 bd 14 d6 0f bd
       0.03479667 0.0607177 -0.06701887 -0.03511627
000150 b2 69 6f bd 30 d2 9d 3c 83 f7 fa bc c1 20 cd 3c
       -0.05845041 0.019265264 -0.0306356 0.025040032
000160 b6 6c 2d 3d 18 45 8b bc 6b 7b 35 3c d5 cf 6e bd
       0.042340003 -0.01700072 0.011076788 -0.058303673
000170 4b 0c 37 bc d0 e6 2c 3c 8b d9 6a 3d 14 d1 04 3d
       -0.0111723645 0.010553077 0.05733637 0.032425955
000180 4a 4f ae 3c f6 1c 1e 3d da fc 84 3d 15 66 e7 3b
       0.021278042 0.038601838 0.0649354 0.0070617297
000190 d3 12 a9 3d d5 61 4c bd 4b 18 fb 3c a7 c1 cb 3b
       0.082555436 -0.049897987 0.030651232 0.0062181535
0001a0 e1 d0 6c 3d 83 0a a0 bd 74 39 2b 3d b5 a9 93 bd
       0.05781639 -0.07814505 0.04180284 -0.072101034
0001b0 ed 82 d2 bc 22 0f d8 bc 77 c7 d4 bc d8 42 14 bd
       -0.025697196 -0.026374403 -0.025974018 -0.03619656
0001c0 0e 35 92 bd 0e e8 93 bd f6 48 ac bc f9 34 89 3d
       -0.07139026 -0.07221995 -0.021030884 0.06699557
0001d0 ba da c9 bc bd cb 5c bd 77 3c bc bc 74 b1 86 bd
       -0.02464043 -0.053905237 -0.02297805 -0.06576815
0001e0 3d 80 98 bb f9 d1 86 3d 41 48 a5 bd 33 5f 27 3d
       -0.004653959 0.06583018 -0.08070422 0.040862273
0001f0 0c 0f 7c 3d dc ae 69 3d 51 da 4a bd 76 bc 1e 3c
       0.061537787 0.057051525 -0.04952461 0.009688487
000200 dc f7 51 3d 85 6e 8f bd c5 1c 81 3d ea d0 99 bb
       0.051261768 -0.07003502 0.063043155 -0.004694094
000210 ba 87 98 bd 09 ef 9d bc df 83 24 3b 79 58 05 bd
       -0.07447763 -0.01927902 0.0025103015 -0.032555077
000220 6c 8e 11 bd 76 02 71 bc ef a1 f9 3c de 84 2e 3d
       -0.035536215 -0.014710059 0.030472724 0.04260718
000230 ae 4d 99 bd 47 c0 ba bb ba 42 9f 3c cc d0 85 3d
       -0.07485519 -0.005699191 0.019440997 0.065339655
000240 96 48 37 3d 93 4c 7d 3d 65 96 d7 3c 2d 98 b5 ba
       0.044746958 0.061840605 0.02631683 -0.0013854556
000250 96 0e 19 bd 8f 0f f7 bc 79 fb d9 3c 31 c5 a5 bc
       -0.037367426 -0.030158786 0.02660917 -0.02023563
000260 4a 6e 9b 3d 14 27 29 bd 5e 79 54 3d 7a a5 50 3d
       0.07589395 -0.041297033 0.051873557 0.05093906
000270 d5 7a 54 3d 30 fc 76 3d 30 bb 47 bd e2 d9 3f 3d
       0.051874954 0.0602991 -0.0487625 0.04683865
000280 69 82 a1 bd 9e 12 15 bd e5 ca 6e bc ee 70 90 3d
       -0.07886202 -0.036394708 -0.014574741 0.0705279
000290 f4 67 c1 bc 9f 49 82 bd 8d 01 94 bd aa d5 68 3b
       -0.023609139 -0.06361698 -0.07226858 0.0035527744
0002a0 97 81 fc 3b 07 02 8c 3c 67 ee 89 bc bf 64 e5 3c
       0.007705878 0.01709081 -0.016837312 0.028002141
0002b0 92 05 59 3b 8c 57 d9 bc 76 a6 15 3d 82 5b 6d bd
       0.0033114892 -0.026531003 0.036535703 -0.057948597
0002c0 bb a5 39 bd fb 67 6f 3c e0 aa ea bc b0 3d ab bb
       -0.04532407 0.014612193 -0.028645933 -0.0052258596
0002d0 a9 75 e5 bc e1 9b 2a 3d 65 fb 98 3d c9 ea 82 3d
       -0.028010206 0.041652564 0.07469825 0.06392438
0002e0 15 fb 81 3c 80 cd 4e bd 6b d3 c1 bc 9d 15 14 bd
       0.015866796 -0.05048895 -0.023660382 -0.036153425
0002f0 0e 38 46 bc 5a 20 25 bd d3 57 55 3d ab 60 96 bd
       -0.012098325 -0.040314056 0.05208571 -0.07342657
000300 6e 29 9f 3a da b1 85 3d 21 a5 73 bd f2 00 7e bc
       0.0012143084 0.06528063 -0.05948365 -0.015503155
000310 47 c3 35 3d ea c1 f4 bc 35 24 1c bd be 1b 46 3d
       0.044375684 -0.029877622 -0.038120467 0.0483663
000320 8a bb 5f bd 1e 76 a3 3d 9c 40 92 3d fc 14 0e 3c
       -0.05462221 0.079815134 0.071412295 0.008671995
000330 48 66 88 3c cb 6a 3a bd cb 08 8a 3c 1c 17 7a bd
       0.016650334 -0.045512002 0.016849896 -0.061057195
000340 72 d9 97 bc 04 15 90 3d 43 5a e7 3c 12 7f 6c 3d
       -0.018536303 0.070352584 0.028241282 0.05773837
000350 f1 9b 62 3d e1 c4 9f 3d d3 bf a4 3c ca 9e 75 bd
       0.0553245 0.078012235 0.020111 -0.059965886
000360 bd 25 98 bd 25 b2 68 3d 7a a1 8a 3d 55 3c a6 3d
       -0.07429073 0.056810517 0.067690805 0.08116976
000370 7e ed 5e bd 9a d2 92 3d fa ab fd bc b2 23 b7 3c
       -0.05442571 0.07169075 -0.030965794 0.022355888
000380 69 a9 69 3d f4 31 82 bd 2f 1e 98 bd 40 c6 5a 3d
       0.057046328 -0.06357184 -0.07427632 0.053411722
000390 82 0a 8e bd 5a 23 22 3d 3c 17 47 3d 48 35 88 3d
       -0.06935598 0.039584495 0.048606142 0.066507876
0003a0 a0 c9 77 bb c8 9e 98 bc 84 a7 75 3c 4d 00 59 bc
       -0.0037809387 -0.0186304 0.014993552 -0.013244701
0003b0 1c 9b 9e bd e6 49 ae 3c 04 51 42 bd 76 43 84 3d
       -0.077444285 0.021275472 -0.047440544 0.0645818
0003c0 d4 19 3f bd 85 be 8c bc 53 11 8f bd 36 a9 9f 3d
       -0.04665549 -0.01718069 -0.06985726 0.07795946
0003d0 1e 0f 3e 3d 2b c6 98 3d 18 de 3b 3d 4f 88 4b bd
       0.046401136 0.074596725 0.045866102 -0.04969054
0003e0 c5 17 9b 3d 7a 9b 37 bc 9c ad 96 3d ea 8c 21 3c
       0.07572893 -0.011206502 0.07357332 0.009860257
0003f0 ca a1 66 3d f6 4b 09 bd a1 41 f1 3c f7 11 e3 ba
       0.056306638 -0.033519708 0.02945024 -0.001732408

rnn.bias_ih_l0 f4 [128]
000000 c0 fc ed bc 2e e1 0d 3d d8 92 c8 bd b0 9b b4 3c
       -0.029051185 0.034638576 -0.09793633 0.022046894
000010 31 47 45 3d 7e 7e 9a 3d de 01 12 bd 4c 38 4b 3c
       0.048163597 0.07543658 -0.035646312 0.012403559
000020 81 13 d3 3d 43 93 11 3e 14 7a 10 bd 50 c7 f7 bd
       0.103064544 0.14216332 -0.035272673 -0.12098563
000030 fe 1e 99 3c b8 b2 96 3d 24 9c 63 3d 48 b1 6b bd
       0.018691536 0.07358307 0.05556883 -0.057542115
000040 66 0b 5c 3d 1b 62 ae bd 9b 02 22 bd 81 f2 a8 bd
       0.053721808 -0.08514806 -0.039553266 -0.08249379
000050 fa 8f b7 bd 7a 4c da bd 17 a8 56 bd d7 4a b6 3b
       -0.08963008 -0.10659118 -0.052406397 0.005563121
000060 d6 7a c8 bd 6b 61 a1 bd 24 ad 0d 3c 20 7f 31 3c
       -0.09789054 -0.07879909 0.008647237 0.010833532
000070 71 36 df 3c 70 89 2f bd 86 8c b3 3d 9e 80 7b bd
       0.02724764 -0.04285568 0.08767037 -0.061401956
000080 83 d9 f7 3c 18 a2 12 be 27 36 6c 3c ed ea 86 bc
       0.030255085 -0.14319646 0.014417208 -0.016469443
000090 30 8c 06 3e ab 14 c4 bd 31 6b b5 bc a0 03 93 bc
       0.13139415 -0.095742546 -0.02214584 -0.017946064
0000a0 b9 7b da bd 4c 12 54 3d 65 7e 7c bd fc 31 99 bc
       -0.106681295 0.05177526 -0.061643977 -0.018700592
0000b0 4b ac 20 3b 3c 1a 25 3d 6b 07 a4 3d 8e b6 dc 3c
       0.0024516757 0.040308222 0.08009227 0.026942518
0000c0 b0 93 66 3d 96 8d d5 3d 76 52 ce 3d 59 9b e3 3c
       0.05629319 0.10427396 0.10074322 0.027784036
0000d0 de 39 ed 3c e8 c9 50 3d cc cb 8f 3c cc 54 ab bb
       0.028958257 0.050973803 0.017553233 -0.0052286144
0000e0 4a fd b2 3d d4 76 aa 3a d1 fc 81 bd d5 1a 00 bd
       0.08739717 0.0013005384 -0.06347049 -0.03127559
0000f0 05 b1 75 bd 0a b0 4f bd 76 a1 34 bc 79 92 a5 bd
       -0.059983272 -0.050704993 -0.011024823 -0.08084578
000100 da 57 86 3d 3e 88 fb bc 5e 30 2a bd 07 49 8f 3d
       0.06559725 -0.030704614 -0.041550033 0.06996351
000110 b3 ca 0c 3c 5c f8 74 bd 7d 07 8b bb e3 ff cc bd
       0.008593249 -0.059807166 -0.004242836 -0.10009744
000120 2d 3c f4 bd bb 49 37 3d 8a c3 a9 3d 6b 19 ee bd
       -0.1192554 0.04474805 0.08289249 -0.11625942
000130 36 66 10 bd a9 18 1e 3d 9f e8 cf 3d 6f 2a 9c 3d
       -0.035253726 0.038597737 0.10151791 0.07625281
000140 2b 36 04 3d 89 4f eb bd 64 76 d0 bd 70 c4 b3 3d
       0.03227822 -0.114897795 -0.10178831 0.08777702
000150 8d c0 e8 bd 75 d2 55 bd 93 a2 52 bd c2 b0 ea bd
       -0.11364851 -0.05220266 -0.051424574 -0.11459495
000160 34 39 12 3d 94 fc 9f bd 7e 4a bd bd 73 2b 60 bd
       0.035699084 -0.07811847 -0.09242724 -0.054728936
000170 63 be d3 3d 4c 03 a5 3d dc 8f 4c 3d 69 8b cf 3c
       0.10339048 0.080572695 0.049941882 0.02533503
000180 8c db 04 bd 50 da a9 3c f9 76 ef bc 4b 5f 15 3d
       -0.03243594 0.020733982 -0.029231535 0.03646783
000190 72 e6 4a bd 2e 85 22 3c 59 94 bf bd 08 40 83 bd
       -0.049536176 0.009919448 -0.09354467 -0.06408697
0001a0 81 a0 53 3d 66 1f 3c bd 4c 7b 95 bc 38 90 b3 3d
       0.05166674 -0.04592838 -0.01824727 0.08767742
0001b0 bc 43 3f bd 97 35 18 bc 86 84 ff bc 9f 6c b0 bd
       -0.046695456 -0.009290121 -0.031191122 -0.08614468
0001c0 d8 da f0 3d 8d 53 43 3d 90 89 01 3e e0 49 30 bd
       0.11760491 0.047687102 0.12650132 -0.043039203
0001d0 32 5d 87 3d 08 62 5f bb 61 d4 70 bd 26 75 a7 bd
       0.066095725 -0.003408553 -0.05879629 -0.08176641
0001e0 a2 9c 02 3d 55 e4 13 bd 65 30 fe 3b 26 5f ae 3c
       0.031887658 -0.036106426 0.007757234 0.021285605
0001f0 0f 68 b5 bd e6 fb c5 3d 04 ed 9d b8 b4 01 42 bd
       -0.08857738 0.096671864 -7.530491e-05 -0.047364905

rnn.bias_hh_l0 f4 [128]
000000 a1 32 b6 bd cc 98 29 bc 7b eb a6 bc 5b 7c 00 bd
       -0.088963754 -0.010351371 -0.020375958 -0.031368595
000010 fa 2b 1b bb e2 9e 6b 3d b1 58 00 bd bd 9d 27 3d
       -0.0023677335 0.05752457 -0.031334583 0.040921915
000020 a8 a0 a6 3d 07 de ca 3d c5 6b 57 bd 82 79 8c bd
       0.081361115 0.099056296 -0.05259301 -0.06859113
000030 f0 38 b8 bd fa f6 4a 3d 43 d9 4e 3d e2 ff 28 3c
       -0.08995235 0.04955194 0.050500166 0.0103149135
000040 40 b6 63 bc 31 05 58 bd 77 53 ad 3c c2 6c b0 bd
       -0.013898432 -0.052739326 0.021157963 -0.08614494
000050 1e 61 1c bd 08 20 8f bd 8e 85 6c bd 34 53 29 3d
       -0.038178556 -0.06988531 -0.057744555 0.041339114
000060 9d 5e eb 3c bd e4 b7 bd 4b bf 61 3d 11 43 56 3d
       0.028731639 -0.08979175 0.05511407 0.052310053
000070 95 c0 02 bc 9c 21 6e 3b 21 bf 1f 3c 39 be 86 3d
       -0.007980485 0.003633595 0.0097501585 0.06579251
000080 21 53 24 bc bd 4e 18 be 7e db 9b 3b 0f 45 33 bd
       -0.010029585 -0.14873786 0.00475639 -0.04376703
000090 bc 7d 5f 3d 6a e1 8d bd e3 d6 20 3d 6e 5c d7 bc
       0.05456327 -0.0692776 0.039267432 -0.026289191
0000a0 9d a7 8b bd 13 57 f3 3c 46 17 03 be 02 af ae bd
       -0.06819079 0.029704606 -0.12801847 -0.08529474
0000b0 07 b8 70 3d fe cd 94 3c 55 f5 b9 3d 5a 63 3f bb
       0.058769252 0.018164631 0.090799965 -0.0029203505
0000c0 87 ef 92 3d fa e8 eb 3d c2 0a e6 3d d3 00 99 3c
       0.071745925 0.11519046 0.11232521 0.01867715
0000d0 9d 9b 76 bd f9 bb c5 3d 9d c9 b8 3c 9c 19 00 3e
       -0.060207 0.096549936 0.022557074 0.12509769
0000e0 84 1c f5 3d 16 da 62 3d 66 f1 b2 3b 2f 28 3e bb
       0.119683295 0.055383764 0.005460906 -0.002901565
0000f0 95 40 aa bd 40 2b 7c 3d f3 40 59 bd da 32 b1 3c
       -0.08313099 0.061564684 -0.053040456 0.021630693
000100 d2 70 b9 3b b5 db 61 bd c6 37 ce bd f6 c5 6b 3d
       0.005659201 -0.05514117 -0.10069232 0.057561837
000110 cf 80 4b bd b9 18 87 3d 11 35 30 bc 69 5a 3f bd
       -0.04968339 0.06596512 -0.0107548395 -0.04671708
000120 d3 98 a2 bc 54 9f 8b 3d 0a d1 48 bd 6e 84 d7 bd
       -0.019848263 0.06817499 -0.04902748 -0.10523306
000130 e2 fb 4d bd 4c f1 a3 3c a4 73 be 3d eb 51 a9 3c
       -0.050289042 0.02001252 0.092994004 0.020668944
000140 51 87 04 bc 33 1e 13 3c d9 38 f0 bd b5 8a d2 3d
       -0.008088903 0.008979368 -0.11729593 0.102803625
000150 ad 12 1c 3d 30 64 98 bd 08 67 18 3c b3 60 77 bc
       0.038103748 -0.07440984 0.009301908 -0.0150987385
000160 39 4b 17 bd b1 03 bb bd 1c f6 21 3d be 6c 8e 3d
       -0.036936972 -0.091315635 0.03954135 0.06954335
000170 e7 10 d2 bc 29 91 46 3d 32 5a ed bc 58 0f ae bc
       -0.025642825 0.04847828 -0.028973673 -0.02124755
000180 67 c8 84 bd 17 8e 92 bc 39 ad 0a bd 6a e1 4e bd
       -0.06483536 -0.01789002 -0.033856604 -0.05050794
000190 76 2a bc bd 3f ec f2 3c 93 34 8f bb 34 d1 bf bd
       -0.09187786 0.029653667 -0.004370281 -0.09366074
0001a0 d6 40 a0 3d 92 04 dd 3d 27 ed 24 bd f8 eb 3f 3d
       0.078248665 0.10791887 -0.04026523 0.046855897
0001b0 c9 47 b9 bb ed 0b 69 3b fb 76 14 bd d7 0c 12 bd
       -0.0056543094 0.0035560087 -0.03624628 -0.035656776
0001c0 5d a0 13 3e d7 74 68 3b d4 94 b3 3c 1a 0b 63 3d
       0.14416642 0.0035470033 0.021921553 0.05543051
0001d0 59 9a c7 3d c4 24 a5 bd 9d ff 71 3d 32 70 8b bc
       0.09746236 -0.08063653 0.059081662 -0.017021272
0001e0 37 f4 15 3c 7f 07 e9 3c c6 ef cd 3c bf da 31 bc
       0.009152464 0.028445957 0.025138747 -0.010855376
0001f0 6b 1f 1a bc b9 8b 43 bc 5f e3 90 3b 42 66 2f 3d
       -0.009406905 -0.011935168 0.004421636 0.04282213

output_net.weight f4 [2, 128]
000000 98 b2 3c bb f7 a9 76 bd 14 f7 4e 3c 4c a3 5d bc
       -0.0028792974 -0.060220685 0.01263215 -0.013527703
000010 68 23 cd 3d a8 75 46 3d 5a 68 0d bd 7d e9 46 3d
       0.10016519 0.04845205 -0.034523346 0.048562516
000020 21 12 5f 3d 60 20 ec 3d 62 8b aa bd c8 33 5e bd
       0.05446065 0.115296125 -0.083273664 -0.0542486
000030 ac 25 02 be d2 80 84 3d cc 57 90 bc 1a 0c 12 3d
       -0.12709683 0.06469883 -0.01761999 0.035656072
000040 ec 65 5f 3c 4a 21 9c bd 0f ae a9 bd 0d 7f 13 be
       0.01363514 -0.07623537 -0.08285152 -0.14403935
000050 79 46 a9 bd dd a2 03 be 21 47 34 3d 8c 7d 40 3c
       -0.08265395 -0.12855096 0.044013146 0.011748683
000060 32 22 b4 bd e4 e6 7c bd 96 c8 5f 3d 36 6d ba 3d
       -0.08795585 -0.061743632 0.054634653 0.091028616
000070 b7 1a ba 3c a7 96 92 3d 37 95 88 3d 7c 4f 27 3d
       0.022717817 0.07157641 0.066690855 0.040847287
000080 03 62 31 bd c4 0d 25 be dd ff c8 3c 28 5d 56 3d
       -0.043306362 -0.16118532 0.024536068 0.052334934
000090 00 c9 08 3e 2e 29 52 bd 94 a7 e2 bc 32 84 10 3d
       0.13357925 -0.051308803 -0.027667798 0.03528232
0000a0 ad 47 cf 3c d5 17 89 3d bb 0f 18 be 54 c8 c1 bd
       0.025302732 0.06693999 -0.1484975 -0.09462038
0000b0 50 20 eb 3d 07 e9 02 3e c4 70 0b 3e 2f 80 16 3d
       0.114807725 0.12784205 0.13617235 0.03674334
0000c0 34 cc 1c 3c 22 44 82 3d cf 67 0d 3e c1 38 13 3d
       0.00957017 0.063606516 0.13809131 0.035942797
0000d0 5e c5 7a bd 6a 01 a5 3d 42 47 2e bd a3 d1 ad 3d
       -0.06122338 0.0805691 -0.042548425 0.08487251
0000e0 cf 7a c6 3c 46 66 05 bd 6f 7c 9c bc a7 d5 43 bd
       0.024228482 -0.03256824 -0.019102303 -0.047811177
0000f0 54 71 46 bd cf 81 94 bd 88 5e 01 bd 03 dd 82 bd
       -0.048447922 -0.072513215 -0.031584293 -0.06389811
000100 e9 00 87 3d 38 91 4e bc 98 33 de bd 12 88 c0 3d
       0.065919705 -0.012607865 -0.108496845 0.09400953
000110 a4 b0 c4 3c 2f 28 a6 3d d4 f6 eb bb dd 03 e6 bd
       0.02401001 0.08113133 -0.007201055 -0.112312056
000120 c2 11 a5 bd 23 8e 97 3d 51 a9 05 bd 66 1b e7 bd
       -0.08060028 0.07400157 -0.032632176 -0.11284523
000130 f1 11 9d bd 38 80 0e bd 51 50 d9 3c b0 cb 87 3c
       -0.07669438 -0.034790248 0.026527556 0.016576618
000140 da 11 b4 bc af 93 8e bd e4 f1 e3 bd 2b 0c b6 3d
       -0.021981169 -0.06961762 -0.11130121 0.088890396
000150 fa df 89 bd 06 39 bf bd a2 51 74 3d c9 2d 62 bd
       -0.06732173 -0.09337048 0.059648164 -0.055219445
000160 a5 a3 2b bd f5 3a 25 be b9 82 a4 3c 07 e5 e2 bb
       -0.04190411 -0.16135772 0.020081865 -0.006924275
000170 60 7c 7f 3d 63 52 92 3d 70 e7 00 bd a4 76 30 bb
       0.062374473 0.0714462 -0.031470716 -0.0026926184
000180 f6 ef 06 bc 0e d4 94 3d 2f c0 ae bd 2d e0 99 3d
       -0.008235922 0.07267009 -0.0853275 0.07513461
000190 1e 69 bb bd 36 c7 5a bd 63 80 16 bd 8d b5 7c bd
       -0.09150909 -0.05341264 -0.036743533 -0.061696578
0001a0 57 21 99 3d 5b 1f 73 3d 30 26 c2 bc e4 a1 c3 3d
       0.07477062 0.059356075 -0.02369985 0.095523626
0001b0 0e 4b 32 3d 94 63 ca bd b8 0a 0e bc 80 5a a5 bd
       0.04352861 -0.09882274 -0.008669548 -0.08073902
0001c0 96 b3 29 3e 3c 2c c4 3d b0 09 f0 3d 68 35 a8 bd
       0.16572413 0.095787495 0.11720598 -0.082133114
0001d0 07 59 a8 bc e9 36 b0 bd 26 d4 6e bd 20 7b 36 bd
       -0.020550264 -0.08604223 -0.05830779 -0.044551015
0001e0 7a e3 89 3d b9 f8 13 3d 59 b3 c9 3c 3d 31 d2 3d
       0.06732841 0.036125872 0.024621652 0.10263298
0001f0 e3 03 a1 bd 05 d6 c0 3d c2 fd af bc c6 8e f8 3c
       -0.078620695 0.09415821 -0.021483306 0.030341517
000200 87 27 25 3d 62 a7 2f 3d b1 51 42 3d bc 42 4c 3d
       0.0403209 0.042884238 0.04744119 0.04986833
000210 c7 65 c6 bc 9a 65 69 bd cf 1c 64 3d 73 df 6c 3c
       -0.024218453 -0.05698166 0.055691537 0.014457571
000220 f4 4e a8 3b 70 e0 16 be d7 93 38 bd e1 55 ec 3d
       0.005136365 -0.14734054 -0.045062866 0.115398176
000230 57 f5 e8 3d c6 b5 7b bd ba 40 f5 bc 9f 7d d9 3c
       0.1137492 -0.06145265 -0.02993809 0.026549159
000240 ef 93 04 3d 67 3b e4 3c a0 b9 44 bd af 5c e2 3d
       0.032367643 0.027860356 -0.04802859 0.11052834
000250 aa 45 2a 3e 89 ac ff 3d 67 15 2b bd e5 d8 05 3d
       0.16628137 0.1248408 -0.041768458 0.03267755
000260 4b c5 c4 3c c1 55 0a 3e f6 81 e2 bd 04 5c f0 bc
       0.024019858 0.13509275 -0.11059944 -0.029340751
000270 2a eb cd bc 15 c6 f8 bc 90 45 a5 bb 23 6d 35 ba
       -0.025136549 -0.03036789 -0.005043693 -0.00069208647
000280 f0 82 8d 3b f5 c3 d9 3d 0a 35 97 bd de f5 a4 3d
       0.0043185875 0.10633079 -0.07383163 0.08054708
000290 67 6d 06 be b6 7f 29 3d c2 d3 7d bd 1b 7a 28 3d
       -0.13127671 0.04138156 -0.061969526 0.041132074
0002a0 54 f2 c5 3d ce 4f b9 bd 57 9b ff 3d 77 ad 90 3d
       0.09665361 -0.09048425 0.124808006 0.07064336
0002b0 f4 5a f3 bb 73 72 5b 3c b1 ed f8 bd 20 15 ac 3d
       -0.007426614 0.013393986 -0.12154711 0.08402467
0002c0 ed 0c 9a bd 68 2a af bd ba bf 13 bd 83 0b b5 bd
       -0.07521997 -0.0855301 -0.036071517 -0.08840086
0002d0 ba 68 fa 3a 9e c4 0b 3d 68 7a e6 bb f0 f9 dd bd
       0.0019104697 0.034123056 -0.007033635 -0.108386874
0002e0 59 e2 c3 bd c3 92 3e 3d 66 5d 13 3d cb 5d 07 bd
       -0.09564657 0.04652668 0.035977744 -0.033048432
0002f0 f5 4c 9d 3d 38 57 b6 3c 3e fe bf 3d b0 3c 0a 3d
       0.07680694 0.022258386 0.09374665 0.033749282
000300 fe 8f cd 3b 7d 86 56 3d 7d f5 d9 3d 1d 9f cd bc
       0.0062732687 0.05237435 0.10642526 -0.025100285
000310 bb 12 a7 3d 0c 91 d6 bc 94 2c 6b bd dd 7a 8c 3d
       0.081578694 -0.02619221 -0.05741556 0.06859372
000320 98 92 41 3d 67 fd 76 3d 42 56 b1 bd 1b d4 9e 3d
       0.047258943 0.060300257 -0.086590305 0.077553
000330 7d 22 cf 3d 72 27 93 bd 0a ca 35 bd f2 9b 24 3b
       0.10114 -0.07185258 -0.044382133 0.0025117365
000340 4c 08 b7 3d 00 f7 04 3e 5c 99 07 3e 68 3e 6b bc
       0.089371294 0.12984848 0.13242096 -0.0143581405
000350 f5 56 9c 3d 6f 40 56 bc a3 d4 37 bd 27 5c 55 3d
       0.07633773 -0.013076886 -0.04488052 0.052089836
000360 dd 9b a4 bd 01 f7 29 3e 2a 33 23 3d a3 13 2b 3d
       -0.08037541 0.16598131 0.039843716 0.041766774
000370 a8 ba b6 bc 38 8f 61 bd 5b cc e3 bc 56 36 91 3d
       -0.022305802 -0.055068225 -0.027807405 0.07090442
000380 87 a8 30 bd 0a ca 8d bd b7 a3 9a bc e8 b3 4e 3c
       -0.04312947 -0.069233015 -0.018876893 0.012616135
000390 49 b7 e2 3d 34 e8 92 3a c6 b8 c9 3d 62 20 fe 3d
       0.11070115 0.0011208118 0.09849696 0.1240852
0003a0 ea 54 98 bd 62 94 e9 bc 99 06 23 3d 49 06 83 3c
       -0.07438071 -0.028513137 0.039801214 0.015994208
0003b0 b7 50 9c bb 71 9e 74 bd 66 b7 79 bd b0 9c f8 3d
       -0.004770364 -0.059721414 -0.060965918 0.12139261
0003c0 5e 0e f8 bd c5 a0 b7 bd b8 f3 d1 bd 18 96 ab 3d
       -0.12112115 -0.08966211 -0.10251564 0.083782375
0003d0 8d dc a0 bd 73 40 0b 3d 68 0d ba bd 37 ac 83 3c
       -0.07854567 0.03399701 -0.09084588 0.01607333
0003e0 a5 de 92 3d c5 d6 0e bc 4c 56 9b bd c9 6f 38 bc
       0.07171372 -0.008718197 -0.07584819 -0.01125712
0003f0 1f 0a ba bc e5 21 30 bc ec 27 42 bd 6c e9 ef 3c
       -0.022709904 -0.010750269 -0.047401354 0.029286109

output_net.bias f4 [2]
000000 25 d7 fa be a2 2f 02 3f
       -0.48992267 0.5085393
