src/pred_training/trained_rnn_models/T3_resnet50/pred_rnn/cosine_True_0.01_0.9mammograms_pred_rnn_0.5_7.pth (torch, 641577 bytes, 26 tensors)

init_net.0.weight f4 [64, 15]
0	0xbaf222db	-0.0018473523
1	0x3e078af0	0.13236594
2	0xbe4ff53f	-0.20308398
3	0xbe39f2f6	-0.18159088
4	0xbdc2a201	-0.09503556
5	0x3d87829e	0.0661671
6	0xbba03284	-0.0048888344
7	0x3e4856a0	0.19564295
8	0xbcb361ef	-0.021897284
9	0x3d85b800	0.06529236
10	0xbd98b82d	-0.07457004
11	0xbd46a9e5	-0.048501868
12	0xbe716303	-0.23572926
13	0xbe275689	-0.16341604
14	0xbdd04fd0	-0.10171473
15	0x3c14e498	0.009087704
16	0x3dc80725	0.09766988
17	0x3e17b4ac	0.14815015
18	0xbe2b4b66	-0.16727981
19	0xbddc0e4d	-0.10744915
20	0x3db78c2a	0.08962281
21	0x3e52063e	0.20510194
22	0xbd4fff0b	-0.050780337
23	0x3e3d1422	0.18464711
24	0xbd22e587	-0.039769676
25	0x3cd5e2af	0.026109068
26	0x3e64cb12	0.2234309
27	0xbe6a64a7	-0.22889958
28	0xbe1ed744	-0.15511805
29	0xbd7fde41	-0.062467817
30	0xbdc4c8b6	-0.09608595
31	0x3e5a2920	0.2130475
32	0xbe23c975	-0.15994819
33	0xbde89fa9	-0.11358578
34	0xbe308653	-0.1723874
35	0xbe6ca3b8	-0.23109329
36	0xbe139b92	-0.14414814
37	0x3e592ca1	0.21208431
38	0x3de179f9	0.110095926
39	0x3df4eb92	0.11958994
40	0x3c549ae6	0.012976384
41	0xbe018a60	-0.12650442
42	0x3d2aef75	0.04173227
43	0xbe6c12da	-0.23054066
44	0xbe3691f8	-0.1782912
45	0xbe01a9df	-0.12662457
46	0x3e1f244c	0.1554119
47	0x3e13e16b	0.14441459
48	0xbde01d5d	-0.109431006
49	0xbc11dee6	-0.008903241
50	0x3e2198c8	0.15780938
51	0x3e7aa80b	0.24478166
52	0x3dc88dd6	0.09792678
53	0x3d088911	0.03333384
54	0x3e296889	0.16543783
55	0xbe14c5b5	-0.14528544
56	0x3d3c4f9b	0.045974355
57	0xbe43e530	-0.19130397
58	0xbe2fa9a6	-0.1715456
59	0xbe02864a	-0.1274654
60	0x3de453b7	0.1114878
61	0x3dcad910	0.09904683
62	0xbe15b0ef	-0.14618276
63	0x3d98aa73	0.074543856
64	0x3e0ab55f	0.1354575
65	0xbcff2129	-0.031143742
66	0x3c17bfe8	0.009262063
67	0x3d6a1b5b	0.057154994
68	0x3e1cbfbc	0.15307516
69	0x3e729b2b	0.23692004
70	0xbe42b662	-0.19014886
71	0xbdb93090	-0.09042466
72	0x3dc68d33	0.096949
73	0x3e51230f	0.2042353
74	0x3e5bdfdc	0.21472114
75	0x3e5efc63	0.21775965
76	0x3d4ae514	0.049534872
77	0xbe5b77df	-0.21432446
78	0x3cb9f305	0.022698889
79	0xbe1e1224	-0.15436608
80	0xbe6b79de	-0.22995707
81	0x3e611b66	0.21983108
82	0x3e4026d6	0.18764815
83	0xbe7c0adb	-0.24613516
84	0x3d3d312b	0.04618947
85	0xbd2a41fd	-0.041566838
86	0xbd264d50	-0.040601075
87	0xbde742e8	-0.11292058
88	0x3dc3b472	0.095559016
89	0xbe15a81a	-0.14614907
90	0x3db8f682	0.09031393
91	0x3e00113f	0.12506579
92	0x3e3533e0	0.1769557
93	0x3dbcf398	0.09226149
94	0xbe7a134f	-0.24421428
95	0xbe23e7cd	-0.16006394
96	0x3dfd554e	0.12369786
97	0x3d53a84a	0.051674165
98	0xbe451482	-0.19246104
99	0xbe117d78	-0.14208019
100	0x3e6db33c	0.23212904
101	0x3e2a420f	0.16626762
102	0xbddc3eaa	-0.1075414
103	0xbd7be8ff	-0.0615015
104	0xbe70b11b	-0.2350506
105	0xbb915418	-0.0044350736
106	0xbe3e462a	-0.18581453
107	0xbe42e5bc	-0.19032949
108	0xbc5ec04a	-0.01359565
109	0x3d17bf73	0.037047815
110	0xbdcef36b	-0.10105022
111	0x3e15eda0	0.14641428
112	0xbe19c237	-0.15015493
113	0x3e6543af	0.223891
114	0x3e2d2784	0.16909605
115	0xbe551252	-0.2080777
116	0xbd7b8a91	-0.061411444
117	0x3c366ac5	0.011133854
118	0x3d137570	0.03600067
119	0x3d6fb4d6	0.058522068
120	0x3dc605e7	0.096690945
121	0x3c705697	0.014669082
122	0xbdf69a6e	-0.12041174
123	0x3def1ed8	0.11675805
124	0xbe725f40	-0.23669147
125	0xbe15c22f	-0.14624856
126	0xbd7d6ed9	-0.06187329
127	0xbdf62c61	-0.12020183
128	0xbdb0cadc	-0.08632442
129	0xbe4f17cb	-0.2022392
130	0xbd56fc84	-0.05248691
131	0x3d58045c	0.052738532
132	0xbe249c58	-0.16075265
133	0xbc519093	-0.012790817
134	0x3e34dfaf	0.17663454
135	0xbccd1e65	-0.025038907
136	0x3bcd7a6f	0.0062706987
137	0xbcb37437	-0.021906001
138	0x3d4c8ab4	0.049936965
139	0x3e20a82e	0.15689155
140	0x3e6f5701	0.23373033
141	0x3e1f6a11	0.15567805
142	0x3e6fd5b1	0.2342136
143	0xbc926768	-0.017871574
144	0xbe62fa78	-0.22165859
145	0xbdef91b4	-0.116977125
146	0x3e2c04e9	0.16798748
147	0xbadcc584	-0.0016843532
148	0xbdfda5bf	-0.12385129
149	0xbe419f96	-0.18908533
150	0xbe6c681d	-0.23086591
151	0xbe554657	-0.20827614
152	0xbd4d0eb9	-0.05006287
153	0x3e0a90b3	0.13531761
154	0x3e089a73	0.13340168
155	0xbe73aeb4	-0.23797113
156	0x3e1d93a0	0.15388346
157	0xbe45b730	-0.19308162
158	0xbd55a9b1	-0.052163783
159	0xbdcce715	-0.10005013
160	0xbd42abde	-0.047527187
161	0xbd46713a	-0.048447825
162	0xbe62bb9b	-0.22141878
163	0xbe5a32be	-0.21308419
164	0xbd1e2658	-0.038610786
165	0x3b57744a	0.003287571
166	0xbde5b2ae	-0.11215721
167	0x3dbe28ce	0.092851266
168	0xbe636ab8	-0.22208679
169	0xbc886a56	-0.016652267
170	0x3e5e33a4	0.21699387
171	0xbdce5e44	-0.100765735
172	0x3e642595	0.22279961
173	0x3db6f5a3	0.0893357
174	0xbe6405a4	-0.22267777
175	0x3e1fdc58	0.15611398
176	0xbce9307c	-0.028465502
177	0xbde19d0a	-0.11016281
178	0x3e49e0f4	0.19714719
179	0xbe4c2e27	-0.1993948
180	0x3cd8f804	0.02648545
181	0xbd5390ac	-0.05165164
182	0x3e3468e0	0.17618132
183	0x3d8d1006	0.06887822
184	0x3df2d154	0.118563324
185	0x3db276ed	0.087140895
186	0xbd731d6d	-0.059354234
187	0xbd548764	-0.05188693
188	0xbe503730	-0.20333552
189	0x3e08e812	0.13369778
190	0x3e489cfd	0.19591136
191	0x3e2ce141	0.16882803
192	0xbe323abc	-0.17405218
193	0x3c341122	0.010990413
194	0xbe321d71	-0.17394044
195	0xbe0b4b05	-0.13602836
196	0xbe12ec61	-0.14347984
197	0x3dad5d55	0.08465067
198	0xbe16918a	-0.14703956
199	0xbbb066a0	-0.0053833276
200	0x3c2a1197	0.01038017
201	0x3e236b75	0.1595896
202	0xbe3efad0	-0.18650365
203	0xbe2d70b9	-0.16937532
204	0xbe12b63d	-0.14327331
205	0x3e30da38	0.17270744
206	0xbdb5a276	-0.088688776
207	0x3e552c0b	0.20817582
208	0x3db804e5	0.089853086
209	0x3cfff486	0.031244528
210	0xbaf1f720	-0.001846049
211	0xbd47d4e7	-0.048787024
212	0x3cfd940a	0.03095438
213	0xbd66c866	-0.05634346
214	0xbae33f12	-0.0017337522
215	0x3d00f471	0.031483117
216	0xbe45a375	-0.19300635
217	0xbe046e8a	-0.12932792
218	0x3e4c036e	0.19923183
219	0xbe4d0d77	-0.20024668
220	0xbc912550	-0.017717987
221	0x3e79f339	0.24409188
222	0x3db68c02	0.08913423
223	0x3be4779f	0.0069722678
224	0xbe5af711	-0.21383311
225	0x3dfa2006	0.12213139
226	0xbe3405d5	-0.1758035
227	0xbd8f8f73	-0.07009783
228	0xbda98c87	-0.082787566
229	0xbd15ab0a	-0.03654007
230	0x3b30e18f	0.0026989912
231	0x3e504d7b	0.20342056
232	0x3cfc55ee	0.030802693
233	0x3e624ecc	0.22100371
234	0x3e1a8f70	0.1509378
235	0xbe1fbd99	-0.1559967
236	0x3de2a57d	0.11066721
237	0xbe329c67	-0.17442475
238	0xbdd663f7	-0.104682855
239	0x3d94a1ac	0.07257399
240	0x3da6c5e9	0.08143217
241	0x3e3ded04	0.18547446
242	0xbda21590	-0.07914269
243	0x39cf190a	0.00039500772
244	0x3e02146c	0.12703103
245	0xbe745a9e	-0.23862693
246	0x3e37432b	0.17896716
247	0xbe50ed0b	-0.20402925
248	0x3b5f360b	0.0034059312
249	0xbd2bcf01	-0.04194546
250	0xbe051337	-0.12995611
251	0x3d05962a	0.03261391
252	0x3e50fd47	0.20409118
253	0xbd926505	-0.07148174
254	0xbe160206	-0.1464921
255	0xbdbad5a5	-0.09122781

init_net.0.bias f4 [64]
0	0xbe349368	-0.17634356
1	0x3d5a61b4	0.053315833
2	0x3e65e888	0.22451985
3	0xbe79115a	-0.24323025
4	0xbe7b769e	-0.24556968
5	0x3d043db4	0.032285407
6	0x3e3ee177	0.18640696
7	0xbe19bf10	-0.15014291
8	0x3d5df695	0.054190237
9	0x3e30630b	0.17225282
10	0x3d9bbc48	0.07604271
11	0x3d5a0c39	0.053234313
12	0x3e7c1447	0.2461711
13	0x3e253fdc	0.16137642
14	0xbe0e1f4c	-0.13879126
15	0x3caddaf1	0.021222563
16	0x3e01be88	0.12670338
17	0x3e5ebaa1	0.21750881
18	0xbe7adf26	-0.24499187
19	0x3e0971ce	0.1342232
20	0xbd92c792	-0.07166971
21	0xbe77587f	-0.24154852
22	0x3d61677a	0.055030324
23	0xbe092454	-0.13392764
24	0x3d107982	0.03527213
25	0xbe238427	-0.15968381
26	0xbe3e128c	-0.18561763
27	0xbca55ea1	-0.020186724
28	0xbda9f318	-0.082983196
29	0x3e13f5d9	0.14449252
30	0x3cb30803	0.021854406
31	0x3e466b52	0.19376877
32	0x3d3d76be	0.04625582
33	0xbda27f23	-0.07934406
34	0x3e2b0f72	0.1670511
35	0x3c5654da	0.013081754
36	0x3d3ddb29	0.046351586
37	0xbda2d407	-0.07950597
38	0x3a96a8f3	0.0011494443
39	0xbd43a75b	-0.047767024
40	0xbcabe0ff	-0.02098131
41	0xbe44e9a7	-0.19229756
42	0xbb03e7a2	-0.0020127078
43	0xbe51bc39	-0.20481957
44	0xbd5a684f	-0.053322133
45	0x3e11f5b5	0.14253886
46	0xbe2fbd5e	-0.17162082
47	0xbe2a3b3b	-0.16624157
48	0xbd7804a7	-0.06055131
49	0xbd8a9fd8	-0.06768769
50	0x3d24fe7d	0.04028176
51	0x3d27f665	0.041006465
52	0x3e0097ad	0.1255786
53	0xbe2e0cc6	-0.1699706
54	0xbc8dca25	-0.017308304
55	0x3e0cec4d	0.13762017
56	0x3e59c14a	0.2126514
57	0xbc949581	-0.018137695
58	0xbe10e78a	-0.14150825
59	0x3d91b442	0.071144596
60	0x3e0fc089	0.1403829
61	0xbe1ddc2b	-0.15416019
62	0xbe12c172	-0.14331606
63	0x3ddf545d	0.10904763

init_net.2.weight f4 [128, 64]
0	0xbc092174	-0.008369792
1	0xbde7531d	-0.112951495
2	0xbd8d292b	-0.06892618
3	0x3d46450f	0.048405703
4	0xbd26162b	-0.040548485
5	0x3da891bd	0.08230922
6	0x3dc0f110	0.09420979
7	0x3c8e5ab8	0.017377242
8	0xbc1af388	-0.009457476
9	0xbd1bd369	-0.038043413
10	0xbbc77ad8	-0.006087642
11	0x3cb14131	0.021637531
12	0xbdbb32c3	-0.091405414
13	0xbcebeb33	-0.028798675
14	0xbdcb80af	-0.09936654
15	0x3d9619b2	0.0732912
16	0xbd9c229b	-0.07623788
17	0x3dded251	0.108799584
18	0xbcfc9685	-0.030833492
19	0xbd8c7fa9	-0.06860287
20	0x3d6b07dc	0.057380542
21	0x3c91ca37	0.017796619
22	0x3da8ce6b	0.08242496
23	0x3d4c0d45	0.049817342
24	0xbdebbb84	-0.11510375
25	0x3d9aa9ae	0.07551895
26	0xbcb8c4e6	-0.022554826
27	0xbd58eda7	-0.052961018
28	0x3d9b5aa9	0.075856514
29	0x3db25df8	0.08709329
30	0xbdd725fc	-0.10505292
31	0xbc3306a7	-0.010926879
32	0x3dc8da67	0.09807282
33	0x3d3d7ef1	0.04626364
34	0x3dce0b1f	0.10060715
35	0xbd2853f8	-0.041095704
36	0xbd86f9b1	-0.065905936
37	0x3dd25c76	0.10271542
38	0x3d4bb35e	0.049731605
39	0x3deaa88b	0.11457928
40	0xbd4c87c2	-0.049934156
41	0xbd9d2112	-0.07672323
42	0xbc660923	-0.014040264
43	0xbde661d2	-0.112491265
44	0x3d3f80d3	0.046753716
45	0x3db44ac9	0.08803327
46	0x3cea7c3b	0.02862369
47	0xbc4203ae	-0.011841698
48	0x3d725583	0.05916358
49	0xbd9b5338	-0.07584232
50	0x3deee49c	0.116646975
51	0xbdf39d55	-0.11895243
52	0xbdeac33e	-0.11463021
53	0xbce73fb1	-0.028228613
54	0x3dc7cef6	0.097562715
55	0x3c43cb20	0.011950284
56	0x3d3b2c00	0.04569626
57	0xbdb39701	-0.08769036
58	0x3d32207e	0.04348802
59	0xbc5ddba2	-0.013541134
60	0x3d43751f	0.047719117
61	0x3dacc702	0.08436395
62	0x3d549b40	0.05190587
63	0xbc267f5a	-0.010162199
64	0xbbf11e88	-0.007358376
65	0xbd99dbcf	-0.07512628
66	0xbd3148e6	-0.043282412
67	0x3d9edba8	0.0775674
68	0xbd4467dd	-0.047950614
69	0x3d97797d	0.07396219
70	0xbd438301	-0.047732357
71	0xbce3e939	-0.02782117
72	0x3b257d79	0.002525179
73	0xbde0e997	-0.10982054
74	0xbaa67518	-0.0012699692
75	0xbc4839a9	-0.0122207785
76	0xbc3418d8	-0.010992251
77	0xbcc6fc2b	-0.024290165
78	0x3dc0dd5e	0.094172224
79	0x3db4761c	0.0881159
80	0xbda65695	-0.08121983
81	0x3d610c60	0.054943442
82	0xbdc00638	-0.09376186
83	0xbdd0d7c8	-0.10197407
84	0x3d157e76	0.036497556
85	0x3ae3e5eb	0.0017387246
86	0xbd664383	-0.056216728
87	0xbdec1fc7	-0.115294985
88	0xbd3d9870	-0.046287954
89	0x3d23326c	0.039843008
90	0xbde2a2eb	-0.110662304
91	0xbdee34d1	-0.11631168
92	0x3c783444	0.01514918
93	0xbdb0567b	-0.08610245
94	0xbdd68586	-0.10474686
95	0xbd3d51e7	-0.046220686
96	0xbc9ddbf4	-0.01926992
97	0xbdde4f94	-0.10855022
98	0xbda3740f	-0.07981121
99	0x3bf868f6	0.0075808717
100	0xbde6b906	-0.11265759
101	0xbc89a2ca	-0.016801257
102	0xbd9e28eb	-0.07722648
103	0xbda9ec1c	-0.082969874
104	0x3d40109a	0.046890832
105	0xbdbc6020	-0.09198022
106	0xbdb9852c	-0.09058604
107	0x3d8b78d0	0.068101525
108	0x3cb600c4	0.022217162
109	0x3dde8d05	0.10866741
110	0xbd032682	-0.032019146
111	0xbd6c96f5	-0.05776115
112	0xbc36c62e	-0.011155648
113	0x3a173137	0.00057675265
114	0x3db9e1c6	0.09076266
115	0xbdf4430c	-0.11926851
116	0xbc1083ba	-0.008820469
117	0x3d587064	0.05284156
118	0xbd86c49b	-0.06580468
119	0xbd78af98	-0.060714334
120	0x3d6b4949	0.057442937
121	0xbdead5f0	-0.114665866
122	0x3ce6ec2c	0.028188787
123	0xbdbe05a7	-0.09278422
124	0x3d7223e5	0.059116263
125	0xbdd12fa2	-0.10214163
126	0x3d9659e2	0.073413625
127	0xbde79725	-0.113081254
128	0xbdcda415	-0.10041062
129	0x3aff3acd	0.001947248
130	0x3dc0e327	0.09418326
131	0xbdd16a21	-0.102253206
132	0xbd5a1566	-0.053243063
133	0x3dd74a4a	0.105122164
134	0xbca165e8	-0.019701913
135	0x3d4ab4b0	0.049488723
136	0xbdeb50f3	-0.11490049
137	0xbd192704	-0.037390724
138	0xbd78379d	-0.060599912
139	0x3dce9018	0.100860775
140	0x3d4c0ee3	0.049818885
141	0xbdb1c089	-0.08679301
142	0x3c9dd0ea	0.019264657
143	0xbaaf647f	-0.0013381391
144	0xbd48160b	-0.048849147
145	0xbd8ab86c	-0.06773457
146	0xbd222918	-0.03958997
147	0x3dc15938	0.09440845
148	0xbdaf5898	-0.0856182
149	0xbdae3dec	-0.085079044
150	0xbd152cdf	-0.036419746
151	0x3b0cea84	0.0021502087
152	0x3d0554e8	0.032551676
153	0x3b6deef5	0.003630576
154	0xbceadba2	-0.028669182
155	0xbd93e2f1	-0.0722102
156	0xbcaf8678	-0.021426424
157	0xbd44d423	-0.04805387
158	0x3dc5d3f2	0.09659566
159	0xbdedc644	-0.11610082
160	0xbd9bfd2e	-0.076166496
161	0xbdc70a82	-0.09718801
162	0xbcb28f87	-0.021796955
163	0x3dbf1947	0.09330993
164	0x3dd676a5	0.104718484
165	0xbdd4f62c	-0.10398516
166	0xbba6f8e8	-0.00509559
167	0x3d8fe031	0.07025183
168	0x3d57dd70	0.052701414
169	0x3dc8749d	0.09787867
170	0xbb55817e	-0.0032578404
171	0xbda45638	-0.080242574
172	0x3da20d2e	0.0791267
173	0xbd275b56	-0.04085859
174	0x3d7dae73	0.061933946
175	0xbcf0a5a1	-0.029375853
176	0x3d505cc3	0.050869714
177	0x3ddc16eb	0.10746559
178	0x3de41808	0.11137396
179	0xbdde2403	-0.108467124
180	0xbda141f9	-0.078739114
181	0xbd4a4ce5	-0.04938974
182	0xbd9bf989	-0.076159544
183	0x3deac32e	0.11463009
184	0xbc28c380	-0.010300517
185	0xbda1ec18	-0.079063594
186	0xbd594d7d	-0.053052414
187	0xbd86964e	-0.06571637
188	0x3d489281	0.048967842
189	0xbdd563b0	-0.104194045
190	0xbde40f4d	-0.11135731
191	0xbdf128e1	-0.11775375
192	0x3d52a6d8	0.051428646
193	0x3d71c62a	0.059026875
194	0xbd97f6c9	-0.074201174
195	0x3cf29a6a	0.029614646
196	0x3db492d2	0.08817066
197	0x3c8dc6d9	0.017306732
198	0xbccfa332	-0.025346372
199	0x3c10999e	0.008825688
200	0xbc51ee99	-0.012813234
201	0x3d7635ec	0.060110018
202	0xbda622f3	-0.08112135
203	0x3d7800b8	0.06054756
204	0x3d89c996	0.067279026
205	0xbd945e64	-0.07244566
206	0x3dc7c43a	0.09754224
207	0x3df04504	0.11731914
208	0xbd411ae3	-0.04714478
209	0xbd096d74	-0.03355165
210	0x3d73ce31	0.05952281
211	0xbdbfc6fd	-0.09364126
212	0x3d417bdf	0.047237273
213	0x3ce44711	0.027865918
214	0x3d9a0b82	0.07521726
215	0xbdd489bb	-0.103778325
216	0xbdcb4224	-0.09924725
217	0x3d5bb9e9	0.053644095
218	0x3d302aec	0.043009683
219	0xbde3ca3d	-0.11122558
220	0xbd886e8f	-0.066617124
221	0xbddfdb10	-0.10930455
222	0xbdaf4fab	-0.08560117
223	0xbd5cf0ff	-0.05394077
224	0x3dca7188	0.098849356
225	0xbcc2c99e	-0.02377778
226	0x3d8c8038	0.06860393
227	0x3de83eb7	0.11340087
228	0x3d5efa88	0.054438144
229	0xbddb02bf	-0.10693883
230	0x3d76246a	0.06009332
231	0x3d3a8b1d	0.045542825
232	0x3dbd9a16	0.09257905
233	0xbdf15844	-0.117844135
234	0x3d966ed5	0.07345358
235	0x3dc83e5d	0.0977752
236	0xbde3a5c5	-0.111156024
237	0x3c4c5edd	0.012473789
238	0x3dd0cf83	0.1019583
239	0xbdb1f4dc	-0.08689281
240	0x3d2074e9	0.039173994
241	0x3d582e20	0.052778363
242	0x3d0004a1	0.031254414
243	0x3df3283d	0.11872909
244	0x3dc834d0	0.09775698
245	0x3dd1e4d3	0.10248723
246	0xbc73ff21	-0.01489237
247	0x3dcd2e96	0.10018651
248	0xbde417b5	-0.11137334
249	0xbd8415a2	-0.06449439
250	0xbcd17f6c	-0.025573455
251	0xbd11989a	-0.035545923
252	0x3de1dee7	0.110288434
253	0x3d66c7e6	0.05634298
254	0x3d9d7e20	0.07690072
255	0x3da668f0	0.08125484

init_net.2.bias f4 [128]
0	0xbd45aaa5	-0.048258442
1	0x3c2d2f87	0.010570413
2	0xbd6153ba	-0.05501149
3	0x3c98d349	0.018655436
4	0xbcdbe02a	-0.026840288
5	0xbda043a7	-0.07825404
6	0x3bfc6627	0.007702607
7	0x3d441ed0	0.047880948
8	0xbcbdf7be	-0.023189422
9	0x3b163bd9	0.0022923856
10	0xbdf1183a	-0.11772199
11	0xbd2a9695	-0.041647512
12	0xbdf42281	-0.119206436
13	0x3df310b0	0.11868417
14	0x3dd1aa7e	0.10237597
15	0xbdd11db9	-0.10210747
16	0xbdbe1cc5	-0.09282831
17	0xbdcda4da	-0.100412086
18	0x3d8ba5da	0.06818743
19	0x3cd1f2fe	0.025628563
20	0xbde0d9cb	-0.10979041
21	0xbd17db6e	-0.0370745
22	0x3db52336	0.088446066
23	0xba5318df	-0.00080527173
24	0xbdde257c	-0.10846993
25	0x3d2ffc19	0.04296503
26	0x3df36bf9	0.118858285
27	0x3de09097	0.10965078
28	0x3c2386f7	0.009980909
29	0xbd0bedfb	-0.034162503
30	0x3c6446fd	0.013932941
31	0x3db6dcd6	0.0892884
32	0x3d542bb7	0.051799502
33	0xbdcca13d	-0.09991691
34	0x3d7cc10b	0.061707538
35	0x3da0c553	0.078501366
36	0xbdcf48c4	-0.10121301
37	0xbdac7169	-0.08420069
38	0x3da4e882	0.0805216
39	0x3d8682ac	0.065678924
40	0xbdd65c3e	-0.104668126
41	0x3d0a5563	0.033772837
42	0x3d92799e	0.07152103
43	0x3cd5a797	0.02608089
44	0x3d82eb0a	0.063924864
45	0x3d1d681f	0.038429376
46	0x3d0b8900	0.0340662
47	0x3d914510	0.07093251
48	0xbd261f03	-0.04055692
49	0x39a2b659	0.00031034907
50	0xbce695dd	-0.028147632
51	0xbca7bbe2	-0.020475332
52	0x3d3afed8	0.045653194
53	0xbd3b7656	-0.04576715
54	0xbbd3fc14	-0.006469259
55	0x3dd17471	0.102272876
56	0x3d1ddf3b	0.038542967
57	0x3df02be6	0.11727123
58	0xbb90fe1d	-0.004424824
59	0xbd335957	-0.043786373
60	0x3dd945be	0.106090054
61	0xbd9950d1	-0.07486118
62	0x3d65dd1e	0.056119077
63	0x3dcd9d92	0.1003982
64	0xbd88be93	-0.06676974
65	0xbcc3e5fb	-0.023913374
66	0x3ddd4151	0.10803474
67	0xbc03f421	-0.00805381
68	0xbdd2720b	-0.10275658
69	0xbd86d818	-0.06584185
70	0xbde81864	-0.11332777
71	0xbcbc6601	-0.022997858
72	0x3d8ab83b	0.067734204
73	0xbc86be9a	-0.016448308
74	0xbcc05a5c	-0.023480587
75	0x3c182937	0.00928717
76	0xbc3e047a	-0.011597747
77	0xbca5e523	-0.020250862
78	0xbd195386	-0.03743317
79	0x3c840af9	0.016118513
80	0xbc03b9a5	-0.008039867
81	0xbc8dea2f	-0.017323582
82	0xbcf46196	-0.029831689
83	0x3d004030	0.031311214
84	0xbd351157	-0.04420599
85	0xbbea681d	-0.0071535246
86	0xbc921327	-0.017831398
87	0x3dac93c2	0.0842662
88	0x3d548117	0.051880922
89	0x3d4c3085	0.04985096
90	0xbacdeb42	-0.0015710371
91	0xbd987270	-0.07443702
92	0x3befc8f0	0.007317655
93	0xbdbe16b2	-0.092816725
94	0x3b689522	0.003548928
95	0x3ded819c	0.11596987
96	0xbc88f97c	-0.016720526
97	0x3de7dd89	0.11321551
98	0xbd984293	-0.07434573
99	0x3dc08de0	0.094020605
100	0x3d39add1	0.04533178
101	0xbd598c7f	-0.053112503
102	0xbdf02a44	-0.117268115
103	0xbd586b7f	-0.05283689
104	0x3d5da81f	0.05411541
105	0x3dede971	0.11616791
106	0xbdc0bb8e	-0.09410773
107	0xbd561517	-0.052266207
108	0x3d3034f0	0.043019235
109	0xbd02ec1b	-0.03196345
110	0xbdd06f32	-0.10177459
111	0xbd227a75	-0.039667565
112	0x3d1ff8bb	0.039055567
113	0xbdf16723	-0.1178725
114	0xbd330e61	-0.043714885
115	0x3d8ddc12	0.06926741
116	0x3d683f86	0.056701206
117	0xbd4ef00a	-0.050521888
118	0x3de1a9c3	0.110187076
119	0x3c92726e	0.01787683
120	0x3d6cf160	0.05784738
121	0xbc26d30d	-0.010182154
122	0xbd3a71d9	-0.04551873
123	0x3dd883f2	0.105720416
124	0xbde5876f	-0.112074725
125	0x3d29c56a	0.041448034
126	0xbd59990f	-0.053124484
127	0xbd1fbdf0	-0.038999498

rnn.weight_ih_l0 f4 [128, 7]
0	0x3d84105b	0.06448432
1	0xbd9b3747	-0.07578903
2	0xbc39f097	-0.011348865
3	0xbceae244	-0.028672345
4	0x3d7da338	0.061923236
5	0xbd805f9d	-0.06268237
6	0xbc7ded27	-0.015498436
7	0xbd0a06b4	-0.0336978
8	0x3d817d5e	0.0632274
9	0x3d87dccd	0.06633911
10	0x3ae48ea3	0.0017437529
11	0x3d0aeb0e	0.033915572
12	0x3dad4ebf	0.08462285
13	0xbd943951	-0.07237495
14	0x3acf27d8	0.0015804721
15	0x3d9c4c85	0.076317824
16	0xbcb4e99d	-0.022084052
17	0xbd8015b8	-0.062541425
18	0x3d993364	0.07480505
19	0x3da22923	0.079180025
20	0x3d498814	0.04920204
21	0x3d820fc4	0.06350663
22	0xbb3d2223	-0.0028859458
23	0xbd7020b1	-0.058624927
24	0xbd98fa68	-0.07469636
25	0x3d0fcdbc	0.035108313
26	0xbc9ab908	-0.018887058
27	0x3db1315c	0.08651993
28	0x3c1a9e64	0.009437177
29	0x3d6886ac	0.056769058
30	0x3bb26def	0.005445234
31	0xbc9f0098	-0.019409463
32	0xbd050b0a	-0.03248123
33	0xbd8f0e10	-0.06985104
34	0xbda45392	-0.08023752
35	0xbc8d9c50	-0.01728645
36	0xbd91b434	-0.07114449
37	0xbdacdbe7	-0.084403805
38	0x3d2c7532	0.042103954
39	0xbd181d1d	-0.03713714
40	0x3b1ed94e	0.002423841
41	0xbca111f0	-0.019661874
42	0xbd8244e6	-0.063607976
43	0xbcdc1ccd	-0.026869202
44	0xbd5e3048	-0.054245263
45	0x3c79784d	0.015226436
46	0x3da27b86	0.079337165
47	0xbcaf7530	-0.021418184
48	0x3c33d57f	0.010976194
49	0x3d457b35	0.048213203
50	0x3d216b96	0.039409243
51	0x3bec9601	0.0072200303
52	0xbced5918	-0.028973147
53	0xbc875f58	-0.016524956
54	0xbc0ec20b	-0.008713256
55	0x3db17efb	0.08666798
56	0x3c43675b	0.011926497
57	0x3d5f12f2	0.054461427
58	0x3d4544a0	0.04816115
59	0x3d8e86da	0.06959315
60	0x3c6ee33d	0.014580545
61	0x3a31ccfd	0.000678256
62	0xbcce322a	-0.025170404
63	0x3d5d25fc	0.053991303
64	0x3d82a37b	0.06378838
65	0x3d86708e	0.06564437
66	0xbd999696	-0.07499425
67	0x3bc4c2f3	0.006004685
68	0xbd4e3495	-0.050343115
69	0xbd603c8e	-0.05474525
70	0xbd96f767	-0.07371407
71	0xbcea7165	-0.028618524
72	0x3d9aa3d8	0.07550782
73	0x3d41b8e6	0.047295474
74	0xbd6f1a0a	-0.058374442
75	0xbc5dee3a	-0.013545567
76	0x3d2544f9	0.04034898
77	0x3d4afca1	0.049557332
78	0x3d7efb34	0.062251285
79	0xbd35fa69	-0.044428263
80	0xbd0b9da8	-0.0340859
81	0x3d3b373d	0.045706976
82	0x3ca1124e	0.019662049
83	0xbd2e63e1	-0.04257572
84	0xbd82fe14	-0.06396118
85	0xbaab811e	-0.0013084745
86	0x3d92ff04	0.071775466
87	0xbd08fc44	-0.033443704
88	0xbc40151c	-0.011723783
89	0x3d12875d	0.035773624
90	0xbd89d9e2	-0.06731011
91	0xbd0c029f	-0.034182187
92	0x3c2c094b	0.0105002625
93	0xbd1deb19	-0.038554285
94	0x3d874955	0.06605784
95	0xbc4420f6	-0.011970749
96	0x3d0bd925	0.034142632
97	0xbc8af9a7	-0.016964747
98	0xbc1fa4fd	-0.009743926
99	0x3d9ef8d5	0.07762305
100	0xbd89bc5f	-0.06725382
101	0xbd70b7fc	-0.05876921
102	0xbd00a014	-0.031402662
103	0x3c88541c	0.016641669
104	0xbcc70595	-0.024294654
105	0x3cd97a40	0.026547551
106	0xbd207e78	-0.03918311
107	0x3d005ddc	0.03133951
108	0xbda158fd	-0.07878301
109	0x3b51c6dd	0.00320094
110	0x3d35d8bd	0.04439615
111	0x3c6b0b70	0.014345989
112	0xbd184821	-0.037178162
113	0xbcf939bf	-0.030423043
114	0x3c96aec4	0.018393882
115	0xbd6ec226	-0.058290623
116	0xbd8656ec	-0.06559548
117	0xb55c0390	-8.196157e-07
118	0xbd91a0c4	-0.07110742
119	0x3c9aebfd	0.018911356
120	0xbd6e828b	-0.058229964
121	0x3d3f212d	0.0466625
122	0x3d49ced2	0.049269505
123	0x3d8bacf2	0.06820096
124	0xbd67b58e	-0.05656963
125	0x3adcfa7b	0.0016859317
126	0x3da08b9c	0.078391284
127	0xbcb27af1	-0.021787139
128	0x3cf7035e	0.030152973
129	0x3d3ba761	0.04581392
130	0x3b3f43e3	0.002918475
131	0xbcf739eb	-0.030178985
132	0x3cb08b3b	0.021550765
133	0x3cbcd07c	0.023048632
134	0xbd87a3db	-0.0662305
135	0xbcfc6d19	-0.03081374
136	0xbd91aa77	-0.07112592
137	0xbd923e6f	-0.071408145
138	0x3d7ad5f4	0.061239198
139	0x3d702222	0.0586263
140	0xbd6bd14f	-0.05757266
141	0xbdabfd20	-0.08397889
142	0xbd8c7ccb	-0.0685974
143	0x3d2430e6	0.040085696
144	0x3d901c5c	0.07036659
145	0xbc77b3ec	-0.01511858
146	0xbcfeb222	-0.0310908
147	0xbd8b45a2	-0.06800391
148	0xbb867c5b	-0.00410418
149	0x3d3fedf6	0.046857797
150	0x3d26e1b8	0.040742606
151	0xbd0d7ac5	-0.03454091
152	0xbd119867	-0.035545733
153	0x3c6866d1	0.01418467
154	0x3d27ade3	0.040937316
155	0x3d8ea886	0.06965737
156	0x3c926326	0.017869543
157	0x3d57f8d0	0.05272752
158	0x3d8d0682	0.06886007
159	0xba9baf19	-0.0011877745
160	0xbc9639a2	-0.018338028
161	0x3d4ee586	0.05051186
162	0x3c03005f	0.007995694
163	0x3da5902c	0.08084139
164	0x3d3b318e	0.045701556
165	0x3c9d1e93	0.019179618
166	0xbd9fb2b2	-0.07797755
167	0x3d5375cc	0.05162601
168	0xbcf209c7	-0.029545678
169	0xbc85bf90	-0.016326696
170	0x3d1ad6ac	0.037802383
171	0x3cbf671d	0.023364598
172	0xbcbc4a51	-0.022984656
173	0xbbc6a780	-0.006062448
174	0xbd865aad	-0.06560264
175	0xbd11424f	-0.035463627
176	0xbcb9fd6d	-0.02270385
177	0x3a09d4c5	0.00052578404
178	0xbcae53a1	-0.021280112
179	0x3d3f516d	0.046708513
180	0xbbcb92d8	-0.0062125735
181	0xbd5ef906	-0.054436706
182	0x3cbdf529	0.02318819
183	0xbccddef1	-0.02513072
184	0x3d772af2	0.06034369
185	0xbb1da8f6	-0.0024057007
186	0x3d95cc90	0.07314408
187	0x3d9c1aa0	0.07622266
188	0x3dafc64b	0.08582743
189	0x3c142c80	0.009043813
190	0x3d794a48	0.060861856
191	0xba84e6e1	-0.0010139608
192	0x3ce1a47f	0.027544258
193	0xbd21d2a6	-0.03950753
194	0xbd914e91	-0.070950635
195	0xbd8b077d	-0.06788538
196	0xbda499dc	-0.08037159
197	0xbcafe5ab	-0.021471819
198	0xbd94bbfe	-0.07262419
199	0x3d866fe9	0.06564314
200	0xbd908942	-0.0705743
201	0x3d7e9db3	0.062162112
202	0x3c86b006	0.016441356
203	0xbd78f1e3	-0.060777556
204	0x3d938d2b	0.0720466
205	0x3ce5d13f	0.028053878
206	0xbbde5fb8	-0.006786313
207	0x3d890091	0.06689561
208	0xbd9114f6	-0.07084076
209	0x3d79b1da	0.060960628
210	0xbbf23434	-0.007391477
211	0xb9f12083	-0.00045991325
212	0x3cfceb56	0.030873936
213	0xbd0db817	-0.03459939
214	0xba933116	-0.0011229839
215	0x3d6d07d2	0.057868786
216	0x3cfecb82	0.0311029
217	0x3d274344	0.040835634
218	0x3d9a001d	0.07519553
219	0xbd5f59fa	-0.054529168
220	0xbc7cf9f0	-0.015440449
221	0x3d96d805	0.07365421
222	0xbcda93ef	-0.026681868
223	0x3cdc2277	0.026871903
224	0x3d092066	0.033478163
225	0xbd99b5ad	-0.07505355
226	0x3a92516c	0.0011163182
227	0x3d9fd84f	0.078049295
228	0xbc698c0d	-0.014254582
229	0xbda59862	-0.08085705
230	0xbd9a834d	-0.07544575
231	0x3c52a187	0.012855894
232	0xbccb070a	-0.02478363
233	0xbd66818a	-0.05627588
234	0x3d8c8531	0.06861342
235	0xbd437a5b	-0.04772411
236	0xbd70545e	-0.05867421
237	0x3d72c156	0.05926641
238	0x3d835ba5	0.06413964
239	0x3ce6d9fd	0.028180117
240	0x3dacc6b3	0.08436336
241	0x3b0c2196	0.0021382323
242	0x3d81c894	0.06337085
243	0xbd50aa6c	-0.050943777
244	0xbd8e49c1	-0.06947661
245	0x3c1a779c	0.009427931
246	0xbd77eed7	-0.06053051
247	0xbb1c29c4	-0.0023828605
248	0xbc0afcd3	-0.00848313
249	0x3c54d3e2	0.01298997
250	0xbcce9539	-0.02521764
251	0xbc21616b	-0.009849886
252	0xbd9d0a36	-0.07667963
253	0xbd03e865	-0.03220405
254	0x3d1ee652	0.03879387
255	0x3d96627c	0.07343003

rnn.weight_hh_l0 f4 [128, 128]
0	0x3d6affca	0.057372846
1	0xbab1f261	-0.0013576263
2	0xbd8ed4f1	-0.06974209
3	0xbd511b9d	-0.051051725
4	0x3d533f6e	0.051574163
5	0xbd935dcb	-0.07195624
6	0xbd7d84ab	-0.0618941
7	0xbd5c298d	-0.053750563
8	0xbcb80eec	-0.022468053
9	0x3d227ac7	0.03966787
10	0x3d6e5d7d	0.058194626
11	0x3d84b728	0.06480247
12	0x3d2178f4	0.03942199
13	0x3c9c95e7	0.019114448
14	0xbcb45d51	-0.022017153
15	0xbd5402a0	-0.051760316
16	0xbd317dfd	-0.043333042
17	0xbb4e8d84	-0.0031517455
18	0x3d95d832	0.073166266
19	0xbcf834ef	-0.030298678
20	0xbc57263e	-0.013131676
21	0xbb1cff6b	-0.0023955952
22	0xbd1c7fe7	-0.038207915
23	0xbd23282a	-0.039833225
24	0x3cc45a81	0.023968937
25	0xbd79a293	-0.06094606
26	0xbba3430c	-0.004982358
27	0xbca7e49d	-0.020494753
28	0x3c9987d3	0.018741524
29	0xbc2fc618	-0.010728382
30	0xbd348261	-0.04406965
31	0xbcd09cb6	-0.02546535
32	0xbcace44b	-0.021104952
33	0x3d11b30e	0.03557115
34	0x3c9d24fe	0.019182678
35	0xbcd91080	-0.026497126
36	0x3d881c1d	0.06645987
37	0x3bf251b2	0.0073949927
38	0x3d3c9263	0.046038043
39	0xbd046db5	-0.032331187
40	0xbd933090	-0.07186997
41	0xbda6b421	-0.081398256
42	0xbce7b709	-0.02828552
43	0x3d55cb6d	0.052195955
44	0x3d5bb22e	0.053636722
45	0x3cd5d984	0.026104696
46	0x3cc4e7b1	0.02403626
47	0xbd67cadf	-0.056589957
48	0xbccac400	-0.024751663
49	0x3c2cb117	0.010540268
50	0xbd96566b	-0.07340702
51	0xbd9d5c32	-0.076836005
52	0xbd836980	-0.06416607
53	0x3cd9724e	0.026543763
54	0xbc2b090e	-0.0104391705
55	0xbc6f9107	-0.01462198
56	0x3d58655a	0.05283103
57	0xbd673aba	-0.05645249
58	0xbd57d05e	-0.05268895
59	0xbc9e58ca	-0.019329447
60	0x3d540689	0.051764045
61	0x3c5e8d4a	0.013583491
62	0xbd9603f1	-0.073249705
63	0x3d745ac3	0.05965687
64	0xbd485b73	-0.048915338
65	0x3d85eb85	0.065390624
66	0x3cfd3184	0.0309074
67	0x3cb4f770	0.022090644
68	0x3d8f74ad	0.07004676
69	0x3cfea42b	0.03108414
70	0xbdaafb52	-0.08348717
71	0x3d09028f	0.033449706
72	0x3da79de3	0.081844114
73	0xbd0ee243	-0.03488375
74	0x3d7d8d5b	0.061902385
75	0x3d8bc011	0.06823743
76	0xbca4fd7c	-0.020140402
77	0x3a11811c	0.000555055
78	0xbc3220c5	-0.010872071
79	0x3d98f895	0.07469288
80	0x3d10b351	0.03532726
81	0x3d744673	0.059637498
82	0xbd9b019f	-0.075686686
83	0xbd0bcb98	-0.03412971
84	0xbd82ba0f	-0.06383144
85	0x3c973b5c	0.018460922
86	0xbd080182	-0.033204563
87	0x3cca6cc0	0.02471006
88	0x3d349ae3	0.044093024
89	0xbcb8c862	-0.022556487
90	0x3c22252c	0.009896558
91	0xbd7fdd6e	-0.06246703
92	0xbc2339b6	-0.00996249
93	0x3c61cc39	0.013781601
94	0x3d76fed0	0.060301602
95	0x3d0b912b	0.03407399
96	0x3cb595a3	0.022166079
97	0x3d32ba2c	0.04363458
98	0x3d86aba6	0.06575708
99	0x3c01d48f	0.007924213
100	0x3da6418c	0.08117971
101	0xbd526a77	-0.051371064
102	0x3cea5d81	0.02860904
103	0xb98ce28a	-0.00026871666
104	0x3d80fada	0.06297846
105	0xbda597bc	-0.08085582
106	0x3d26afdf	0.040695067
107	0xbd946cf9	-0.072473474
108	0xbcceee34	-0.025260068
109	0xbce033d9	-0.027368473
110	0xbce9162b	-0.028452953
111	0xbd2829f5	-0.04105564
112	0xbd8bfd8e	-0.06835471
113	0xbd978322	-0.073980585
114	0xbc8a23a4	-0.016862698
115	0x3d8cea8c	0.06880674
116	0xbcb97744	-0.022639878
117	0xbd6a1147	-0.057145383
118	0xbcc48da2	-0.023993317
119	0xbd8eb329	-0.06967766
120	0xbb8da26d	-0.004322341
121	0x3d8e19f1	0.06938542
122	0xbda90e9e	-0.08254741
123	0x3d3ac307	0.04559615
124	0x3d7e4447	0.062076833
125	0x3d78a8d1	0.06070787
126	0xbd4ca358	-0.049960464
127	0x3c257085	0.0100976275
128	0x3d42dcfa	0.04757402
129	0xbd9429c8	-0.07234532
130	0x3d84ed27	0.06490546
131	0xbbcabc18	-0.0061869733
132	0xbd983c84	-0.074334174
133	0xbcb16a85	-0.021657238
134	0x3b1ed735	0.002423716
135	0xbd0cf526	-0.03441348
136	0xbd0c86b1	-0.03430814
137	0xbc0e2e5d	-0.008678046
138	0x3cee0094	0.02905301
139	0x3d1cbd5a	0.038266517
140	0xbda912f2	-0.08255567
141	0xbbb1296d	-0.0054065497
142	0x3cab3bda	0.020902563
143	0x3d8b91c4	0.06814912
144	0x3d2d64a7	0.042332318
145	0x3d6b3f09	0.057433162
146	0x3ccd349a	0.025049496
147	0xbc06d094	-0.00822844
148	0xbd3f5d41	-0.046719793
149	0xbd0fc031	-0.035095397
150	0x3cdf62c5	0.027268777
151	0xbc90e51b	-0.017687371
152	0x3d9f3b49	0.077749796
153	0xbd590d3a	-0.05299113
154	0x3d6b51ae	0.057450943
155	0x3d5d9132	0.054093547
156	0x3d6481ce	0.055787854
157	0x3d87997c	0.06621072
158	0xbd47e8fe	-0.048806183
159	0x3d47fb6f	0.04882377
160	0xbdab4d06	-0.083643004
161	0xbd39c2d7	-0.04535183
162	0xbc5c2d59	-0.013438546
163	0x3d91a9a2	0.07112433
164	0xbc8b4039	-0.016998397
165	0xbd8ab915	-0.06773583
166	0xbd9a5917	-0.07536524
167	0x3ace6193	0.0015745632
168	0x3bccfae9	0.0062554968
169	0x3ca896e4	0.020579763
170	0xbcc1c8a7	-0.023655249
171	0x3ce6d1ec	0.02817627
172	0x3c11bf83	0.008895758
173	0xbcb59814	-0.022167243
174	0x3d313daf	0.043271717
175	0xbd799584	-0.060933605
176	0xbd330fd2	-0.04371626
177	0x3cab1710	0.02088502
178	0xbcc59e52	-0.024123345
179	0xbb060f91	-0.0020456056
180	0xbcf7d777	-0.030254109
181	0x3d4582ca	0.048220433
182	0x3da2f9f8	0.07957834
183	0x3d94306a	0.07235797
184	0x3cb3ba70	0.021939486
185	0xbd5b32d3	-0.053515267
186	0xbcf2418a	-0.029572267
187	0xbd1d6e4e	-0.038435273
188	0xbc859fb8	-0.016311511
189	0xbd2c89eb	-0.042123716
190	0x3d4e10c0	0.050308943
191	0xbda422c4	-0.080144435
192	0x3b6ff8aa	0.0036616721
193	0x3d79e7a4	0.061011925
194	0xbd89426b	-0.06702121
195	0xbc726ef4	-0.014796961
196	0x3d3dae83	0.046309005
197	0xbcf1e3d9	-0.029527592
198	0xbd23c738	-0.03998491
199	0x3d384e7f	0.044996735
200	0xbd6fa1a8	-0.058503777
201	0x3daca34e	0.084295854
202	0x3d9b3256	0.0757796
203	0x3b775466	0.0037739514
204	0x3c5ef7b0	0.013608858
205	0xbd3035fa	-0.043020226
206	0x3ca12e38	0.01967536
207	0xbd82b9e5	-0.06383113
208	0xbcb42463	-0.021990007
209	0x3d8a41af	0.067508094
210	0x3cc9fa9a	0.024655629
211	0x3d7ac344	0.061221376
212	0x3d6441f9	0.05572698
213	0x3da545b3	0.08069935
214	0x3caf0457	0.021364374
215	0xbd7d8ee1	-0.061903838
216	0xbd9c96fd	-0.07645986
217	0x3d56913e	0.052384607
218	0x3d8c7b25	0.068594255
219	0x3daa493d	0.0831475
220	0xbd6b131d	-0.057391275
221	0x3d9e225b	0.077213965
222	0xbcf68841	-0.030094268
223	0x3cb4c89d	0.022068316
224	0x3d6fa547	0.05850723
225	0xbd858894	-0.06520191
226	0xbda60977	-0.08107274
227	0x3d661288	0.056170017
228	0xbda0e216	-0.078556225
229	0x3d27c17f	0.040956017
230	0x3d4821ae	0.048860244
231	0x3d7d0a5e	0.061777465
232	0x3b0609a8	0.0020452533
233	0xbcb0e993	-0.021595752
234	0x3c33ea2f	0.010981127
235	0xbc3f5982	-0.011679055
236	0xbda30e67	-0.079617314
237	0x3ca33738	0.019923791
238	0xbd4b1b48	-0.049586564
239	0x3d800def	0.062526576
240	0xbd2234fb	-0.039601307
241	0xbc86f01a	-0.016471911
242	0xbd86233a	-0.06549688
243	0x3d9f57f2	0.07780446
244	0x3d48dcec	0.049038813
245	0x3d9772ff	0.07394981
246	0x3d49ea88	0.049295932
247	0xbd556612	-0.052099295
248	0x3da3925e	0.07986902
249	0xbc39ea71	-0.011347399
250	0x3d9f3501	0.077737816
251	0x3c418bf9	0.011813157
252	0x3d5aeaca	0.05344657
253	0xbd096a2c	-0.03354852
254	0x3d07eeb6	0.033186637
255	0xba00246e	-0.0004888241

rnn.bias_ih_l0 f4 [128]
0	0xbc36754a	-0.011136362
1	0x3d6dbd63	0.05804194
2	0xbdabe67c	-0.08393571
3	0x3d52a694	0.051428393
4	0x3cd24ef1	0.025672408
5	0x3d64e855	0.05588563
6	0xbcccb34c	-0.02498784
7	0xbc86619c	-0.016403966
8	0x3d99460a	0.07484062
9	0x3d9138e3	0.070909284
10	0xbd129269	-0.03578416
11	0xbd87bd43	-0.06627896
12	0x3db98fa0	0.090605974
13	0x3cee5d30	0.02909717
14	0x3d6f76ae	0.05846279
15	0xbda2a773	-0.07942095
16	0x3d27db58	0.040980667
17	0xbdaca3c5	-0.08429674
18	0xbc8a048c	-0.016847871
19	0xbcb3c660	-0.021945179
20	0xbd5b08fc	-0.053475365
21	0xbd6ca27c	-0.057772145
22	0xbd6791f0	-0.05653566
23	0xbbd77bf1	-0.0065760543
24	0xbd8a2c57	-0.067467384
25	0xbd2a44c9	-0.041569505
26	0xbd025eba	-0.03182862
27	0xbcca0ca6	-0.024664234
28	0x3c15eee3	0.009151193
29	0xbd81d261	-0.06338955
30	0x3d973022	0.073822275
31	0xbd9e231c	-0.0772154
32	0x3d2a43a5	0.041568417
33	0xbd982016	-0.07427995
34	0xbc91f220	-0.01781565
35	0xbc8c4eae	-0.017127361
36	0x3da76094	0.08172718
37	0xbd8a59d3	-0.06755414
38	0xbd39be98	-0.04534778
39	0x3b87e0fd	0.0041466937
40	0xbdb2f2f9	-0.087377496
41	0x3c8b3570	0.016993254
42	0x3ad16913	0.0015976749
43	0x3ce15ebc	0.027510993
44	0xbc05cb04	-0.0081660785
45	0x3d0d4ffe	0.034500115
46	0x3d0edb7b	0.03487728
47	0x3d4e631f	0.050387498
48	0x3d3ac8e4	0.04560174
49	0x3d897382	0.067114845
50	0x3d65cb76	0.05610224
51	0xbc4565ef	-0.012048229
52	0x3d581759	0.05275664
53	0x3ced1f94	0.028945722
54	0x3d307f93	0.043090414
55	0xbd797afe	-0.06090831
56	0x3d24939e	0.04017984
57	0x3c3b0bdd	0.011416403
58	0xbd85bc5c	-0.06530067
59	0xbcf19d61	-0.02949399
60	0xbccdd25d	-0.025124723
61	0xbd283793	-0.041068625
62	0xbc25500e	-0.010089887
63	0xbd6c7ca3	-0.05773605
64	0x3d395b6a	0.045253195
65	0xbcbddb05	-0.023175726
66	0x3a9240f7	0.0011158277
67	0x3ce52a6e	0.027974334
68	0x3cd2f836	0.025753122
69	0xbdb36980	-0.08760357
70	0xbcf1dc6b	-0.029524049
71	0xbd82c2ff	-0.06384849
72	0xbdad0f75	-0.08450214
73	0x3d798f64	0.060927764
74	0x3d9320fd	0.071840264
75	0xbd6cfe48	-0.05785969
76	0xbd06517a	-0.032792546
77	0x3d29c3a1	0.041446332
78	0x3da426db	0.080152236
79	0x3d8de480	0.069283485
80	0x3d450e25	0.048109192
81	0xbd88aa8c	-0.06673154
82	0xbd258f6e	-0.04041999
83	0x3d8c13a7	0.06839686
84	0xbd922946	-0.071367785
85	0xbd0f5772	-0.034995504
86	0xbd893a60	-0.06700587
87	0xbd9108fd	-0.070817925
88	0x3cea96b9	0.028636323
89	0xbccd4a97	-0.025059981
90	0xbda8adad	-0.08236251
91	0xbd9389cf	-0.07204019
92	0x3d783fb7	0.06060764
93	0x3d860331	0.065435775
94	0x3d1fc787	0.039008643
95	0x3d115098	0.03547725
96	0xbd590d7c	-0.052991375
97	0xbd0b9736	-0.034079753
98	0xbb1fe0d5	-0.0024395485
99	0x3cffafef	0.031211821
100	0xbb867c6b	-0.0041041872
101	0x3cbe2d3d	0.02321493
102	0xbd4599e4	-0.048242465
103	0xbd073250	-0.033006966
104	0x3cfbc9f5	0.030735949
105	0xbda58948	-0.08082825
106	0xbbbc4ffb	-0.005746839
107	0x3d91da9d	0.07121775
108	0xbd7e05fb	-0.062017422
109	0xbc8a08ec	-0.016849957
110	0xbc8cd863	-0.017193025
111	0xbcd69496	-0.026193898
112	0x3d4219b8	0.04738781
113	0x3cb661e3	0.022263473
114	0x3da659c1	0.08122588
115	0xbca4019e	-0.020020302
116	0x3d1195a5	0.035543103
117	0x3cadca9d	0.021214778
118	0xbd44a1ff	-0.048006054
119	0xbdb288d8	-0.08717507
120	0x3d479635	0.048727233
121	0xbd49951d	-0.04921447
122	0xbccaa02b	-0.024734577
123	0xbc8db9f2	-0.01730058
124	0xbdb546eb	-0.08851417
125	0x3d550e66	0.052015685
126	0xbc9693c4	-0.018381007
127	0xbd2cdf17	-0.042204943

rnn.bias_hh_l0 f4 [128]
0	0xbd96f196	-0.073702976
1	0x3c35313b	0.011059101
2	0xbb40a53a	-0.0029395358
3	0xbb8ea4e7	-0.004353154
4	0xbcddfb11	-0.027097257
5	0x3d184a42	0.037180193
6	0xbca7d052	-0.020485077
7	0x3c5b2d5c	0.013377514
8	0x3d55b647	0.052175786
9	0x3cd41c72	0.02589247
10	0xbd5ca874	-0.053871587
11	0xbc3d749a	-0.0115634445
12	0xbcbb3114	-0.02285055
13	0x3b831f67	0.004001546
14	0x3d59c872	0.053169675
15	0xbc0c37b2	-0.008558201
16	0xbcf2c517	-0.029634995
17	0xbd4ea750	-0.05045253
18	0x3d3eadf0	0.0465526
19	0xbcd30277	-0.025758011
20	0x3985cf55	0.0002552221
21	0xbc9f4100	-0.019440174
22	0xbd7e674f	-0.06211024
23	0x3cfc3020	0.030784667
24	0x3d84a2c7	0.0647636
25	0xbd5949ea	-0.053049006
26	0x3c88c787	0.016696705
27	0x3c98c6e3	0.018649524
28	0xbce267ce	-0.027637389
29	0xbc732740	-0.014840901
30	0xbbf762f1	-0.0075496365
31	0x3d63cad9	0.055613372
32	0xba034898	-0.0005008071
33	0xbda3f9f1	-0.08006657
34	0xbce497dd	-0.027904445
35	0xbd3aeaea	-0.045634188
36	0x3ac3a8b6	0.0014927599
37	0xbd238019	-0.039917085
38	0x3c99e4dc	0.018785886
39	0xbb959de6	-0.004565942
40	0xbd4141ff	-0.04718208
41	0xbbc66822	-0.006054894
42	0xbd8aaf26	-0.06771688
43	0xbd2c2ab1	-0.0420329
44	0x3d4f7252	0.050646134
45	0x3c3a60db	0.011375631
46	0x3d3ca8ca	0.046059407
47	0x3c9d4d10	0.019201785
48	0x3d7ce1d3	0.0617388
49	0x3da0cc65	0.07851485
50	0x3d8bab27	0.06819754
51	0xbcb09b7a	-0.021558512
52	0xbd254ed4	-0.04035838
53	0x3d9cc156	0.076540634
54	0x3d45e6d2	0.04831583
55	0x3d99fde9	0.07519133
56	0x3d9756f9	0.073896356
57	0x3d8b0cb4	0.06789532
58	0x3bdb07a1	0.006684259
59	0x390f8845	0.00013688307
60	0xbd49ec71	-0.049297754
61	0x3d9c0115	0.07617394
62	0xbd5d0c29	-0.053966675
63	0x3d49d99d	0.049279798
64	0xbc8e0c24	-0.017339773
65	0xbd47741b	-0.04869471
66	0xbd786827	-0.060646202
67	0x3c762360	0.0150230825
68	0xbd0fca45	-0.03510501
69	0x3d332883	0.043739807
70	0xbd14c904	-0.036324516
71	0xbc04c4eb	-0.0081035895
72	0x3c9e2d15	0.019308606
73	0x3daee221	0.085392244
74	0xbd8702da	-0.06592341
75	0xbd3dd401	-0.04634476
76	0xbd46a1a5	-0.048494
77	0x3cb488c4	0.022037871
78	0x3d91ebf4	0.071250826
79	0x3c381d26	0.011237418
80	0x3bc31960	0.0059539527
81	0x3d8045ab	0.06263288
82	0xbd67e484	-0.056614414
83	0x3dac36cf	0.084088914
84	0x3db264ca	0.0871063
85	0xbd6e54d8	-0.058186382
86	0xbb6b3d4e	-0.0035894695
87	0x3d07849f	0.03308546
88	0xbd4166e4	-0.047217265
89	0xbd1f1842	-0.038841493
90	0x3d6321c2	0.055452116
91	0x3d6c7de3	0.057737242
92	0xbd97d766	-0.07414131
93	0x3d02be38	0.031919688
94	0xbd31c6d2	-0.0434025
95	0xbc57c1ce	-0.013168765
96	0xbdb1d1c5	-0.086825885
97	0xbd9866c7	-0.07441478
98	0xbbee34fc	-0.0072695
99	0xbd7430ab	-0.059616726
100	0xbd45ecd7	-0.04832157
101	0x3d338004	0.043823257
102	0x3d37d658	0.04488215
103	0xbd82d91e	-0.06389068
104	0x3d6f98d4	0.058495358
105	0x3da37ff7	0.07983392
106	0xbceb7060	-0.028740108
107	0x3cea3115	0.028587857
108	0xbc9cf205	-0.019158373
109	0xbb611a4a	-0.0034347945
110	0xbcb81771	-0.022472115
111	0x3cd9561d	0.02653032
112	0x3d99dbc1	0.07512618
113	0xbcc33b0b	-0.023831865
114	0xbce54413	-0.027986562
115	0x3da998ed	0.082811214
116	0x3d8be07f	0.068299286
117	0xbd737111	-0.059434
118	0x3d99caa9	0.075093575
119	0xbca04069	-0.019561963
120	0x3cccad4a	0.024984974
121	0x3c95126a	0.018197257
122	0xbbd7b744	-0.0065831263
123	0xbd50581e	-0.050865285
124	0xbbbf414f	-0.005836643
125	0xbd7b812c	-0.061402485
126	0xbc603671	-0.013684855
127	0x3d54e5d5	0.051976997

rnn.weight_ih_l1 f4 [128, 128]
0	0x3d81ee1f	0.06344246
1	0xbd63f0fd	-0.055649746
2	0x3d18988b	0.03725485
3	0xbb510040	-0.0031891018
4	0x3d7f455c	0.062322006
5	0x3d7332e5	0.05937471
6	0xbcd1cb95	-0.02560977
7	0x3d3a6881	0.04550982
8	0x3cc3dc34	0.023908712
9	0x3d0f9ec4	0.03506352
10	0xbd57dbbe	-0.052699797
11	0x3c61605d	0.013755885
12	0xbd911c86	-0.070855185
13	0x3d397d39	0.045285437
14	0xbcb61315	-0.022225896
15	0x3d0c2ce2	0.03422249
16	0x3d80ee41	0.06295443
17	0x3c45980a	0.012060175
18	0xbd883556	-0.06650798
19	0xbd7942e2	-0.0608548
20	0x3c550f87	0.01300419
21	0xbda8001b	-0.08203145
22	0x3d409ea4	0.04702629
23	0xbcb960d5	-0.02262918
24	0xbd87c994	-0.06630245
25	0x3d61d837	0.05513784
26	0x3c35eb9f	0.01110354
27	0x3d9d412c	0.07678446
28	0x3b09225b	0.0020925018
29	0x3d061cc5	0.03274228
30	0x3d3ca76e	0.04605811
31	0x3d248c6d	0.040172983
32	0xbd1b2fac	-0.03788726
33	0xbd8bdc24	-0.06829098
34	0xbba6bf8f	-0.0050887535
35	0x3da0a803	0.07844546
36	0x3d580c3a	0.052746035
37	0xbce5b8c0	-0.028042197
38	0xbcf3955e	-0.02973431
39	0x3d7275e4	0.05919446
40	0x3d5db83b	0.054130774
41	0x3d1bfc1c	0.038082227
42	0xbd94a5fa	-0.0725822
43	0xbd9fa12d	-0.07794414
44	0x3d6b4ba6	0.05744519
45	0x3d91bca4	0.071160585
46	0x3d9a596d	0.07536588
47	0x3d311809	0.043235812
48	0xbd02beb9	-0.03192017
49	0xbc0fb695	-0.008771558
50	0x3d9ab644	0.07554296
51	0xbb3eb8bd	-0.0029101812
52	0xbd491ae3	-0.049097907
53	0x3d1427d8	0.03617081
54	0xbd6cb125	-0.057786126
55	0x3cbc7b1f	0.023007927
56	0xbd1f8bb5	-0.038951594
57	0xbc77bc4c	-0.015120577
58	0x3d22b147	0.039719846
59	0xbd24ed8a	-0.040265597
60	0x38bc182a	8.9690395e-05
61	0xbd932e70	-0.071865916
62	0x3c688b26	0.014193332
63	0xbce8452e	-0.0283533
64	0x3d0171de	0.031602733
65	0x3d88ba63	0.066761754
66	0xbd5958da	-0.05306325
67	0x3da3efd5	0.08004729
68	0x3d0cd8ab	0.03438632
69	0x3d9a9b1f	0.07549118
70	0x3bdbe042	0.006710083
71	0xbd4d8fe4	-0.050186053
72	0xbd856c10	-0.06514752
73	0x3d8c5dc0	0.06853819
74	0xbd47993a	-0.048730113
75	0xbd59b31f	-0.05314934
76	0xbce3f690	-0.027827531
77	0xbdae876e	-0.08521925
78	0xb99e02fc	-0.00030138332
79	0x37de0cd8	2.6470443e-05
80	0x3c69cdd4	0.014270265
81	0xbb21bb72	-0.0024678377
82	0xbd45aa5f	-0.04825818
83	0x3d9263a0	0.07147908
84	0xbd1e03dc	-0.0385779
85	0xbd95b401	-0.07309724
86	0x3d824a04	0.063617736
87	0xbd8c4701	-0.068494804
88	0xbd7cf8f2	-0.06176085
89	0xbda02dc2	-0.078212276
90	0x3d420ed8	0.047377437
91	0x3ca3918e	0.019966867
92	0x3d82e53a	0.06391378
93	0x3d551953	0.052026104
94	0xbd48e51b	-0.049046617
95	0x3ca0a535	0.019610027
96	0x3be709e8	0.0070507415
97	0x3d494918	0.049141973
98	0xbd1a2bfd	-0.037639607
99	0x3d907aab	0.07054647
100	0xbc9324b1	-0.017961832
101	0xbd484af1	-0.048899595
102	0xbc148863	-0.00906572
103	0x3d2b54b5	0.04182883
104	0x3c3a4b98	0.011370562
105	0x3d8acf0d	0.06777773
106	0x3cddc416	0.02707104
107	0x3d970d8d	0.073756315
108	0x3cd96b3f	0.026540397
109	0xbdac2c9c	-0.08406946
110	0xbbadd2de	-0.0053046783
111	0xbcc409d7	-0.023930473
112	0x3d8edfdc	0.069762915
113	0x3d95f993	0.07322993
114	0x3cb8b0f5	0.022545317
115	0xbd239c52	-0.039944
116	0xbcf3152e	-0.029673185
117	0xbd5dd4a6	-0.054157875
118	0xbd978d7e	-0.07400034
119	0xbd318478	-0.043339223
120	0x3d8585ed	0.06519685
121	0x3d0cc08e	0.034363322
122	0x3c78ad8d	0.0151780965
123	0x3d9581d0	0.073001504
124	0xbcf0967e	-0.029368635
125	0x3d9ddf71	0.07708634
126	0xbd53fdc1	-0.05175567
127	0x3c5bbfba	0.01341241
128	0xbcba1544	-0.022715218
129	0x3d17a3ab	0.03702132
130	0x3ccfb746	0.025355946
131	0x3d2783cb	0.040897172
132	0x3c89d922	0.01682717
133	0xbd8b54ee	-0.068033084
134	0x3d43e4ff	0.04782581
135	0x3ca6d0cc	0.020363234
136	0x3d1931a2	0.03740085
137	0xbd8e77c0	-0.06956434
138	0xbda373c7	-0.07981067
139	0x3d51cb4f	0.05121928
140	0x3d65ed80	0.0561347
141	0xbd2abd93	-0.0416847
142	0xbce6b414	-0.02816204
143	0x3cfc17b4	0.030773021
144	0xbc5f9e11	-0.013648526
145	0xbd76f72c	-0.060294315
146	0xbd903a85	-0.07042412
147	0x3cdbc12d	0.026825512
148	0x3d9bb8d8	0.076036155
149	0x3da0d570	0.0785321
150	0xbd339d32	-0.043851085
151	0x3d8ac168	0.067751706
152	0xb9e68fa9	-0.00043976054
153	0x3cc42727	0.02394445
154	0xbd8f3d4a	-0.06994112
155	0xbc433e92	-0.011916773
156	0xbb9849a7	-0.004647452
157	0x3c25a7be	0.010110794
158	0x3c8fc76b	0.017551145
159	0x3ae1af05	0.0017218298
160	0xbb06a9f2	-0.0020548073
161	0x3c4ec02c	0.0126190595
162	0xbd3ca055	-0.046051342
163	0x3d7ae96d	0.06125777
164	0xbd5268a5	-0.051369328
165	0x3c94e410	0.018175155
166	0xbd81e843	-0.063431285
167	0x3cb0a883	0.021564728
168	0x3d97570d	0.073896505
169	0xbd809811	-0.06279004
170	0x3d460946	0.048348688
171	0x3d571c74	0.05251737
172	0x3d5853db	0.052814346
173	0x3d99b07d	0.075043656
174	0xbd786dad	-0.06065147
175	0x3da83c05	0.08214573
176	0xbd182bad	-0.037151027
177	0xbc7b2974	-0.015329707
178	0x3cf3ade0	0.029745996
179	0xbd54f11b	-0.05198775
180	0xbc4e9868	-0.012609579
181	0x3da8adbb	0.082362615
182	0x3ba40dc4	0.005006524
183	0xbd472dd9	-0.048627708
184	0xbd163a86	-0.036676906
185	0x3cf329c6	0.029683005
186	0xbca7403f	-0.020416377
187	0xbd34bbd9	-0.044124458
188	0x3cfa13b9	0.030526983
189	0x3c9d1ac9	0.019177811
190	0x3d55dd18	0.052212805
191	0xbb340120	-0.002746649
192	0x3d3088d7	0.04309925
193	0xbcbee6ca	-0.023303408
194	0x3d509ca1	0.050930623
195	0xbc00fa43	-0.007872167
196	0x3d9a9b2e	0.075491294
197	0xbc952dea	-0.01821037
198	0xbd966728	-0.07343894
199	0x3ba8a320	0.005146399
200	0x3cfa39be	0.030545112
201	0x3d918ca2	0.07106902
202	0xbd9b7146	-0.075899646
203	0x3c89afaa	0.016807396
204	0x3d5eed91	0.05442578
205	0xbce42257	-0.027848406
206	0xbc991661	-0.018687429
207	0x3ca26b98	0.019826695
208	0x3d66877a	0.056281544
209	0x3d876a5f	0.066120856
210	0x3d914584	0.07093337
211	0x3bbabc53	0.0056987195
212	0x3d44e129	0.048066292
213	0xbd1b5731	-0.03792495
214	0xbd41b458	-0.04729113
215	0x3d83963c	0.06425139
216	0xbd87fc6c	-0.066399425
217	0x3dac1fcb	0.084045015
218	0x3c7c5cab	0.015402953
219	0x3c8d0c52	0.017217789
220	0xbcae95d9	-0.021311687
221	0xbd114d88	-0.03547433
222	0xbc545963	-0.012960765
223	0x3d5473b7	0.051868167
224	0xbd739d1f	-0.059476014
225	0xbd37bd10	-0.04485804
226	0xbd8f2a6b	-0.069905125
227	0x3cad9f92	0.021194253
228	0x3d1e7868	0.038689047
229	0xbbc56d9e	-0.0060250303
230	0x3d96a869	0.073563404
231	0x3cd08a0b	0.025456449
232	0xbc4f9ab2	-0.01267116
233	0xbd0e56ba	-0.034750678
234	0xbc18293e	-0.009287177
235	0x3d2c49c7	0.042062547
236	0x3c6272c4	0.013821308
237	0xbda5ecd5	-0.08101813
238	0xbd88a065	-0.06671218
239	0x3d885b27	0.06658011
240	0xbcceeda7	-0.025259806
241	0xbd889af4	-0.0667018
242	0xbc0e7e5e	-0.0086971205
243	0x3d2e0291	0.042482916
244	0xbd972045	-0.07379202
245	0x382f61ab	4.181421e-05
246	0xbda89f64	-0.08233526
247	0x3c5ee73c	0.013604935
248	0x3da1ebcf	0.07906305
249	0xbbb563f0	-0.005535595
250	0xbd8bf036	-0.06832926
251	0x3cb77879	0.022396313
252	0xbd9880cf	-0.07446443
253	0x3c306e59	0.010768496
254	0xbca97cef	-0.020689456
255	0x3d44769f	0.04796469
