src/pred_training/trained_rnn_models/T3_resnet50/pred_rnn/cosine_True_0.001_0.9mammograms_pred_rnn_0.5_0.pth (torch, 641586 bytes, 26 tensors)

init_net.0.weight f4 [64, 15]
00000000: 6945 fdba a1c6 0d3e 7b85 59be 0980 42be
00000010: 7295 cbbd e8bd 8d3d 9290 a7bb 378d 513e
00000020: dea1 bbbc 3dde 8b3d 2bbe 9fbd c9cc 4fbd
00000030: db7c 7cbe 9e08 2fbe 47e4 d9bd 2395 1c3c
00000040: dbfa d03d 8a95 1e3e 092c 33be f62c e6bd
00000050: fbfc bf3d 3779 5b3e 1090 59bd 37c5 453e
00000060: 2665 2abd 2cb9 df3c cc4e 6f3e 322c 75be
00000070: 0d5e 26be 42d1 85bd 6808 cebd 2d57 643e
00000080: 824e 2bbe 4552 f3bd 85a4 38be bb85 77be
00000090: aa47 1abe 6e2e 633e 41dc eb3d e817 003e
000000a0: ba63 5e3c 117f 07be 64da 323d 23c5 76be
000000b0: 49f7 3ebe fc3d 08be 21bf 263e cef4 1a3e
000000c0: dc6b eabd 1f94 18bc 5307 293e df5d 833e
000000d0: 66c8 d13d 66d0 0e3d ae33 313e 189d 1bbe
000000e0: 29fe 443d 82e7 4cbe 032e 37be f686 08be
000000f0: bd26 ef3d d98d d43d 808d 1cbe d3af 9f3d
00000100: 4b16 113e 676e 05bd 3054 213c c6f1 743d
00000110: 6af5 233e a0c4 7d3e c0aa 4bbe 1db5 c1bd
00000120: b4bb cf3d 4af7 5a3e 5bfc 653e cf31 693e
00000130: e563 523d 58d2 65be 1980 c23c 1957 25be
00000140: 094e 76be 79d1 6a3e 31f4 483e 5fd1 83be
00000150: d0de 453d 8e16 32bd 8df7 2dbd 8cf5 f1bd
00000160: 2a44 cb3d fd89 1cbe d7c5 c13d e0a6 053e
00000170: 7632 3d3e 15a4 c53d b3c9 82be 7371 2bbe
00000180: 79f6 033e 8c43 5d3d b22a 4ebe be2e 18be
00000190: 1fa1 783e f014 323e 1d79 e6bd 3609 85bd
000001a0: c1c2 7bbe f702 98bb 5d06 47be 5adc 4bbe
000001b0: c2fe 68bc 07ba 1e3d eb77 d8bd aad2 1c3e
000001c0: 74d4 20be b4ce 6f3e ed1d 353e b5de 5ebe
000001d0: f48d 83bd 68ce 3e3c 6b3d 1a3d cbba 7a3d
000001e0: 066c cf3d 1041 7d3c 58f4 00be e81d fa3d
000001f0: bc84 7dbe 46a5 1cbe eb52 84bd 16bd 00be
00000200: fde9 b8bd e19d 58be 6ddf 60bd 30f9 613d
00000210: d12c 2cbe ad0e 59bc f330 3d3e 0353 d9bc
00000220: 3bd1 ea3b ca75 b6bc c3f2 553d 890b 283e
00000230: a558 7a3e 36d3 273e 50eb 7a3e bae8 98bc
00000240: 8a6a 6dbe 1596 fabd 6cf4 333e d974 dbba
00000250: de60 03be 0487 4abe af54 77be 5210 5fbe
00000260: 966e 56bd 03f0 103e a3e2 0e3e 65e3 7ebe
00000270: 1adb 243e edce 4ebe 3b7e 5fbd dc52 d6bd
00000280: c19f 4bbd a690 4fbd cc28 6dbe 0533 64be
00000290: 416c 25bd c887 5a3b 9718 f0bd 1d22 c73d
000002a0: 0de0 6dbe 5db0 8ebc a26b 683e 3691 d7bd
000002b0: 5ca7 6e3e dd6c bf3d 8982 6ebe f136 273e
000002c0: abf7 f3bc eff4 ebbd 2b5c 533e 0292 55be
000002d0: 45e1 e23c 8956 5dbd d8ba 3c3e a08c 933d
000002e0: effb fd3d f8ab ba3d b03a 7ebd e452 5ebd
000002f0: 8fcb 59be 0634 0f3e ded6 513e 29d5 343e
00000300: 796c 3abe 388d 3c3c 584e 3abe f07c 11be
00000310: 5000 1abe eda3 b43d 387e 1dbe 6383 b8bb
00000320: d0e3 313c 5a5e 2a3e eec7 47be ee6f 35be
00000330: 5a76 19be fefb 383e 5901 bebd acec 5e3e
00000340: 3d24 bf3d 01dd 053d 6800 fcba 21fb 50bd
00000350: dfa3 043d 4365 71bd 67b2 edba b6e2 063d
00000360: 54ba 4ebe 9c85 0abe 3469 553e 857b 56be
00000370: 0ed2 97bc f9b8 823e 0cf1 be3d 9376 ef3b
00000380: f908 65be 68e9 023e d640 3cbe dd0e 96bd
00000390: a158 b1bd 198d 1cbd e803 393b b3f9 593e
000003a0: 29f9 033d 86b8 6c3e 22ab 213e 4116 27be
000003b0: ac11 ed3d 13d3 3abe 9c0c e0bd 6877 9b3d
000003c0: 6d87 ae3d 1e4c 463e 5a21 aabd 319f d839
000003d0: df0f 083e 6397 7fbe 3f1b 3f3e c38b 5abe
000003e0: 6e1e 693b 7cbb 33bd 9631 0bbe 84b9 0b3d
000003f0: 478c 5a3e ec71 9abd 14e8 1cbe da7e c3bd
-0.0019323054 0.13845302 -0.21242325 -0.18994154 -0.09940614 0.06920987 -0.0051136697 0.20464025
-0.022904333 0.06829498 -0.077999435 -0.050732408 -0.24657004 -0.17093131 -0.106392436 0.009557041
0.10204097 0.15486732 -0.17497267 -0.11239044 0.09374424 0.21432959 -0.053115904 0.19313513
-0.04160037 0.027309977 0.23369902 -0.2394264 -0.16246815 -0.065340534 -0.10060197 0.2229888
-0.16729167 -0.11880926 -0.18031509 -0.24172108 -0.150664 0.2218568 0.115166195 0.1250912
0.013573581 -0.13232066 0.043665305 -0.24098639 -0.1864902 -0.13304895 0.16283847 0.15132448
-0.11446354 -0.009312659 0.165067 0.25657555 0.10243301 0.034866713 0.1730487 -0.15196645
0.04809395 -0.20010188 -0.17888646 -0.13332734 0.116773106 0.10378618 -0.15288353 0.07797208
0.1416866 -0.03257599 0.009846732 0.059800886 0.16011587 0.24782038 -0.19889355 -0.09458373
0.101432234 0.21383396 0.22459547 0.22772907 0.051364798 -0.22443521 0.023742722 -0.16146506
-0.24053206 0.2293147 0.19624402 -0.25745675 0.048308194 -0.04347854 -0.04247241 -0.118144125
0.09925111 -0.15287013 0.09461563 0.13051939 0.1847628 0.09650437 -0.2554451 -0.16742496
0.1288699 0.054019496 -0.20133474 -0.1486158 0.24280213 0.173908 -0.11253569 -0.064958975
-0.24586011 -0.0046390253 -0.19436021 -0.19908276 -0.014220895 0.03875163 -0.105697475 0.15314737
-0.15706044 0.23418695 0.17687197 -0.21764643 -0.0642356 0.011645891 0.03765623 0.061213296
0.10128026 0.015457407 -0.1259321 0.122127354 -0.24757665 -0.15297422 -0.06461128 -0.1257213
-0.09029005 -0.21153976 -0.054900575 0.055169284 -0.16813971 -0.013248128 0.18475704 -0.02652884
0.0071660555 -0.022272963 0.05223347 0.1641065 0.24447878 0.16389164 0.24503827 -0.01866566
-0.23185173 -0.12235657 0.17573708 -0.0016743197 -0.1282992 -0.19778067 -0.24153398 -0.2178357
-0.052351557 0.14154057 0.13953643 -0.24891432 0.16099206 -0.20196123 -0.054563742 -0.10465023
-0.0497129 -0.050675057 -0.23160094 -0.22285087 -0.040386442 0.0033345092 -0.1172344 0.097233035
-0.2323 -0.017418081 0.22697309 -0.10525744 0.2330603 0.09346936 -0.23291983 0.16329552
-0.029781183 -0.11521327 0.20640628 -0.20856479 0.027695308 -0.054037604 0.1843065 0.072045565
0.12401568 0.09114832 -0.062067688 -0.05427827 -0.21269058 0.13984689 0.20492122 0.17659439
-0.18205442 0.011508279 -0.18193948 -0.14207816 -0.15039182 0.08820329 -0.1538018 -0.005630897
0.010857537 0.16637555 -0.19509861 -0.17718479 -0.14986554 0.18064877 -0.09277601 0.2176997
0.09333084 0.03268147 -0.0019226195 -0.051020745 0.032382842 -0.05893446 -0.0018134833 0.032931052
-0.20188266 -0.1352753 0.20840913 -0.20945556 -0.018532779 0.25531748 0.0932332 0.0073078363
-0.22366704 0.1278435 -0.18384108 -0.07327054 -0.08659483 -0.0382205 0.0028231088 0.21286659
0.03222004 0.23117265 0.15787938 -0.16317083 0.11575636 -0.18244581 -0.10939905 0.07591134
0.08521924 0.19364974 -0.083071426 0.00041317337 0.13287304 -0.24960093 0.18662737 -0.21342377
0.0035571116 -0.04387997 -0.13593134 0.03411247 0.21342574 -0.0754126 -0.15322906 -0.095456794

init_net.0.bias f4 [64]
00000000: 3ce1 3cbe b889 633d 23a4 703e f6fa 81be
00000010: 8a68 83be f471 073d c003 473e 1fd1 20be
00000020: 06b5 683d bac6 393e baf6 a23d ebdc 643d
00000030: aed7 833e c42d 2c3e 83a4 14be 4aa7 b63c
00000040: 4c0d 073e fe18 693e 4c78 83be a121 0f3e
00000050: 1b79 99bd 7c64 81be 7b9a 6a3d c5de 0fbe
00000060: 56d8 153d 8d94 2bbe 0be5 46be 7f47 b3bc
00000070: da91 b1bd ec93 1a3e 1454 b63c 1d59 4e3e
00000080: d021 463d 52f8 a9bd af01 333e 84e6 663c
00000090: b06c 463d cf02 aabd c515 743a c736 4bbd
000000a0: 8ed3 b3bc 681a 4ebe 1d51 d2ba 6b5e 5bbe
000000b0: 2a78 63bd e325 193e 5ac3 37be f426 32be
000000c0: 0b0f 81bd 96e6 90bd 29bb 323d 8483 2f3d
000000d0: 7707 063e 4610 36be 9d27 95bc 5bd0 133e
000000e0: c18f 643e 4f3b 9abc 17e5 18be 6df2 973d
000000f0: f677 163e 321d 25be ef5e 19be 64a0 e93d
-0.18445295 0.05555126 0.23500113 -0.2538678 -0.25665694 0.03306766 0.19435024 -0.15704773
0.056813262 0.18142214 0.079572156 0.055874746 0.25750488 0.16814333 -0.14515881 0.022296567
0.13188666 0.2276344 -0.25677717 0.13977672 -0.07493802 -0.25271976 0.05727623 -0.14049824
0.036583267 -0.16755886 -0.1942331 -0.021884678 -0.08670397 0.1509549 0.022256888 0.20151182
0.04837209 -0.082993165 0.17481111 0.014093045 0.048443496 -0.08301317 0.0009311105 -0.049612787
-0.021951463 -0.2012726 -0.0016045902 -0.21422736 -0.05553452 0.14955859 -0.17945614 -0.17397672
-0.06301697 -0.07075231 0.04363552 0.042850032 0.13088785 -0.17779645 -0.018207366 0.1443495
0.22320463 -0.018827109 -0.14931141 0.07419286 0.14694199 -0.16124418 -0.1497762 0.11407545

init_net.2.weight f4 [128, 64]
00000000: df6f 0fbc 7fb4 f1bd ee8c 93bd d88a 4f3d
00000010: 1b98 2dbd f09c b03d 8f46 ca3d 9fe6 943c
00000020: a1e3 21bc bf7a 22bd 6318 cfbb 5647 ba3c
00000030: 0e7b c3bd feb7 f4bc e8da d4bd 1c0e 9d3d
00000040: cdfa a2bd 89be e93d f3ef 03bd c59c 92bd
00000050: d7e3 753d 2797 983c 1f2c b13d bda5 553d
00000060: 7184 f6bd 52d9 a13d 33c7 c0bc d139 62bd
00000070: f381 a23d 62a1 ba3d c1eb e0bd b435 39bc
00000080: 3824 d23d e535 463d 0495 d73d 676b 2fbd
00000090: f229 8dbd 1d0c dc3d 8b50 553d dfa5 f53d
000000a0: d7c7 55bd 1d4e a4bd 49fc 6fbc b8f2 f0bd
000000b0: 3599 483d 28bd bc3d 29b3 f53c 2f4d 4abc
000000c0: ccbc 7d3d a26e a2bd 984f fa3d 9f76 febd
000000d0: e426 f5bd 22e0 f1bc c406 d13d 79f7 4c3c
000000e0: e484 443d bb95 bbbd f7a0 3a3d 14e8 64bc
000000f0: b81b 4d3d 8eb9 b43d 4776 5e3d 3a24 2ebc
00000100: 3735 fcbb 6b81 a0bd 2e20 39bd a949 a63d
00000110: f73b 4dbd 38e8 9e3d 73fc 4abd 4e64 eebc
00000120: ef3a 2e3b dbd6 eabd 58d0 a3ba 1f6e 4ebc
00000130: 8307 38bc 9fb6 ccbc 22be c93d 60d8 bc3d
00000140: a373 adbd 83ad 6d3d 74b9 c8bd 12de d9bd
00000150: 8571 1c3d 3d9f f03a 5acf 6ebd 7cd1 f6bd
00000160: 6623 46bd a2ee 2a3d 27dd ecbd 159c f8bd
00000170: 16dd 813c 0a5a b8bd 1031 e0bd 2936 45bd
00000180: adce a4bc c688 e8bd 3adf aabd a61a 063c
00000190: ca4d f1bd 6bdf 8fbc 643d a5bd f567 b1bd
000001a0: 9424 493d a1f6 c4bd 2dee c1bd 7dee 913d
000001b0: c159 bf3c 350a e93d 79cf 08bd b435 77bd
000001c0: 0883 3dbc 206d 253a 8723 c33d 97e8 febd
000001d0: a9e7 11bc 8364 623d 39eb 8cbd 3c08 82bd
000001e0: 504c 773d 4235 f5bd ad83 f23c 9e21 c6bd
000001f0: 2a5c 7e3d 4acd dabd f552 9d3d 623d f2bd
00000200: 0d19 d7bd 574c f23a 5ba5 c93d 3725 dbbd
00000210: 7d48 64bd 6fc4 e03d db8b abbc 2007 543d
00000220: 8e2b f6bd 12ec 20bd bdf2 81bd 58bf d73d
00000230: c873 543d 5db1 babd 1008 a53c 0609 bcba
00000240: 083e 52bd 8219 92bd 91d3 29bd 8db9 c93d
00000250: 6570 b7bd e248 b6bd 4cd5 1dbd 5ea9 0e3b
00000260: 0552 0b3d b8d3 753b be5f f6bc ba25 9bbd
00000270: 5ba9 b7bc 2f05 4ebd c3c0 ce3d a713 f9bd
00000280: 6439 a3bd d831 d0bd 580f bbbc 0f6e c73d
00000290: d24d e03d 74c5 debd 7a47 b1bb 5136 963d
000002a0: 349a 613d d59b d13d d8fc 62bb f5ee abbd
000002b0: 734a a93d e57b 2fbd 8d81 843d 753a fcbc
000002c0: 6293 593d 7429 e63d d0f7 ed3d 59dd e8bd
000002d0: fd3f a9bd e19b 53bd 1f2f a3bd 8588 f53d
000002e0: 4fa7 34bc f4bb a9bd afb9 63bd 7553 8dbd
000002f0: 0ad8 503d a434 dfbd 9a98 eebd a640 fcbd
00000300: cb56 5c3d ac0d 7d3d 8eee 9ebd 70d3 fd3c
00000310: f0e5 bc3d 50b7 943c d396 d8bc f23f 173c
00000320: fd83 5bbc 71d7 803d d0c1 adbd 9ac3 813d
00000330: e239 903d a70b 9bbd 9df4 d03d 4856 fb3d
00000340: fcc4 49bd 805c 0fbd d00d 7f3d 4a7a c8bd
00000350: 7364 4a3d 7ace ee3c 554b a13d 3a46 debd
00000360: 5098 d4bd 3cdc 653d c859 383d 882e eebd
00000370: 07b4 8ebd bf23 eabd b954 b7bd f5ec 66bd
00000380: 98c3 d33d ddbe cbbc 67f9 923d 6504 f33d
00000390: 7e3d 693d bf14 e5bd 93c5 803d 8736 433d
000003a0: 1356 c63d e06c fcbd 2c61 9d3d 2a76 d13d
000003b0: fb13 eebd 972d 563c 6873 da3d c61d babd
000003c0: 32ed 273d 2226 623d 3121 063d d76d fe3d
000003d0: 0a85 d13d 248c db3d a72c 7fbc 929f d63d
000003e0: cd79 eebd 4017 8abd 52ee dabc d109 18bd
000003f0: f75d ec3d 1065 713d c3bf a43d 2510 ae3d
-0.0087546995 -0.11802005 -0.072046146 0.05066952 -0.042381387 0.086236835 0.09876739 0.018176375
-0.009880931 -0.03966784 -0.006320046 0.022739094 -0.09544955 -0.02987289 -0.103933156 0.07668707
-0.07957993 0.11413295 -0.032211255 -0.07158808 0.060031738 0.018626763 0.086509936 0.052160013
-0.1203698 0.07902779 -0.023532486 -0.05523092 0.07934942 0.091128126 -0.109824665 -0.011304308
0.102608144 0.04839124 0.10526469 -0.042827036 -0.06892766 0.10744498 0.052078765 0.11994528
-0.052192535 -0.080227114 -0.014647552 -0.11765045 0.048974235 0.09215766 0.029992657 -0.012347504
0.06194763 -0.07931258 0.122222126 -0.12424969 -0.119703084 -0.02952582 0.102063686 0.012510174
0.047978297 -0.09159418 0.045563664 -0.013971347 0.050075263 0.08824454 0.054312017 -0.010628754
-0.0076967734 -0.078371845 -0.045196705 0.08119518 -0.050106015 0.07759136 -0.04955716 -0.029100563
0.002658542 -0.11466762 -0.0012498004 -0.012599497 -0.01123226 -0.024989424 0.09850718 0.09220958
-0.084693216 0.0580268 -0.098009974 -0.1063806 0.0381942 0.0018358004 -0.058303215 -0.12051675
-0.048373602 0.041731484 -0.11565619 -0.12139145 0.015852492 -0.090015486 -0.10946858 -0.048147354
-0.020118082 -0.113542125 -0.08343358 0.008185064 -0.11782415 -0.017562589 -0.0806835 -0.08662406
0.04910715 -0.09617353 -0.094692566 0.07125566 0.023358228 0.113789 -0.033400986 -0.06035395
-0.011566885 0.00063105114 0.09528261 -0.12446707 -0.00890533 0.055271637 -0.06880803 -0.06349227
0.06037551 -0.11973049 0.029603804 -0.09674381 0.062099613 -0.10683687 0.076818384 -0.11828114
-0.10502825 0.0018485886 0.09845992 -0.107004575 -0.055733193 0.10974967 -0.020940712 0.051764607
-0.12020026 -0.039287634 -0.06345127 0.10534543 0.05186823 -0.091158606 0.020145446 -0.0014345951
-0.05132869 -0.071337715 -0.04146153 0.09849844 -0.089569844 -0.0890062 -0.038533494 0.0021768431
0.034013767 0.0037510227 -0.03007495 -0.07575555 -0.022419622 -0.050297912 0.1009536 -0.121619515
-0.07969931 -0.10165757 -0.022834465 0.09737789 0.10952343 -0.10877505 -0.005410132 0.07334579
0.0550787 0.10234801 -0.003463557 -0.08395187 0.08266153 -0.042842764 0.06470022 -0.030789593
0.05311907 0.11238375 0.11619532 -0.11370344 -0.08264158 -0.05166233 -0.07967972 0.1198893
-0.011026218 -0.08287802 -0.055597004 -0.06900684 0.05098728 -0.10898712 -0.116502 -0.12317018
0.05379371 0.061780617 -0.077603444 0.03098461 0.092235446 0.018153816 -0.026439106 0.009231554
-0.013398168 0.06291092 -0.084842324 0.06336136 0.0704229 -0.07570582 0.10202906 0.12272316
-0.049260125 -0.035000324 0.062269032 -0.0978895 0.049412202 0.02915119 0.078756966 -0.108532384
-0.10380614 0.056118235 0.045007497 -0.11629969 -0.06967931 -0.11432599 -0.089517064 -0.056378324
0.10340041 -0.024871284 0.07176476 0.118660726 0.05694341 -0.11185598 0.06287684 0.047659423
0.09684386 -0.12325454 0.0768455 0.10227616 -0.11624905 0.013072393 0.10666543 -0.0908771
0.04099769 0.055212148 0.032746498 0.12423294 0.10230453 0.10720089 -0.015574611 0.10479654
-0.116443254 -0.06742716 -0.026724968 -0.037118737 0.1154136 0.05893427 0.08044388 0.08499173

init_net.2.bias f4 [128]
00000000: 702e 4cbd 8335 463c a96d 6fbd bd67 a13c
00000010: 52e9 e6bc f03a a5bd d6af e63b 5cc5 453d
00000020: 66be bcbc 1d18 153b d7af fdbd 01d4 2ebd
00000030: 53b9 febd fb2e fe3d 1362 da3d 47cb ddbd
00000040: 78ef c4bd 34f2 d8bd 1a4b 933d 4538 d63c
00000050: db64 ecbd ce94 1ebd 9319 c03d 241a 9eba
00000060: a34e e7bd a0cc 313d ce5f fe3d 2c64 e93d
00000070: 361d 333c 14e9 0cbd a9a2 563c 05dc bc3d
00000080: ee0e 5d3d 3b49 d4bd 84cb 863d 43a6 a63d
00000090: c664 d9bd f8fb b3bd 37da ae3d 34c0 873d
000000a0: 9da4 dfbd ee36 0d3d a57b 9a3d 44d9 cf3c
000000b0: 0f7d 883d 2556 253d b107 133d 143e 953d
000000c0: 782b 2ebd 2974 2f3a 4bb7 f7bc 1f3d b9bc
000000d0: 3d39 453d 601f 46bd c1a3 d7bb 8bff d93d
000000e0: 4c10 283d 00bf fa3d a8cb bbbb 7e36 39bd
000000f0: 2123 e13d 85e8 a0bd 02fd 6e3d 2d5b d83d
00000100: 2a9e 90bd 073f cebc dd08 e73d cad7 24bc
00000110: 2151 e0bd 97e3 8dbd 7806 f1bd a7e9 c6bc
00000120: eba1 8d3d 3e79 88bc 1c8d bfbc ea2d 273c
00000130: faf9 25bc 745f b5bc 67f7 21bd d064 7d3c
00000140: b62c f9bb 87d2 92bc 0785 01bd 943c 053d
00000150: 35db 42bd c540 ecbb 2c46 9cbc fc4c b43d
00000160: fdcf 563d bb69 563d 27ba 47ba a50d a2bd
00000170: c609 093c 99d9 c8bd 4982 333b 1d14 fb3d
00000180: 5e1f 93bc c95b f43d 6457 9fbd 4ef9 c83d
00000190: 842e 403d c314 5fbd e282 fcbd 9119 66bd
000001a0: bfb9 703d 6726 f73d a8bc cdbd acf8 65bd
000001b0: 530f 363d 0420 ffbc 5c1c dabd e306 2cbd
000001c0: b33b 233d cf0c f9bd 6702 3ebd e946 963d
000001d0: f6e1 733d 47bd 5abd 5706 ee3d 581c a43c
000001e0: 6cf3 743d 5575 30bc c9af 42bd aad9 dd3d
000001f0: 467c efbd 3a5d 333d 3aa7 60bd fc21 22bd
-0.049848974 0.012097719 -0.05845419 0.019702787 -0.028187428 -0.08067882 0.0070400042 0.04828392
-0.023040008 0.0022749968 -0.123870544 -0.04268265 -0.124376915 0.124113046 0.106632374 -0.10829788
-0.096159875 -0.105930716 0.07192059 0.026149878 -0.11542674 -0.03871613 0.09379878 -0.0012062234
-0.11294296 0.043408036 0.12420617 0.113960594 0.010932257 -0.034401968 0.013100305 0.09221653
0.053969316 -0.1036553 0.06581786 0.08137181 -0.10614924 -0.087882936 0.08537715 0.06628457
-0.10920069 0.034476213 0.075431146 0.025372155 0.06664478 0.040365357 0.035896007 0.07287231
-0.042521924 0.00066930294 -0.030238768 -0.022612153 0.04815029 -0.048369765 -0.0065808003 0.10644444
0.041031167 0.122434616 -0.005731065 -0.045217983 0.109930284 -0.078568496 0.058346756 0.105642654
-0.070614174 -0.025176538 0.112809874 -0.010061214 -0.10952974 -0.06928175 -0.11768812 -0.024281336
0.06915649 -0.016659375 -0.023382716 0.010203818 -0.0101304 -0.022140242 -0.039542582 0.01546593
-0.007604207 -0.017922653 -0.031621005 0.032528475 -0.047572333 -0.0072098696 -0.01907643 0.08803746
0.052444447 0.052346926 -0.00076189864 -0.07912759 0.008364147 -0.098071285 0.0027390888 0.12259696
-0.017959293 0.11931569 -0.0778034 0.09813176 0.04691936 -0.05446316 -0.123296514 -0.056176726
0.05877089 0.120678715 -0.10045749 -0.056145355 0.044448208 -0.031143196 -0.1064994 -0.041998755
0.039851855 -0.12160646 -0.04638901 0.07337744 0.059541665 -0.053403165 0.11622303 0.020033047
0.059802458 -0.010770162 -0.047530923 0.10832532 -0.11693625 0.04379008 -0.05484698 -0.03958319

rnn.weight_ih_l0 f4 [128, 7]
00000000: 1c21 8a3d 1df8 a4bd 167f 42bc a3b0 f5bc
00000010: 5ba2 843d 1b1b 89bd 3005 8ebc 9d61 10bd
00000020: f490 863d 1c1c 8e3d 890c ef3a 7b4d 113d
00000030: 51a4 b43d 158b 9bbd 7039 d93a 813a a53d
00000040: 163a bdbc 65f9 85bd 6541 a03d 629b ab3d
00000050: 53c4 553d 6f03 883d ed39 f6bb 672d 7bbd
00000060: d604 a0bd 375e 163d 0f2b cabc f30b b13d
00000070: f496 213c 2dec 6a3d c09c ba3b 9353 a6bc
00000080: 4129 0bbd 9161 9abd edd0 afbd 6f2f 94bc
00000090: bdfa 9cbd 31cf b4bd ed62 343d b41f 1fbd
000000a0: ba93 4e39 83f0 b8bc be3e 88bd 1572 ddbc
000000b0: cb67 68bd 867a 823c 6df6 a93d d45e acbc
000000c0: 5ab3 4d3c 728a 4e3d b742 1e3d 806e f73b
000000d0: 4647 f8bc c1a6 8dbc 735b 46bc 5cba b43d
000000e0: 1062 4c3c 0995 6c3d 1d57 4e3d f514 953d
000000f0: 83cd 793c 2f07 bf3a 6fe2 d1bc 134b 673d
00000100: e793 863d b69e 8c3d efa7 a0bd 26a9 cd3b
00000110: 7184 5dbd 03df 6ebd c3ed 9dbd f79f 09bd
00000120: 39c0 a13d 5aa0 4a3d 2923 7abd fca8 94bc
00000130: 5239 1f3d bc4f 543d fefa 823d a959 3ebd
00000140: ce0a 12bd 2cd7 433d 6de7 9d3c 7ec7 3abd
00000150: aa0b 89bd df79 a4bb 46c1 993d 1b4a 0fbd
00000160: 7620 49bc f764 093d a8c8 96bd 3e6e 12bd
00000170: 4dc8 4b3c f92d 25bd 2b82 8d3d 3e00 4dbc
00000180: 85ef 183d 56a3 86bc b213 27bc 270d a53d
00000190: 4d12 90bd 8ccb 7bbd 8187 06bd 3528 893c
000001a0: dbd1 d4bc 9a77 e33c d816 27bd 4745 063d
000001b0: 55c4 a8bd 1053 5b3b fec8 3f3d 8328 7b3c
000001c0: ec4f 1fbd 8fb6 06bd 639c 9d3c 8fbd 79bd
000001d0: de84 8cbd ce4e 8eba 164b 9abd f21d a23c
000001e0: 7905 6fbd 51ed 473d 441a 533d 9f1d 923d
000001f0: f630 66bd f3ee 873b e5ef a73d a372 b4bc
00000200: 8530 013d a749 443d efee 473b d740 fdbc
00000210: a77c bd3c 0c84 c53c 81e6 8bbd f603 04bd
00000220: 265d 98bd 03f8 98bd 4639 853d b487 7e3d
00000230: 1b9d 76bd ebd1 aebd 1ef2 92bd 03bf 2b3d
00000240: d3c1 963d 3ac4 57bc bef4 f8bc 0dac 91bd
00000250: 972b 56bb 3fc2 483d b18f 2e3d a2fb 13bd
00000260: fa82 13bd 5c33 813c bd67 2f3d 8042 943d
00000270: cd1d 993c 6ae6 613d 9f84 933d 9d68 faba
00000280: 9993 a1bc 6570 583d fcf9 0e3c e82c ad3d
00000290: b1cb 433d 0b62 a43c 32ad a6bd 3f11 5e3d
000002a0: da1e fdbc 9539 81bc bff6 213d 0b38 c83c
000002b0: 52ef c4bc 51a1 a1bb 921d 8abd 1aec 17bd
000002c0: 4f9c b6bc f74d 103a af55 b6bc 2420 483d
000002d0: b130 9bbb c269 63bd 7c9d c63c b65b eebc
000002e0: 9643 813d 201b 25bb 02af 9c3d 52db 9c3d
000002f0: 387e b23d 1234 1b3c e660 893d 6adb 8aba
00000300: 6509 ec3c d333 29bd 4427 90bd 8f1a 8bbd
00000310: e627 acbd 2e43 a5bc a292 9bbd 1b9f 8c3d
00000320: f42a 97bd e81f 8a3d 52f7 9c3c 7833 82bd
00000330: 725d 9a3d cc62 f03c fc99 e8bb 854f 8f3d
00000340: 8f06 98bd 0061 823d fc05 fdbb b4d9 213b
00000350: 1947 043d 713b 14bd 6156 99ba 8e4c 823d
00000360: e6f0 0f3d 96eb 2e3d 52b2 9a3d cea0 69bd
00000370: 5053 84bc 2dc5 9d3d 3357 00bd ed9a ce3c
00000380: e36e 0f3d 35e0 a3bd 8ff0 983a 2c31 a73d
00000390: cf4c 74bc 8af2 b0bd 86ac a4bd 962e 5c3c
000003a0: f8aa e4bc 631b 71bd 11fb 923d 3478 4cbd
000003b0: 6132 82bd 204e 763d 2067 893d 654a f83c
000003c0: 65b9 b43d 16b6 123b 34c1 873d 0279 56bd
000003d0: ac4a 93bd 56e0 213c 0b0b 71bd 1247 23bb
000003e0: 435a 11bc 98c3 5e3c 734b b2bc b35c d1bb
000003f0: 644a a4bd 1b77 18bd 8433 263d b54b 9d3d
0.06744596 -0.08055136 -0.01187112 -0.029991454 0.06476279 -0.06694623 -0.017336458 -0.03524934
0.06570616 0.06938955 0.0018237989 0.03547428 0.08820403 -0.07594887 0.0016572904 0.08067799
-0.023098987 -0.06541709 0.07824973 0.08379246 0.052189182 0.0664128 -0.0075142295 -0.061322596
-0.078134224 0.036710944 -0.024678735 0.08644857 0.00986265 0.05735414 0.0056949556 -0.020303523
-0.03397489 -0.075381406 -0.08584771 -0.018089024 -0.07665012 -0.08828581 0.044039655 -0.038848594
0.00019700723 -0.022575622 -0.06652592 -0.027031938 -0.05673961 0.015927564 0.08298955 -0.021041311
0.012554968 0.050425 0.038637843 0.0075510144 -0.030307423 -0.017291429 -0.012106764 0.08824608
0.012474552 0.05775932 0.050376046 0.07279388 0.015246752 0.0014574284 -0.025620667 0.05646808
0.06571179 0.06866209 -0.07844531 0.0062762676 -0.054081384 -0.05831815 -0.07711365 -0.03359982
0.07897992 0.04946933 -0.061068688 -0.018146984 0.038873024 0.051833853 0.06395529 -0.046472225
-0.035654835 0.047812626 0.019275391 -0.045600407 -0.06691678 -0.005019411 0.07507567 -0.03498278
-0.012275806 0.033543553 -0.07362491 -0.035749666 0.012437892 -0.040327046 0.06909593 -0.012512265
0.0373378 -0.016435307 -0.010197567 0.08059149 -0.070347406 -0.061473414 -0.03284407 0.016742805
-0.025978973 0.027766991 -0.04079327 0.03278091 -0.08240572 0.0033466257 0.04682254 0.015329483
-0.03889458 -0.032888945 0.01923961 -0.060971793 -0.0686128 -0.0010857226 -0.07533853 0.01978967
-0.05835483 0.048810307 0.05153872 0.07134556 -0.056199037 0.004148358 0.08200053 -0.02202732
0.031540412 0.047921803 0.0030507406 -0.030914707 0.023130728 0.024110816 -0.068310745 -0.03223034
-0.07439642 -0.074691795 0.06505065 0.062141135 -0.06020842 -0.085361324 -0.071750864 0.04193021
0.07361188 -0.013169343 -0.03039014 -0.07112894 -0.003267979 0.049013373 0.042617504 -0.036128648
-0.03601358 0.01577156 0.042823542 0.07239246 0.018690968 0.05515138 0.0720303 -0.0019104664
-0.0197237 0.052841563 0.008726593 0.08455831 0.047801677 0.020066282 -0.08138503 0.054215666
-0.0308985 -0.015774528 0.039541956 0.024440786 -0.024039898 -0.0049325605 -0.06743921 -0.0370904
-0.02229133 0.0005504782 -0.022257654 0.048858777 -0.004736029 -0.05552078 0.024245016 -0.029096466
0.06311719 -0.002519317 0.076505676 0.076590195 0.087154806 0.009472864 0.06707935 -0.0010593955
0.028813073 -0.04130919 -0.07038739 -0.06792175 -0.084060475 -0.020173635 -0.07596327 0.068662845
-0.073812395 0.06744367 0.0191609 -0.06357473 0.075373545 0.029343985 -0.0070984345 0.06997589
-0.07423126 0.063661575 -0.0077216607 0.0024696412 0.032294367 -0.0361895 -0.0011698717 0.06362258
0.035141848 0.04270514 0.07553543 -0.05703812 -0.016153008 0.07703624 -0.03133316 0.025220359
0.03501786 -0.080017485 0.0011668372 0.08163676 -0.014910891 -0.08640011 -0.08040719 0.013438841
-0.027913556 -0.05886401 0.07176793 -0.049919322 -0.06357265 0.0601331 0.06709123 0.030308912
0.08824424 0.0022386364 0.066286474 -0.052361496 -0.07191977 0.009880146 -0.058848422 -0.0024914187
-0.008871618 0.013596438 -0.021764493 -0.0063892244 -0.080220014 -0.037222963 0.040576473 0.076804556

rnn.weight_hh_l0 f4 [128, 128]
00000000: bfae 773d e1cb d0ba bd7d 95bd ecff 5abd
00000010: 229a 5c3d 2f0a 9abd a986 84bd 3061 66bd
00000020: d66d c2bc 2bb9 283d 5dd6 7a3d 4d78 8b3d
00000030: defb 273d 5d4e a43c b683 bebc 4bb9 5dbd
00000040: 424d 38bd cc4a 2ebb 22a8 9c3d 89d0 00bd
00000050: 5cec 58bc 17aa 1cbb 45d6 22bd 6a14 2cbd
00000060: ec9f cd3c a72a 81bd 1713 afbb 99a2 aebc
00000070: 2e7f a03c 3cec 38bc 17a7 3dbd 2481 dabc
00000080: 5961 b3bc 1411 1a3d 0342 a53c 0292 e0bc
00000090: e5cf 8d3d 529d 003c 4895 453d fc99 09bd
000000a0: 056b 99bd aa82 aebd 5849 f1bc 5617 5f3d
000000b0: 038d 633d 298f dc3c 32af cc3c 1426 73bd
000000c0: 577e d5bc a88e 2f3c f4ea 9dbd 9b9b a4bd
000000d0: 2047 89bd 0663 e03c 07a8 37bc bb9b 7fbc
000000e0: 7721 613d e60f 72bd 2acd 5fbd b791 a5bc
000000f0: 0cfb 5e3d 1e72 683c fa0a 9cbd da0c 803d
00000100: 802b 52bd f131 8d3d 067b 043d 5cc4 bd3c
00000110: 15de 953d 3419 053d bf75 b2bd 2dd6 0f3d
00000120: f885 af3d 563a 16bd bb81 843d 4977 923d
00000130: 9787 aabc 8403 0039 029c 3bbc 6b0b a03d
00000140: 9b95 173d 982e 803d 5be7 a1bd 1bd1 12bd
00000150: 1ab0 88bd 4a62 9e3c 6f40 0dbd d8c9 d13c
00000160: dd72 3c3d b536 bfbc 7072 2a3c 5c5f 85bd
00000170: 4cf8 26bc 0d02 6a3c f81b 813d 6436 123d
00000180: d579 c03c 7edf 3b3d 998b 8d3d 20fd 073c
00000190: 024d ae3d de9f 5cbd aa25 f53c a7cc 9739
000001a0: aaef 853d 13aa acbd 9da6 2f3d d6a2 9bbd
000001b0: 5463 d8bc 5d6e e9bc 393e f2bc 2acd 2fbd
000001c0: 428a 93bd c665 9ebd 49ab 93bc 1ac7 933d
000001d0: 172d c2bc 1583 74bd 8ba7 cebc 3d30 95bd
000001e0: 3a26 9dbb 7aa9 943d 53af b0bd 7a3c 433d
000001f0: dd27 863d 967a 823d d5aa 56bd 6742 293c
00000200: 800a 4c3d 8813 9bbd b5fd 8a3d 0a8b d4bb
00000210: c143 9fbd dcaa b9bc 4470 263b 9183 13bd
00000220: 34fa 12bd 8dfb 14bc 7d05 f93c ac17 243d
00000230: 1ce8 b0bd 63d1 b9bb 5cf2 b23c 6706 923d
00000240: 7d5c 353d b04e 763d 41af d63c c852 0dbc
00000250: 72f5 47bd 4a51 16bd 8418 ea3c 4d8c 97bc
00000260: bf96 a63d 6fdc 62bd 2410 763d 6ec3 673d
00000270: 6d03 6f3d f6e0 8d3d ce3b 51bd 1e27 513d
00000280: c524 b3bd c026 42bd 8baf 65bc c66c 983d
00000290: 48dc 91bc 350e 91bd 8575 a1bd c6a9 d93a
000002a0: 8274 d83b 840c b03c c2a6 cabc 7368 f13c
000002b0: 568d 173c 5328 bebc bc52 393d ba96 82bd
000002c0: bf63 3bbd 67df b23c 4fdd cebc 8ff8 0bbb
000002d0: b9a6 01bd 544e 4e3d 8d68 aa3d 09f3 9a3d
000002e0: b4af bb3c de60 65bd 46ef fcbc afb9 24bd
000002f0: c095 8bbc 0a62 34bd 06b8 573d 6da5 abbd
00000300: 5d5e 7c3b d6c4 823d 0a82 8fbd c19d 7dbc
00000310: d763 463d dcdf fcbc c856 2bbd 7fc5 403d
00000320: 9e8a 7abd f88b b43d 0b50 a23d f8b9 813b
00000330: ceb1 693c ff5e 38bd 9b97 a83c 79b5 88bd
00000340: 1fa4 bcbc 98ab 903d 1841 d33c 0218 833d
00000350: 1bd1 6e3d afd6 ac3d c945 b73c 76a0 84bd
00000360: b1c8 a3bd 097e 603d 19fa 923d 102a b23d
00000370: 49e0 75bd be4c a53d d8f4 00bd d9de bc3c
00000380: 31c8 7a3d b59d 8bbd 93a8 adbd 2fa9 703d
00000390: 5b3b a8bd dd58 2f3d 2c62 513d 7d67 843d
000003a0: b3ee 0a3b 2ad9 b8bc 07e0 3c3c d98a 48bc
000003b0: 1a87 aabd 1dc8 aa3c a75f 54bd 28ef 853d
000003c0: 63f8 29bd 301e 8dbc 735e 8cbd 4dae a63d
000003d0: 11f0 513d 2e6f 9e3d ec2c 533d 650d 5fbd
000003e0: 140e ab3d 64a4 42bc 6f7d a63d e0c1 4a3c
000003f0: bd38 653d b29c 0fbd 5028 0e3d ff53 0dba
0.060469385 -0.0015929901 -0.07299373 -0.053466722 0.05385793 -0.075214736 -0.06470997 -0.05624503
-0.023734014 0.041192215 0.06123959 0.06810055 0.041011684 0.020056898 -0.023256164 -0.054131787
-0.044995554 -0.0026594875 0.07649256 -0.031448875 -0.013239946 -0.0023905092 -0.039755125 -0.042011656
0.02510067 -0.063069634 -0.005342852 -0.021317767 0.019591894 -0.011286791 -0.046301927 -0.026672907
-0.021897005 0.037613943 0.020173078 -0.027413372 0.06924418 0.007850008 0.04823807 -0.033594117
-0.074911155 -0.08521016 -0.029453918 0.054465614 0.0555544 0.026923733 0.024985883 -0.059362486
-0.02606122 0.010715164 -0.077108294 -0.08037492 -0.06703019 0.027390968 -0.011209494 -0.015601094
0.054963555 -0.059097193 -0.05463902 -0.020211084 0.054438636 0.014187364 -0.07619281 0.06252451
-0.051311016 0.06894291 0.032343887 0.02316492 0.073177494 0.03249474 -0.087138645 0.035116363
0.085704744 -0.036676727 0.064700566 0.07151658 -0.020816607 0.00012208341 -0.011450769 0.07814678
0.03700791 0.06258887 -0.07905456 -0.03584395 -0.06674214 0.019333977 -0.034485277 0.025608942
0.04600798 -0.023341516 0.010403261 -0.06512329 -0.0101910345 0.0142827155 0.06304163 0.035696402
0.023495594 0.045867436 0.06911392 0.008300096 0.08510782 -0.0538634 0.029925186 0.00028953442
0.06539853 -0.084308766 0.042883504 -0.07599418 -0.02641455 -0.028495008 -0.029570686 -0.04292027
-0.07204105 -0.077342555 -0.018026011 0.0721571 -0.023703141 -0.059695322 -0.025226375 -0.07284591
-0.0047958167 0.072588876 -0.086271904 0.047665097 0.06550572 0.06371038 -0.052409012 0.010330773
0.0498147 -0.07572085 0.06786672 -0.0064863013 -0.07776595 -0.02266448 0.0025396505 -0.036014143
-0.035883144 -0.0090931775 0.030398125 0.040061638 -0.08638021 -0.005670713 0.021844082 0.071301274
0.044277657 0.060133636 0.026206614 -0.008625694 -0.04881806 -0.036698617 0.028576143 -0.018499518
0.08134221 -0.055386003 0.060073987 0.05658286 0.058352876 0.069276735 -0.051082425 0.051062696
-0.087472476 -0.047400236 -0.0140189035 0.07442622 -0.017805234 -0.07082788 -0.07883743 0.0016606383
0.0066056857 0.021490343 -0.02473772 0.02946875 0.009250006 -0.023212587 0.045244917 -0.06376405
-0.045749422 0.021835042 -0.025252013 -0.002135787 -0.03165314 0.05036767 0.08320723 0.075658865
0.02291093 -0.056000583 -0.030875813 -0.040216144 -0.01703918 -0.04403881 0.052665733 -0.08381162
0.0038508393 0.063852 -0.07007225 -0.015479506 0.04843506 -0.030868463 -0.041830808 0.047063347
-0.061167352 0.088157594 0.07925423 0.003958937 0.014263583 -0.04501247 0.020580104 -0.06675238
-0.023027478 0.07063979 0.025787875 0.064010635 0.058304887 0.08439385 0.022372143 -0.06475918
-0.07997263 0.054807696 0.071766086 0.08699429 -0.060028348 0.08071278 -0.0314835 0.02305548
0.061226074 -0.068171896 -0.084794186 0.058755096 -0.08214446 0.042809356 0.051119015 0.06465051
0.0021199405 -0.02256449 0.011528022 -0.012240135 -0.0832655 0.020847375 -0.051849034 0.06539756
-0.041496646 -0.017226309 -0.06853952 0.08138714 0.051254336 0.077360496 0.051556513 -0.054456133
0.083522946 -0.011880014 0.08129393 0.012375325 0.055962313 -0.035061546 0.034706414 -0.00053912395

rnn.bias_ih_l0 f4 [128]
00000000: fd9b 6abc 5fa1 753d ed0d b0bd 33a2 353d
00000010: 1b4f b83c 45a8 5c3d 8a11 c2bc e45d babc
00000020: 4e78 a33d 91e3 923d 0eb5 38bd 3600 93bd
00000030: 589f b23d f255 093d 8945 753d 65f5 a8bd
00000040: c4ba 263d ed37 a9bd bcbf 84bc 7ef3 abbc
00000050: bf06 50bd 2b85 6ebd 5fd9 76bd ce5b cfbb
00000060: d9f3 8abd efe1 24bd 35cb 20bd 1ebb 97bc
00000070: 083d 6a3c 4c08 88bd d28c aa3d 2ad8 b2bd
00000080: 9869 243d fcb8 a7bd e933 8abc ba46 10bc
00000090: 1b43 a03d 27a3 9cbd 6913 59bd f3fd 8ebb
000000a0: 2d60 aebd 91a8 6b3c 6bdf a03b 7546 ea3c
000000b0: 00e9 87bc 782c d63c c931 133d 4347 643d
000000c0: b258 263d 96fe 8e3d 8be1 6d3d 2619 34bc
000000d0: e53e 7b3d a403 a53c db61 1e3d 3967 86bd
000000e0: f8e5 3a3d 9e59 4d3b 8f57 84bd 5218 0abd
000000f0: 6633 b2bc b4e0 16bd 5dc6 ccba 31a2 78bd
00000100: bed9 653d dd43 b8bc ca9e ae38 56b2 133d
00000110: ce11 0c3d dff3 b0bd 5309 0bbd f5b7 97bd
00000120: 07f5 a7bd cd41 693d a076 8c3d 1077 80bd
00000130: 1cde 0ebd 6e90 373d 08cc a83d 57ef 993d
00000140: 5310 5f3d 4551 9bbd e2c6 49bd 9d2d 8e3d
00000150: 4acc a1bd 0994 16bd cf09 90bd 7a19 90bd
00000160: 5602 b93c 4933 e0bc 42de a6bd 9976 8cbd
00000170: 44ac 973d 3882 953d e91a 2b3d 679e 213d
00000180: 7477 57bd 32c1 04bd 1c27 5dbb 4524 093d
00000190: 8f32 4eba a9f6 b33c ec9e 3dbd 889c 05bd
000001a0: b842 083d 1263 a7bd 328b 853b a930 a13d
000001b0: a902 67bd 97fe 9bbc 2c1b 83bc 21b8 05bd
000001c0: 7116 573d de2e a23c 6383 ad3d f7d0 bbbc
000001d0: b027 043d 7b11 cc3c 105c 48bd 72c1 b2bd
000001e0: dcf1 493d 8249 6fbd b642 f1bc 91a7 93bc
000001f0: 3e82 abbd 7b37 663d de44 b7bc 3e0d 3fbd
-0.014319417 0.05996835 -0.08596406 0.04434414 0.022498658 0.05387141 -0.023690004 -0.022749849
0.07981931 0.07172311 -0.045094542 -0.071777746 0.08721799 0.03352923 0.059880767 -0.0824993
0.040705457 -0.0826262 -0.016204707 -0.02099013 -0.050787684 -0.058232468 -0.060265895 -0.0063280826
-0.067847915 -0.04025453 -0.039256293 -0.018521842 0.014296778 -0.066422075 0.083276406 -0.08732636
0.040139765 -0.0818958 -0.016870456 -0.008805925 0.07825299 -0.07648306 -0.052997027 -0.004363769
-0.08514438 0.014383451 0.004909446 0.02859805 -0.016590595 0.026144251 0.03593615 0.055732023
0.04061193 0.06982152 0.058076423 -0.010992324 0.061339278 0.020143338 0.03866754 -0.06562657
0.04562947 0.0031333934 -0.06462013 -0.0337146 -0.021753024 -0.036835387 -0.0015623082 -0.060701553
0.05611586 -0.022493297 8.326543e-05 0.036058746 0.034196667 -0.08640265 -0.03394444 -0.07408134
-0.08201032 0.05694752 0.068585634 -0.06272709 -0.03487979 0.044815473 0.08242041 0.075163536
0.054458927 -0.0758386 -0.049261935 0.06942294 -0.07900293 -0.03676227 -0.07033121 -0.07036109
0.022584122 -0.027368205 -0.08147861 -0.06858558 0.07405904 0.07300228 0.04177371 0.039457705
-0.052604154 -0.032410808 -0.0033745235 0.033481855 -0.000786581 0.021968203 -0.046294138 -0.032619983
0.033266753 -0.08173193 0.0040754313 0.07870609 -0.05639902 -0.019042296 -0.016004167 -0.032646302
0.052511636 0.019797739 0.08472326 -0.02292679 0.03226441 0.02491068 -0.048915923 -0.08728303
0.04930292 -0.058419712 -0.029450756 -0.018024238 -0.08374451 0.056205254 -0.022371706 -0.046643488

rnn.bias_hh_l0 f4 [128]
00000000: e55a a3bd 055b 313c 91f5 a2ba a16b 65bc
00000010: 20ee 05bd 2e84 0c3d 5c7c 9bbc 68a5 093c
00000020: efd5 653d c8d1 c93c ad19 83bd 4a52 6ebc
00000030: 1cd8 00bd 1889 ee3b f297 5e3d 9042 09bc
00000040: 4ed0 07bd 8e6f 41bd b441 4d3d 4b9f ccbc
00000050: 4867 b13b aa95 94bc cf5d 87bd b925 063d
00000060: 694f 903d a610 56bd 916c 3c3c dc69 db3c
00000070: c61c c6bc 2521 80bc bfd5 f0ba e165 533d
00000080: 3e3c 7dbb 561e b4bd 9ea6 e0bc ed33 1ebd
00000090: fed6 b9bb 2dde 42bd b7c8 663c f9ce 5cbc
000000a0: e289 30bd 2a54 1fbc 196e 8abd 64d0 34bd
000000b0: a404 383d 6834 003b 4f1a 433d b655 bd3c
000000c0: cb7b 6b3d 596a a73d c7d9 903d 548a abbc
000000d0: 82b1 13bd ea35 8f3d 26c5 343d 9125 9d3d
000000e0: fcac a53d 84cf 7e3d dae6 2e3c d553 32bb
000000f0: 9caa 40bd 6ab7 af3d 3562 42bd 63dc 513d
00000100: 6d48 19bc 1977 49bd 8122 84bd e76a b83c
00000110: 7856 f1bc 64d1 503d 122c 28bd 1736 81bc
00000120: 2cb2 d93c 3409 a93d c5a6 9abd 7798 4fbd
00000130: 6e23 52bd 82d2 c83c 95ba 953d cab7 6c3c
00000140: 71d2 293c f79b 733d 7f94 87bd 1acb af3d
00000150: c8ae b13d a4ef 79bd 9104 83bb 0ff6 1c3d
00000160: da7a 68bd 1b25 2bbd 0d5b 803d 198b 893d
00000170: e5fb 88bd 1f6c 1b3d 8af9 35bd e431 3bbc
00000180: 8f36 b4bd 3ec8 98bd a30f 0abc 2c00 7cbd
00000190: 48aa 40bd 8f46 323d de5b 513d dcf6 84bd
000001a0: 2331 7f3d e5c7 b03d 29a3 a3bc 08bd 0b3d
000001b0: 7c8b 3dbc b12c a4bb 5857 b0bc 6957 b83c
000001c0: e5f6 a63d bbcb e8bc 27c2 f1bc 7354 ad3d
000001d0: 3b3f 883d b77e 73bd ab85 a33d 2daa 87bc
000001e0: b572 c83c 441e 463c 9673 2bbc 84a1 59bd
000001f0: 843e 333b 27b5 7fbd 6207 8fbc 6675 543d
-0.07976321 0.010824923 -0.0012432804 -0.0140027115 -0.032697797 0.034305744 -0.018980198 0.008401252
0.056112226 0.024636164 -0.06401382 -0.014545986 -0.031456098 0.0072795264 0.054344125 -0.008377686
-0.03315764 -0.047225527 0.050111488 -0.0249783 0.0054139234 -0.018137772 -0.066096894 0.03275082
0.07046396 -0.05226197 0.011500494 0.026783876 -0.024183642 -0.015640805 -0.0018374248 0.05161083
-0.0038640643 -0.087948486 -0.0274232 -0.03862374 -0.005671381 -0.047575165 0.01408594 -0.0134770805
-0.043100245 -0.009724656 -0.06759281 -0.04414405 0.0449263 0.0019562487 0.04763251 0.02311216
0.057491105 0.08174581 0.07072788 -0.020939983 -0.036057957 0.06992705 0.044133328 0.07673181
0.08089635 0.06220962 0.0106751565 -0.0027210612 -0.047037706 0.08579905 -0.04745694 0.051235568
-0.009355647 -0.049185846 -0.064518936 0.022511913 -0.029460177 0.05098094 -0.041057654 -0.015772862
0.026574217 0.082537085 -0.0755134 -0.05068251 -0.05130332 0.02451444 0.07310978 0.014448116
0.010365115 0.05947491 -0.0662012 0.085836604 0.08675915 -0.061019555 -0.003998347 0.038320597
-0.056757785 -0.041783433 0.062673666 0.06715984 -0.0668867 0.03794491 -0.044427432 -0.011425469
-0.08799469 -0.07460068 -0.00842658 -0.0615236 -0.047037393 0.04352432 0.051113002 -0.06492397
0.06230272 0.08631877 -0.019975262 0.03411582 -0.0115689 -0.0050102104 -0.021526024 0.022502618
0.0815256 -0.028417459 -0.029511524 0.08463373 0.06652685 -0.059447017 0.079844795 -0.016560638
0.02446876 0.012092177 -0.01046457 -0.05313255 0.0027350495 -0.06242862 -0.017459575 0.051869772

rnn.weight_ih_l1 f4 [128, 128]
00000000: fc59 863d c652 6dbd b3c3 1f3d c53d 4fbb
00000010: ce7c 853d 5e36 7e3d 5850 dcbc 49f9 423d
00000020: a633 d13c e339 183d 89c5 64bd 525c 643c
00000030: 3b05 97bd f1ca 413d 0b32 bbbc c554 123d
00000040: 68bc 853d c71c 3d3c f427 8ebd f352 83bd
00000050: b67b 523c 6f31 b0bd 70e3 473d ed93 bdbc
00000060: a916 8ebd b68f 673d 3e42 413c cc00 a43d
00000070: 64a7 103b e463 0c3d 53ee 463d 9b39 2c3d
00000080: 6edc 23bd f2f0 93bd 634e b4bb bf19 a73d
00000090: 03fc 633d 1bf9 f2bc dd8b 00bd ffd9 7b3d
000000a0: 9a6a 663d e04c 233d cc1e 9cbd 41ad a6bd
000000b0: e878 793d c0ad 993d 3c0a a23d 38bf 3a3d
000000c0: e8a7 07bd 96a1 0cbc 6b2e a33d 1f80 44bb
000000d0: adc5 52bd 8341 1d3d 32e1 75bd 5827 c93c
000000e0: bdd3 24bd ff73 81bc 5dea 263d b9a9 2cbd
000000f0: 9d62 dbb9 57c1 99bd 3572 673c 1d3c f4bc
00000100: 97e9 083d 0c46 8d3d 3a94 63bd 6f35 ab3d
00000110: 8ad0 133d 33bf a13d e41d db3b 8660 58bd
00000120: 00dc 8bbd 2d93 933d 4893 50bd 258a 64bd
00000130: 17ba f2bc f4f8 b4bd 38bd 3fb8 278b 0b39
00000140: cce2 733c e132 3cbb 4038 50bd 32fe 993d
00000150: 594b 25bd bfda 9cbd 974d 873d eae5 91bd
00000160: 83cd 83bd 478b a8bd 7a6d 4a3d f60c a83c
00000170: 8948 883d 36fa 5f3d 5b24 52bd 064e a73c
00000180: a6ef dd3b 7a02 513d aebf 23bd d2e6 963d
00000190: 2596 9cbc bae9 50bd 7baa 1bbc 4eeb 2e3d
000001a0: 19a7 4f3c 4e83 903d 7c7a e43c 9098 9e3d
000001b0: 1441 e33c 3b89 b4bd a643 c1bb cbb5 cdbc
000001c0: aa5e 973d 0dc5 9c3d 8ad5 c63c 7b9f 2cbd
000001d0: 7496 fdbc 004d 68bd 59f2 9dbd c107 3abd
000001e0: e6ad 8c3d bdde 123d 3198 803c c24d 9c3d
000001f0: cda6 01bd ca5f a43d 09f7 5cbd cd7f 6d3c
00000200: fe42 c9bc fc90 1f3d 39ef d93c 5f7e 2f3d
00000210: 388d 913c 6c20 92bd d9e6 4c3d 3e0f ae3c
00000220: 72b9 213d 3af6 93bd 7776 acbd 87e6 583d
00000230: 9e1a 723d e83a 33bd 3fe3 eebc d303 043d
00000240: 69ea 74bc 187d 83bd eaa8 96bd 79f7 e13c
00000250: d70b a13d 33f4 a73d 6d8a 3dbd 2f93 923d
00000260: 33e5 efb9 55bb c23c 706a 95bd d791 4fbc
00000270: 2c04 9fbb c3c0 2f3c 673b 993c d3bd ee3a
00000280: 93e7 24bb 6512 4c3c 6be5 45bd 634c 823d
00000290: 67fe 59bd 2989 9a3c e42a 88bd 2bc7 b43c
000002a0: 10b8 9d3d 8f58 86bd b866 4e3d 85f0 613d
000002b0: ec61 663d 1d15 a23d df69 81bd 26a7 b03d
000002c0: f23a 1ebd 2a39 7dbc afaf 013d 4b76 5ebd
000002d0: 9245 5abc 35bf b13d e4ca bd3b 1c22 4ebd
000002e0: 3f14 1bbd c268 fe3c c2c3 b5bc cb18 3dbd
000002f0: ffe2 003d e122 a53c 08b5 5c3d 4be3 49bb
00000300: 03e0 393d a400 d0bc 1d5c 5a3d 0c55 08bc
00000310: 5838 a23d cb7b 9bbc cf20 9ebd 7dee a73b
00000320: bf9c 023d 5cc7 983d 546c a2bd a0a5 8d3c
00000330: 8617 673d e17a e7bc 4f9e 9fbc 59af a93c
00000340: 1e8f 703d 5cc2 8c3d e577 973d 2d29 ca3b
00000350: afad 4d3d 028c 22bd 8234 4cbd 55bb 8a3d
00000360: b5cb 8dbd 870b b33d d07b 833c 0b34 903c
00000370: 9523 babc 3fee 16bd ec8e 5cbc 7192 5d3d
00000380: 7096 80bd 9d6a 41bd 820b 97bd b8a9 b53c
00000390: 9b61 243d f44f c9bb b59a 9d3d cfc0 d13c
000003a0: bad4 4abc c8c1 16bd d0a5 27bc e986 353d
000003b0: afc1 6e3c 670f aebd 4d97 8fbd 086a 8e3d
000003c0: 6fc9 cfbc 8807 8fbd 8ca9 08bc 7c46 343d
000003d0: 2048 9ebd af68 f2b8 3ed2 afbd bc81 6a3c
000003e0: 8739 aa3d 4f36 c1bb 66b0 92bd e374 c03c
000003f0: e68a a1bd 139c 323c 0bca aebc 3a21 4f3d
0.06560132 -0.057940267 0.039004993 -0.003162251 0.06517945 0.062063567 -0.02689378 0.047601018
0.025537323 0.03716458 -0.055852447 0.0139380265 -0.073740445 0.04731268 -0.02285101 0.035725374
0.06530076 0.011542506 -0.06941214 -0.06412306 0.012846878 -0.08603179 0.048800886 -0.023141826
-0.06937916 0.056533538 0.0117955785 0.080079645 0.002207243 0.03427495 0.048567127 0.042047124
-0.04000514 -0.07223691 -0.0055025085 0.081592076 0.05566026 -0.029659798 -0.031383384 0.061487194
0.056254007 0.039868236 -0.076230615 -0.08138514 0.06090632 0.07503843 0.07912108 0.045592517
-0.033119112 -0.008583447 0.07967838 -0.0029983593 -0.05145805 0.038392555 -0.060029216 0.024554893
-0.04024099 -0.015802382 0.04075085 -0.042154048 -0.00041844408 -0.0750758 0.01412635 -0.02981382
0.033425894 0.06898126 -0.05556128 0.08359801 0.03608755 0.078977965 0.006686913 -0.052826427
-0.06829071 0.07205806 -0.05092171 -0.055795807 -0.02962975 -0.088365465 -4.5714172e-05 0.00013307911
0.014885616 -0.002871685 -0.050834894 0.07519187 -0.04035506 -0.0765891 0.06606596 -0.07123931
-0.064356826 -0.0822969 0.04942081 0.020513993 0.0665446 0.05468198 -0.051304203 0.020422947
0.006772953 0.051027752 -0.039977722 0.07368244 -0.019114563 -0.05100415 -0.009501095 0.042704873
0.0126741165 0.070562944 0.027890436 0.07743943 0.027740993 -0.08815237 -0.005897957 -0.0251111
0.073911026 0.07654772 0.024271745 -0.04214428 -0.03095553 -0.056714058 -0.0771224 -0.04541755
0.06869106 0.03585695 0.01569757 0.076320186 -0.031653214 0.08026083 -0.05394653 0.014495802
-0.024568077 0.038956627 0.026603328 0.042845126 0.017767534 -0.0713509 0.05002484 0.021247502
0.039483495 -0.07224698 -0.08421033 0.052954223 0.059107415 -0.04375735 -0.029161094 0.03223021
-0.014948466 -0.06420344 -0.073564366 0.027583824 0.078635864 0.08200874 -0.04627459 0.07156979
-0.000457564 0.023770967 -0.07295692 -0.012669048 -0.0048527922 0.01072711 0.018705083 0.0018214531
-0.0025162443 0.0124555575 -0.048314493 0.06362226 -0.053221133 0.018864231 -0.06648806 0.022067627
0.07701123 -0.0655986 0.05039093 0.055161018 0.05624573 0.07914183 -0.063190214 0.08625631
-0.038630433 -0.0154555235 0.031661686 -0.05431203 -0.013322251 0.08679048 0.0057920087 -0.050325498
-0.037861105 0.031055812 -0.022188071 -0.046166223 0.03146648 0.020158233 0.053883582 -0.0030805643
0.04537965 -0.02539093 0.053310502 -0.008321058 0.07920903 -0.018979928 -0.077211015 0.0051248656
0.031887766 0.074599 -0.07930818 0.01729089 0.056418918 -0.028256835 -0.019484667 0.020713495
0.058730237 0.068730086 0.07395915 0.0061694593 0.050214466 -0.039684303 -0.049854763 0.06774012
-0.0692362 0.08742433 0.01605025 0.017602941 -0.022722045 -0.036848303 -0.01346181 0.054094736
-0.06278694 -0.047220815 -0.07375242 0.022175655 0.040132146 -0.0061435644 0.07695524 0.025604634
-0.0123798195 -0.036805898 -0.010232404 0.044318113 0.014572545 -0.084990315 -0.0701128 0.069538176
-0.025364606 -0.06983858 -0.008341204 0.04401253 -0.077286005 -0.00011558958 -0.085850224 0.014313158
0.08311754 -0.0058963667 -0.071625516 0.023493236 -0.07887821 0.010901469 -0.021336576 0.050568797

rnn.weight_hh_l1 f4 [128, 128]
00000000: ca67 0f3d 144f 5f3d 5769 67bd f32e 31bd
00000010: 7d0d b3bd 2bdc a5bd c0b9 febc 1581 fe3b
00000020: 64ce a4bd 80da 193d 154b 3f3d 15ef da3a
00000030: daf4 ad3d 8682 863d e3c6 cd3b 91b1 993b
00000040: 4027 6fb9 150d aebd 4da4 4cbd d7c3 93bd
00000050: b324 aabd 2539 99bc 844e a03b 5362 ecbc
00000060: bd5f 6e3d 99be 1c3d e76d 08bc 83cc a0bd
00000070: 194d 9abd 724a 86bd 6e6b 4bbc 0aa8 ca3c
00000080: 1f36 803d e677 413d ab60 953c d86c 5e3d
00000090: 1c67 a0bd 0f90 8d3c 497f b8bc 48c9 1bbc
000000a0: f893 7c3d 58de 8d3c 2af2 1cbd 2746 99bc
000000b0: 0342 f3bc 5132 79bd 1695 82bd e23f 8fbd
000000c0: b5c1 923d 7e99 4c3d 6b68 d3bc 2537 31bd
000000d0: d926 9fbd 4d7b 44bd 3bed f83c 7fbf 18bd
000000e0: 50a8 bb3c 4b66 ebbc d9cf b4bd 77ff bb3c
000000f0: bf7f d53c f38f cd3c 5389 86bd 6fff a5bc
00000100: 8665 a53d 57e5 c33b 0080 26bc 1c9d eb3c
00000110: 7f16 a63d 3a77 9a3d b42f da3c 776f a53d
00000120: d293 2bbd 0385 b13c 0e2a 4b3d 00ce aebd
00000130: b235 abbd ccdb 8fbd cf46 a2bd cc29 8a3c
00000140: fdbb 603b 5cca 9cbc c2bd 0fbd 3af0 9dbd
00000150: efcb 4bbd 28c1 b03d 9b9b e3bc 9a54 d63b
00000160: 99a3 0cbd 9161 2cbd 867d 7e3d 6340 91bc
00000170: 75c0 d83b 368c 7d3d 5c95 84bc caf0 d53c
00000180: 3138 5fbd 6098 6b3d 8e02 a3bb a64d 493d
00000190: b976 a2bd ca04 563c 02aa bc3c 4201 70bd
000001a0: 803f 803d cb60 4cbd ba6e 0cbd 4a50 5d3d
000001b0: 2dd5 36bd 01a5 773d e136 7f3d 5d48 36bc
000001c0: d9c0 a63c 9cad 65bd 72d8 46bd 2aca 25bc
000001d0: 294a 8f3d 89c3 8f3d 9c25 9e3d 9c19 14bd
000001e0: b3c0 8dbd 2b0c 803d 24a8 3e3d 63ed a53d
000001f0: f009 b23d 54a0 49bd fbb5 913d 7ba8 a03d
00000200: 7b8b 90bc 7047 4bbd 9cda 5abd 78c9 26bd
00000210: a570 593d b765 203b 35f4 adbc a8fa 8bbc
00000220: dce8 973d f2b6 843c d31c 52bd e3bb 3b3d
00000230: 3499 4fbd 60b0 773d 9126 a3bd e712 b83c
00000240: a008 3a3d 513a 7f3d c350 20bc fd60 1f3d
00000250: eec1 b3ba a495 9a3d 7dc5 d9bc ef99 9ebd
00000260: 8a57 cebc f681 b33c 9392 2a3c c8ee 8ebd
00000270: c137 20bd 89a6 f73c f03f e03c 1656 a33d
00000280: 5a07 a2bc 2f9b bd3c c299 44bd 5b89 b3bd
00000290: e736 7138 8997 b1bc 38f7 903d 92b2 8ebd
000002a0: 3a93 99bd 68f9 5ebd 3689 c0bb b534 6e3d
000002b0: 07ec 713d a513 75bc 6af1 253d 0d73 573d
000002c0: 2202 c1bc d197 31bd 937c a53c fa80 70bd
000002d0: af8b 983d bb20 073d 72c3 3fbc d83d c5bc
000002e0: f313 573b 7efb 503c 6f55 a3bd b34c a2bd
000002f0: 84dc 32bc c246 3fbd 7b6a 65bd d11d 4e3c
00000300: 4e54 7c3d 3d72 73bd 0f08 28bb bb1f 363d
00000310: bca0 683d 2f62 003d c95d 4fbc eb9e 59bd
00000320: 8ef3 8c3d 8ee2 4dbd debb 6c3b 2b4c 60bd
00000330: 1ba3 983b 7c4d 88bd ff0b a9bc fc34 f7bc
00000340: dd3f 6e3d c204 c0ba 007c ca3c 0de4 11bd
00000350: e519 b1bd e93d 87bd abae f83c 2e16 b43d
00000360: 27a2 68bd 1bba 2dbd 0c67 3c3d ace3 ae3d
00000370: 84c0 8fbd 3447 3fbd 2e03 acbd 9bb9 e83c
00000380: 7586 bbbc e1dc e2bc 5aba 783d ad66 90bc
00000390: 0004 57bd ee4a a4bd 62fb a03d c061 06bc
000003a0: f377 5b3d ca72 c3bc fcf3 c6bc c118 b03c
000003b0: 5679 6d3d 003f f7ba c21c 84bd c4f8 d3bc
000003c0: dbe8 bebc d971 593d 8b33 5dbd 444b a1bc
000003d0: 0022 b1bc c467 ad3d b34b bb3c 4e1a 713d
000003e0: edf6 79bd 9663 b73c 9a16 4abc a326 5bbd
000003f0: c8f4 f33c 8f1e 86bd 234c 903c e8e8 6abd
0.03501109 0.054518774 -0.056496944 -0.043257665 -0.08742807 -0.08098634 -0.031094432 0.0077668526
-0.080471784 0.037561893 0.046702463 0.0016703332 0.08493967 0.06567864 0.0062798127 0.004690357
-0.00022807438 -0.08498589 -0.049961377 -0.07215088 -0.08307781 -0.018704006 0.0048921723 -0.028855478
0.058196772 0.038267706 -0.008326984 -0.078515075 -0.075342365 -0.06557168 -0.01241575 0.02473833
0.06260323 0.047233485 0.018234571 0.05430302 -0.078321666 0.017280607 -0.022521632 -0.009508438
0.06166455 0.017317936 -0.038316883 -0.018710209 -0.029694563 -0.060839 -0.06376092 -0.069946066
0.07165853 0.04995107 -0.025806626 -0.04326548 -0.077710815 -0.04796915 0.030386558 -0.037292
0.022907406 -0.0287353 -0.08828706 0.022948964 0.02606189 0.025093054 -0.06569161 -0.020263402
0.08076005 0.005978267 -0.0101623535 0.028761439 0.081097595 0.07542272 0.026634075 0.08077901
-0.04188902 0.02166987 0.049600653 -0.08535385 -0.08359851 -0.07024345 -0.07923662 0.016865633
0.0034291737 -0.019139461 -0.035093077 -0.07711835 -0.049755033 0.08630592 -0.02778416 0.006540847
-0.034335706 -0.042085234 0.062131427 -0.017730897 0.0066147395 0.061901294 -0.016184501 0.026115794
-0.054496948 0.057518363 -0.00497467 0.049146317 -0.07932801 0.013062665 0.023030285 -0.05859495
0.06262112 -0.049896996 -0.034285285 0.054031648 -0.044636894 0.060460094 0.062308196 -0.011125651
0.020355629 -0.05607377 -0.048546262 -0.010119 0.06996567 0.07019717 0.07722017 -0.036157236
-0.0692152 0.06252321 0.04654707 0.081019185 0.08693302 -0.049225166 0.07114788 0.07844635
-0.017644634 -0.049628675 -0.05343114 -0.04071948 0.05308594 0.002447469 -0.021234611 -0.017087296
0.07417461 0.016200516 -0.05129702 0.04583348 -0.050683215 0.06047094 -0.0796634 0.02246995
0.04541838 0.062311474 -0.00978488 0.038910855 -0.0013714412 0.07548073 -0.026583428 -0.07744204
-0.025188226 0.021912556 0.010410923 -0.06979138 -0.03911567 0.030230777 0.027374238 0.07975404
-0.019778896 0.023145286 -0.047998197 -0.08766433 5.751001e-05 -0.021678703 0.07078403 -0.06967653
-0.07498784 -0.05443707 -0.005875732 0.058155734 0.059062984 -0.014958297 0.040513434 0.052599955
-0.023560587 -0.043357674 0.020201003 -0.05871675 0.074485175 0.0329902 -0.011704313 -0.024077341
0.0032818287 0.012755273 -0.079752795 -0.079247855 -0.010916833 -0.04669834 -0.05600975 0.012580351
0.061603837 -0.059435118 -0.002563957 0.044463854 0.056793913 0.031343635 -0.0126566375 -0.05313007
0.06882392 -0.050264888 0.003612272 -0.05476014 0.0046581156 -0.06655404 -0.020635603 -0.030176632
0.058166374 -0.0014649855 0.024717331 -0.035617877 -0.08647517 -0.06603605 0.030356726 0.08793293
-0.056795266 -0.042413812 0.04599671 0.08539519 -0.07019141 -0.046698764 -0.08399044 0.028408816
-0.022891263 -0.027693214 0.060724594 -0.017627085 -0.05249405 -0.08022104 0.078604475 -0.008202016
0.05358119 -0.023858447 -0.024286263 0.021496179 0.057977043 -0.001886338 -0.064507976 -0.025875457
-0.023304394 0.05308709 -0.054004233 -0.01968921 -0.021622658 0.08467057 0.022863245 0.058862977
-0.061026502 0.022386353 -0.01233449 -0.053503644 0.029779807 -0.06548797 0.01761443 -0.057351023
