src/pred_training/trained_rnn_models/T3_resnet50/pred_rnn/cosine_True_0.01_0.9mammograms_pred_rnn_0.49_0.pth (torch, 641586 bytes, 26 tensors)

init_net.0.weight f4 [64, 15]
0	0xbafd5fb1	-0.0019330886
1	0x3e0dd557	0.13850914
2	0xbe599c0c	-0.21250933
3	0xbe42943f	-0.19001864
4	0xbdcbaa92	-0.09944643
5	0x3d8dcc9e	0.06923793
6	0xbba7a1f2	-0.005115741
7	0x3e51a2f4	0.20472318
8	0xbcbbb555	-0.022913614
9	0x3d8becc1	0.068322666
10	0xbd9fcec2	-0.07803108
11	0xbd4fe257	-0.050752964
12	0xbe7c970a	-0.24666992
13	0xbe2f1ac2	-0.17100051
14	0xbdd9fae1	-0.106435545
15	0x3c1cb4e1	0.009564609
16	0x3dd10cc1	0.10207511
17	0x3e1ea4b7	0.15492521
18	0xbe333ea3	-0.17504363
19	0xbde644db	-0.11243602
20	0x3dc010e9	0.09378225
21	0x3e5b8d0c	0.21440524
22	0xbd59a694	-0.053137377
23	0x3e45d9b3	0.19321327
24	0xbd2a76f8	-0.041617364
25	0x3cdfd077	0.027321083
26	0x3e6f676b	0.23379295
27	0xbe7545a3	-0.23952346
28	0xbe267275	-0.162546
29	0xbd85df20	-0.06536698
30	0xbdce1f72	-0.100645915
31	0x3e647025	0.22308405
32	0xbe2b603a	-0.16735926
33	0xbdf36b87	-0.118857436
34	0xbe38b7af	-0.1803882
35	0xbe779f67	-0.24181901
36	0xbe1a56a5	-0.15072115
37	0x3e634624	0.22194725
38	0x3debf4d7	0.11521309
39	0x3e002534	0.12514192
40	0x3c5e7acd	0.013579083
41	0xbe078d22	-0.13237432
42	0x3d32ed42	0.043683298
43	0xbe76dd66	-0.24107894
44	0xbe3f0b1b	-0.1865658
45	0xbe084dcc	-0.13310927
46	0x3e26d137	0.16290747
47	0x3e1b0552	0.15138748
48	0xbdea842e	-0.114509925
49	0xbc18a3f3	-0.009316432
50	0x3e2918da	0.16513386
51	0x3e836c18	0.25668406
52	0x3dd1de2b	0.10247453
53	0x3d0edf32	0.034880824
54	0x3e314610	0.17311883
55	0xbe1bad42	-0.15202811
56	0x3d4512ff	0.04811382
57	0xbe4cfcc7	-0.20018302
58	0xbe373fbc	-0.17895406
59	0xbe08951c	-0.1333813
60	0x3def438a	0.11682804
61	0x3dd4a8b0	0.10383737
62	0xbe1c9d8d	-0.15294476
63	0x3d9fc06a	0.07800372
64	0x3e112554	0.14174396
65	0xbd057c3c	-0.032589182
66	0x3c218543	0.009858432
67	0x3d750c00	0.059825897
68	0x3e24065e	0.16018054
69	0x3e7ddf04	0.24792105
70	0xbe4bbfe1	-0.19897415
71	0xbdc1c938	-0.094622076
72	0x3dcfd1fa	0.10147472
73	0x3e5b109b	0.21393053
74	0x3e66143c	0.22468656
75	0x3e694a93	0.22782354
76	0x3d52796e	0.051385336
77	0xbe65e9f4	-0.22452527
78	0x3cc2944f	0.02375236
79	0xbe256847	-0.1615306
80	0xbe766796	-0.24062952
81	0x3e6ae9df	0.22940777
82	0x3e49092c	0.19632405
83	0xbe83defc	-0.2575606
84	0x3d45f32e	0.048327617
85	0xbd32290f	-0.043496188
86	0xbd2e097a	-0.042489506
87	0xbdf20ed0	-0.118192315
88	0x3dcb5997	0.09929197
89	0xbe1c9a3c	-0.1529321
90	0x3dc1d9ae	0.09465347
91	0x3e05b500	0.13057327
92	0x3e3d45f9	0.18483724
93	0x3dc5b891	0.09654344
94	0xbe82d742	-0.25554854
95	0xbe2b833d	-0.16749282
96	0x3e040448	0.12892258
97	0x3d5d5a7d	0.054041374
98	0xbe4e4036	-0.20141682
99	0xbe183e82	-0.14867595
100	0x3e78bae3	0.24290042
101	0x3e32278f	0.17397903
102	0xbde690fa	-0.11258121
103	0xbd8516b7	-0.06498473
104	0xbe7bdce1	-0.24595977
105	0xbb9812b6	-0.0046409024
106	0xbe471b03	-0.19443898
107	0xbe4bf180	-0.19916344
108	0xbc6916ed	-0.014226657
109	0x3d1eca72	0.038767286
110	0xbdd88e5a	-0.105740264
111	0x3e1ce2ef	0.15320943
112	0xbe20e525	-0.15712412
113	0x3e6fe79b	0.23428194
114	0x3e3530b8	0.17694366
115	0xbe5ef5d9	-0.21773471
116	0xbd839b9d	-0.06426165
117	0x3c3ee234	0.011650611
118	0x3d1a4d6e	0.0376715
119	0x3d7ad4d6	0.061238132
120	0x3dcf833e	0.10132454
121	0x3c7d65c2	0.0154661555
122	0xbe010199	-0.12598266
123	0x3dfa37de	0.12217687
124	0xbe7d9f0a	-0.247677
125	0xbe1cb586	-0.1530362
126	0xbd845f4c	-0.06463489
127	0xbe00ca69	-0.12577213
128	0xbdb8fd25	-0.090326585
129	0xbe58b455	-0.21162541
130	0xbd60f6bf	-0.054922815
131	0x3d6210ab	0.055191677
132	0xbe2c3ea6	-0.16820773
133	0xbc59190d	-0.0132506015
134	0x3e3d4492	0.18483189
135	0xbcd97084	-0.02654291
136	0x3beb23f9	0.007175919
137	0xbcb67916	-0.022274535
138	0x3d5608f7	0.052254643
139	0x3e281cfa	0.16417304
140	0x3e7a72a2	0.24457791
141	0x3e27e7f1	0.16397072
142	0x3e7b0554	0.24513751
143	0xbc98f8e5	-0.01867337
144	0xbe6d8327	-0.23194562
145	0xbdfab01c	-0.122406214
146	0x3e340744	0.17580897
147	0xbadb6264	-0.0016737697
148	0xbe036aba	-0.12833682
149	0xbe4a9c09	-0.19786085
150	0xbe776f6b	-0.24163596
151	0xbe5f26f1	-0.21792199
152	0xbd568442	-0.052372225
153	0x3e10ff05	0.14159782
154	0x3e0ef172	0.13959292
155	0xbe7efdda	-0.24901524
156	0x3e24ecde	0.16105983
157	0xbe4ee461	-0.20204307
158	0xbd5f9577	-0.0545859
159	0xbdd66911	-0.104692586
160	0xbd4bb4e2	-0.04973305
161	0xbd4fa60d	-0.050695468
162	0xbe6d4164	-0.23169476
163	0xbe644a0b	-0.2229387
164	0xbd257d6f	-0.040402826
165	0x3b5ad461	0.0033390748
166	0xbdf03774	-0.11729327
167	0x3dc731fd	0.097263314
168	0xbe6df8b6	-0.23239407
169	0xbc8ebf26	-0.017425131
170	0x3e6883c2	0.22706512
171	0xbdd7b093	-0.10531726
172	0x3e6ec007	0.2331544
173	0x3dbf80f7	0.0935077
174	0xbe6e9b54	-0.2330144
175	0x3e27484d	0.16336174
176	0xbcf41411	-0.029794725
177	0xbdec0e5a	-0.11526175
178	0x3e536cc4	0.2064696
179	0xbe55a829	-0.2086493
180	0x3ce2f7b9	0.027706014
181	0xbd5d6cba	-0.054058768
182	0x3e3cceec	0.1843831
183	0x3d939bf5	0.07207481
184	0x3dfe1649	0.12406594
185	0x3dbabf55	0.09118525
186	0xbd7e5266	-0.0620903
187	0xbd5e6a57	-0.054300632
188	0xbe59e230	-0.2127769
189	0x3e0f42e0	0.13990355
190	0x3e51eca3	0.20500426
191	0x3e34e7f5	0.1766661
192	0xbe3a7fbc	-0.1821279
193	0x3c3cac1b	0.0115156425
194	0xbe3a61ab	-0.1820132
195	0xbe118bae	-0.1421344
196	0xbe1a1097	-0.15045391
197	0x3db4b639	0.08823819
198	0xbe1d8e8e	-0.15386412
199	0xbbb89687	-0.0056331786
200	0x3c31f64a	0.010861943
201	0x3e2a6f7f	0.16644095
202	0xbe47dcab	-0.19517772
203	0xbe3582c7	-0.17725669
204	0xbe19863e	-0.14992616
205	0x3e390f32	0.18072203
206	0xbdbe14fc	-0.09281346
207	0x3e5f03c7	0.21778785
208	0x3dbf3706	0.09336667
209	0x3d05eae0	0.032694697
210	0xbafbeceb	-0.0019220387
211	0xbd511088	-0.051041156
212	0x3d04b0e7	0.03239527
213	0xbd717e4d	-0.05895834
214	0xbaedcb09	-0.0018142174
215	0x3d06f0b0	0.03294438
216	0xbe4ecfc7	-0.20196448
217	0xbe0a93fd	-0.13533016
218	0x3e557f61	0.20849372
219	0xbe5691c6	-0.20954046
220	0xbc97e1c8	-0.018540278
221	0x3e82c674	0.25542033
222	0x3dbf04de	0.093271
223	0x3bef8c0b	0.0073103956
224	0xbe6520be	-0.22375771
225	0x3e02f9cc	0.12790602
226	0xbe3c52ee	-0.1839101
227	0xbd961ade	-0.07329343
228	0xbdb16b0a	-0.08662994
229	0xbd1c9d59	-0.038235996
230	0x3b39171c	0.0028242534
231	0x3e5a1356	0.21296439
232	0x3d040702	0.032233246
233	0x3e6cd13a	0.23126689
234	0x3e21bbef	0.15794347
235	0xbe272795	-0.16323693
236	0x3ded2a42	0.11580326
237	0xbe3ae677	-0.18251978
238	0xbde01d74	-0.10943118
239	0x3d9b878f	0.07594215
240	0x3dae9a4b	0.08525523
241	0x3e465b67	0.19370805
242	0xbdaa39f0	-0.08311832
243	0x39d8b5a5	0.00041334066
244	0x3e081dfb	0.13292687
245	0xbe7fb1ea	-0.24970213
246	0x3e3f2727	0.18667279
247	0xbe5aa27c	-0.21351045
248	0x3b6937d8	0.0035586264
249	0xbd33ce89	-0.04389814
250	0xbe0b4003	-0.13598637
251	0x3d0bc824	0.034126416
252	0x3e5aa23c	0.2135095
253	0xbd9a9377	-0.07547658
254	0xbe1cf85b	-0.15329115
255	0xbdc3914c	-0.095491976

init_net.0.bias f4 [64]
0	0xbe3cf4d6	-0.18452772
1	0x3d6394bd	0.05556177
2	0x3e70be6e	0.23510143
3	0xbe8207d7	-0.25396606
4	0xbe8374dc	-0.25675094
5	0x3d0780b3	0.03308172
6	0x3e471888	0.19442952
7	0xbe20e1ce	-0.15711138
8	0x3d68d02e	0.05683916
9	0x3e39ddc3	0.18151002
10	0x3da308f6	0.079606935
11	0x3d64df4c	0.055877015
12	0x3e83e5af	0.25761172
13	0x3e2c3f1e	0.16820952
14	0xbe14b409	-0.14521803
15	0x3cb6d3d7	0.02231781
16	0x3e07128b	0.13190667
17	0x3e692c4c	0.22770804
18	0xbe838729	-0.25689057
19	0x3e0f2bf2	0.13981608
20	0xbd998664	-0.07496336
21	0xbe817370	-0.25283384
22	0x3d6ac180	0.057313442
23	0xbe0ff0cc	-0.140567
24	0x3d15df52	0.036589928
25	0xbe2ba877	-0.16763483
26	0xbe46f725	-0.19430216
27	0xbcb37954	-0.02190844
28	0xbdb1a275	-0.08673564
29	0x3e1aa2bd	0.15101142
30	0x3cb65d96	0.022261422
31	0x3e4e6055	0.20153935
32	0x3d4631b2	0.048387237
33	0xbdaa09f2	-0.08302678
34	0x3e331585	0.17488678
35	0x3c672aab	0.014109294
36	0x3d467fdd	0.048461784
37	0xbdaa123d	-0.0830426
38	0x3a72e89f	0.00092662306
39	0xbd4b5841	-0.049644712
40	0xbcb3d360	-0.021951377
41	0xbe4e325c	-0.20136398
42	0xbad020e4	-0.0015878943
43	0xbe5b75c9	-0.2143165
44	0xbd6384c3	-0.055546533
45	0x3e193ac1	0.14963819
46	0xbe37d8fc	-0.17953867
47	0xbe323763	-0.17403941
48	0xbd811e51	-0.063046105
49	0xbd90f5af	-0.070781104
50	0x3d330914	0.04370983
51	0x3d2f9343	0.04286505
52	0x3e0612fa	0.13093176
53	0xbe362314	-0.17786819
54	0xbc95450c	-0.0182214
55	0x3e13dfca	0.14440838
56	0x3e64b1d9	0.22333468
57	0xbc9a4aaf	-0.01883444
58	0xbe18fc13	-0.14939909
59	0x3d9801fa	0.07422252
60	0x3e16913d	0.14703842
61	0xbe252e61	-0.16130973
62	0xbe196d54	-0.14983112
63	0x3de9b98f	0.114123456

init_net.2.weight f4 [128, 64]
0	0xbc0f7ec0	-0.008758247
1	0xbdf1caaa	-0.11806233
2	0xbd939b14	-0.07207313
3	0x3d4fa200	0.050691605
4	0xbd2da870	-0.042396963
5	0x3db0b2da	0.08627863
6	0x3dca60d2	0.09881748
7	0x3c94f610	0.018183738
8	0xbc21f1f0	-0.009884343
9	0xbd2285d0	-0.039678395
10	0xbbcf1e20	-0.00632073
11	0x3cba63b0	0.022752613
12	0xbdc38bbe	-0.09548138
13	0xbcf4bb48	-0.029874459
14	0xbdd4f0e8	-0.10397512
15	0x3d9d1f0a	0.07671936
16	0xbda307b4	-0.07960454
17	0x3de9de02	0.11419298
18	0xbd03fbd8	-0.0322226
19	0xbd92a7f4	-0.07160941
20	0x3d75fdf4	0.06005664
21	0x3c98a830	0.018634886
22	0x3db144cc	0.086557
23	0x3d55be98	0.052183717
24	0xbdf69d6a	-0.12041743
25	0x3da1eae4	0.0790613
26	0xbcc0d558	-0.02353923
27	0xbd624a08	-0.055246383
28	0x3da292e4	0.079381734
29	0x3dbab564	0.09116629
30	0xbde1019a	-0.109866336
31	0xbc392fe0	-0.011302918
32	0x3dd23a98	0.10265082
33	0x3d464a74	0.048410848
34	0x3dd7ac12	0.10530867
35	0xbd2f7634	-0.042837337
36	0xbd8d3870	-0.0689553
37	0x3ddc230a	0.10748871
38	0x3d5569d0	0.052102864
39	0x3df5c16a	0.119997814
40	0xbd55dc54	-0.052212074
41	0xbda45e7e	-0.080258355
42	0xbc700d50	-0.014651611
43	0xbdf10b62	-0.11769749
44	0x3d48b0f8	0.048996896
45	0x3dbcd298	0.09219855
46	0x3cf5d178	0.030007109
47	0xbc4a5b40	-0.012350857
48	0x3d7dda54	0.061975792
49	0xbda27f10	-0.079343915
50	0x3dfa6e24	0.12228039
51	0xbdfe8d4e	-0.124292955
52	0xbdf53be6	-0.11974315
53	0xbcf1f910	-0.029537708
54	0x3dd11cb8	0.10210556
55	0x3c4d0ec0	0.012515724
56	0x3d44a1a4	0.048005715
57	0xbdbba656	-0.091625854
58	0x3d3ab818	0.04558572
59	0xbc64d9c0	-0.013967931
60	0x3d4d38c0	0.05010295
61	0x3db4cc50	0.08828032
62	0x3d5e8e68	0.054335028
63	0xbc2e3620	-0.010633022
64	0xbbfc4f60	-0.007699892
65	0xbda08ee2	-0.07839753
66	0xbd393104	-0.04521276
67	0x3da65bca	0.08122976
68	0xbd4d4f6c	-0.05012457
69	0x3d9efc76	0.07762997
70	0xbd4b063c	-0.049566492
71	0xbcee7d08	-0.029112354
72	0x3b2e5800	0.0026602745
73	0xbdeaec20	-0.114708185
74	0xbaa39800	-0.0012481213
75	0xbc4e6e00	-0.012599468
76	0xbc37fc20	-0.011229545
77	0xbcccb3b0	-0.024988025
78	0x3dc9d318	0.09854716
79	0x3dbcecba	0.092248395
80	0xbdad8180	-0.08471966
81	0x3d6dd674	0.058065847
82	0xbdc8cd4c	-0.09804782
83	0xbdd9f032	-0.10641517
84	0x3d1c8258	0.038210243
85	0x3af0c980	0.0018370599
86	0xbd6ed9ec	-0.058313295
87	0xbdf6e9b8	-0.12056297
88	0xbd4636b4	-0.048392013
89	0x3d2b01fc	0.04174994
90	0xbdecf438	-0.115700185
91	0xbdf8b1f6	-0.12143318
92	0x3c81eae0	0.015859067
93	0xbdb86c68	-0.09005052
94	0xbde046cc	-0.109510034
95	0xbd45443c	-0.048160776
96	0xbca4dd68	-0.020125106
97	0xbde8a0e8	-0.113588154
98	0xbdaaf034	-0.08346596
99	0x3c064870	0.008195981
100	0xbdf16698	-0.11787146
101	0xbc8fed80	-0.017569304
102	0xbda54cc6	-0.08071284
103	0xbdb17800	-0.08665466
104	0x3d493b5c	0.049128875
105	0xbdc50a62	-0.09621121
106	0xbdc2016c	-0.094729275
107	0x3d91fdf8	0.07128519
108	0x3cbf7418	0.023370788
109	0x3de9247a	0.113839105
110	0xbd08daf4	-0.033411935
111	0xbd774dc0	-0.060376883
112	0xbc3d8900	-0.011568308
113	0x3a25c900	0.0006324202
114	0x3dc33ca8	0.09533054
115	0xbdfeff18	-0.12450999
116	0xbc11d1b0	-0.008900091
117	0x3d627bfc	0.055294022
118	0xbd8cf990	-0.06883538
119	0xbd821584	-0.0635176
120	0x3d776ee0	0.060408473
121	0xbdf54ba0	-0.11977315
122	0x3cf2a488	0.02961947
123	0xbdc63116	-0.09677331
124	0x3d7e7ee4	0.06213273
125	0xbddae3ee	-0.106880054
126	0x3d9d63d8	0.07685059
127	0xbdf25684	-0.11832908
128	0xbdd72f62	-0.105070844
129	0x3af17300	0.0018421113
130	0x3dc9b99c	0.09849855
131	0xbddb3cbe	-0.10704945
132	0xbd6461f0	-0.055757463
133	0x3de0d720	0.10978532
134	0xbcabb8e0	-0.020962179
135	0x3d541d1c	0.051785573
136	0xbdf64584	-0.12024978
137	0xbd2103a4	-0.039310113
138	0xbd82014a	-0.06347902
139	0x3dd7d2dc	0.10538265
140	0x3d54801c	0.051879987
141	0xbdbacc06	-0.09120946
142	0x3ca518b0	0.020153373
143	0xbabc4f00	-0.0014366806
144	0xbd525d88	-0.05135873
145	0xbd923214	-0.07138458
146	0xbd29e6c0	-0.041479826
147	0x3dc9c936	0.09852831
148	0xbdb783a2	-0.08960654
149	0xbdb65c22	-0.08904292
150	0xbd1df638	-0.03856489
151	0x3b0e82c0	0.0021745414
152	0x3d0b5f5c	0.03402649
153	0x3b75d380	0.0037510097
154	0xbcf680c8	-0.030090705
155	0xbd9b39c4	-0.07579377
156	0xbcb7bd30	-0.022429079
157	0xbd4e1b78	-0.050319165
158	0x3dced46c	0.1009911
159	0xbdf9315e	-0.12167619
160	0xbda34aba	-0.07973237
161	0xbdd04772	-0.10169877
162	0xbcbb2498	-0.022844598
163	0x3dc77e76	0.097409174
164	0x3de064e0	0.109567404
165	0xbddedcb6	-0.10881941
166	0xbbb17780	-0.005415857
167	0x3d96436a	0.07337077
168	0x3d61b034	0.05509968
169	0x3dd1b0ca	0.10238798
170	0xbb633b40	-0.0034672767
171	0xbdac012a	-0.083986595
172	0x3da95a10	0.08269131
173	0xbd2f9280	-0.042864323
174	0x3d848da2	0.06472327
175	0xbcfc59d8	-0.03080456
176	0x3d59a5f0	0.053136766
177	0x3de640c8	0.11242825
178	0x3dee0b02	0.11623193
179	0xbde8fa06	-0.11375813
180	0xbda956c6	-0.08268504
181	0xbd53b1ec	-0.05168335
182	0xbda34060	-0.07971263
183	0x3df5a1cc	0.11993751
184	0xbc34e080	-0.011039853
185	0xbda9d0b0	-0.08291757
186	0xbd63d5a8	-0.05562368
187	0xbd8d67c4	-0.06904557
188	0x3d50e3fc	0.050998673
189	0xbddf4bda	-0.109031394
190	0xbdeeb1f8	-0.116550386
191	0xbdfc5ad8	-0.123220146
192	0x3d5c6da8	0.053815514
193	0x3d7d2928	0.061806828
194	0xbd9eff0a	-0.077634886
195	0x3cfdee18	0.030997321
196	0x3dbcf9ac	0.09227309
197	0x3c94c9e0	0.018162668
198	0xbcd8a8d8	-0.026447698
199	0x3c174fa0	0.009235293
200	0xbc5b9a30	-0.01340346
201	0x3d80e552	0.062937394
202	0xbdadd3b0	-0.08487642
203	0x3d81d178	0.06338781
204	0x3d9049a2	0.07045294
205	0xbd9b1a9a	-0.07573433
206	0x3dd10a50	0.10207045
207	0x3dfb7076	0.122773096
208	0xbd49d858	-0.049278587
209	0xbd0f6888	-0.0350118
210	0x3d7f2874	0.06229444
211	0xbdc88e3e	-0.097927555
212	0x3d4a7978	0.049432248
213	0x3ceee770	0.029163092
214	0x3da15d4a	0.078791216
215	0xbdde5d04	-0.10857585
216	0xbdd4ae50	-0.1038481
217	0x3d65f440	0.056141138
218	0x3d386d8c	0.045026347
219	0xbdee46b2	-0.11634578
220	0xbd8ec2c6	-0.06970744
221	0xbdea3c08	-0.11437231
222	0xbdb7677e	-0.089552864
223	0xbd6703a4	-0.056399956
224	0x3dd3d990	0.10344231
225	0xbccbd400	-0.024881363
226	0x3d9308ae	0.0717939
227	0x3df31e4a	0.118710116
228	0x3d6955bc	0.05696653
229	0xbde52c82	-0.1119013
230	0x3d80d334	0.06290284
231	0x3d434b64	0.04767932
232	0x3dc66ab2	0.09688319
233	0xbdfc86f4	-0.12330428
234	0x3d9d71b0	0.076877
235	0x3dd18bee	0.102317676
236	0xbdee2c62	-0.11629559
237	0x3c564650	0.013078287
238	0x3dda8a52	0.10670914
239	0xbdba30de	-0.09091352
240	0x3d27ff40	0.04101491
241	0x3d623dc0	0.05523467
242	0x3d0630ac	0.03276126
243	0x3dfe88dc	0.124284476
244	0x3dd19b8a	0.10234745
245	0x3ddba2ec	0.10724434
246	0xbc7f46d0	-0.015580848
247	0x3dd6b5de	0.10483907
248	0xbdee91d4	-0.11648908
249	0xbd8a2526	-0.06745367
250	0xbcdb03a8	-0.026735142
251	0xbd1817d4	-0.0371321
252	0x3dec7742	0.11546184
253	0x3d717e1c	0.058958158
254	0x3da4d0ee	0.08047663
255	0x3dae2234	0.085026175

init_net.2.bias f4 [128]
0	0xbd4c26fc	-0.049841866
1	0x3c46c680	0.012132287
2	0xbd6faa00	-0.058511734
3	0x3ca18360	0.019715965
4	0xbce6ea70	-0.02818796
5	0xbda53a0c	-0.08067712
6	0x3be53360	0.00699465
7	0x3d45a2e0	0.048251033
8	0xbcbca020	-0.023025572
9	0x3b1613c0	0.0022899956
10	0xbdfdd92a	-0.123949364
11	0xbd2ec530	-0.04266852
12	0xbdfecde0	-0.12441611
13	0x3dfe42b4	0.12415066
14	0x3dda649a	0.106637195
15	0xbddde3ce	-0.10834466
16	0xbdc4e82e	-0.09614597
17	0xbdd918d2	-0.10600437
18	0x3d937278	0.071995676
19	0x3cd65e38	0.026167974
20	0xbdec84da	-0.11548777
21	0xbd1e9868	-0.038719565
22	0x3dc04c82	0.09389593
23	0xbaa3ca80	-0.0012496263
24	0xbde74c84	-0.11293891
25	0x3d31a2a0	0.043367982
26	0x3dfe8288	0.124272406
27	0x3de9711e	0.113985285
28	0x3c330150	0.010925606
29	0xbd0cbbb4	-0.034358695
30	0x3c55e9c0	0.013056219
31	0x3dbcddc2	0.092219844
32	0x3d5d0a28	0.053964764
33	0xbdd457d0	-0.103683114
34	0x3d86e132	0.06585921
35	0x3da6a96a	0.08137782
36	0xbdd983f2	-0.1062087
37	0xbdb414d8	-0.08793038
38	0x3daf0ec6	0.0854774
39	0x3d87a9ae	0.06624161
40	0xbddfaa84	-0.10921195
41	0x3d0d26f8	0.03446099
42	0x3d9a979c	0.075484484
43	0x3ccf6478	0.025316462
44	0x3d888d08	0.066675246
45	0x3d2555ac	0.040364906
46	0x3d131990	0.03591305
47	0x3d9539bc	0.072864026
48	0xbd2e6e80	-0.04258585
49	0x3a336700	0.00068436563
50	0xbcf7f0b0	-0.030266136
51	0xbcb9ad58	-0.022665665
52	0x3d4569cc	0.0481966
53	0xbd4651fc	-0.04841803
54	0xbbd7a9c0	-0.006581515
55	0x3dda182e	0.10649143
56	0x3d283100	0.041062355
57	0x3dfae21c	0.12250158
58	0xbbbdc4a0	-0.005791262
59	0xbd394830	-0.04523486
60	0x3de1299a	0.10994263
61	0xbda0e5b6	-0.07856314
62	0x3d6ee8d0	0.058327496
63	0x3dd87ac4	0.10570291
64	0xbd90ba68	-0.07066804
65	0xbcce53f0	-0.025186509
66	0x3de720e4	0.1128557
67	0xbc2569f0	-0.010096058
68	0xbde09412	-0.10965742
69	0xbd8df664	-0.06931761
70	0xbdf108de	-0.117692694
71	0xbcc740b8	-0.024322852
72	0x3d8d9a58	0.06914204
73	0xbc88c9c8	-0.01669778
74	0xbcbf1f28	-0.023330286
75	0x3c275970	0.010214195
76	0xbc2539d0	-0.010084584
77	0xbcb5e888	-0.022205606
78	0xbd2236fc	-0.03960322
79	0x3c7cc470	0.015427694
80	0xbbf8f8e0	-0.0075980276
81	0xbc92d048	-0.017921582
82	0xbd0192d4	-0.031634167
83	0x3d0562e4	0.032565013
84	0xbd433c64	-0.047665015
85	0xbbebdec0	-0.0071981847
86	0xbc9cbfc0	-0.019134402
87	0x3db4561c	0.088054866
88	0x3d569f74	0.05239816
89	0x3d56897c	0.05237721
90	0xba48e600	-0.0007663667
91	0xbda2319a	-0.07919617
92	0x3c091a90	0.008368149
93	0xbdc91860	-0.09819102
94	0x3b330a40	0.0027319342
95	0x3dfb35ee	0.12266146
96	0xbc933818	-0.017971084
97	0x3df4865a	0.11939688
98	0xbd9f6d42	-0.07784511
99	0x3dc92534	0.09821549
100	0x3d403bd4	0.046932057
101	0xbd5f0e6c	-0.054457113
102	0xbdfcaa02	-0.12337114
103	0xbd6650ec	-0.056229517
104	0x3d710934	0.058846667
105	0x3df73612	0.1207086
106	0xbdcde5d6	-0.10053603
107	0xbd663ff8	-0.05621335
108	0x3d3623bc	0.044467673
109	0xbcfef300	-0.03112173
110	0xbdda3378	-0.10654348
111	0xbd2c3e10	-0.042051375
112	0x3d231ea0	0.03982413
113	0xbdf909f4	-0.121601015
114	0xbd3e3cfc	-0.046444878
115	0x3d96626a	0.0734299
116	0x3d73f5d8	0.059560627
117	0xbd5ada64	-0.05343093
118	0x3dee3868	0.116318524
119	0x3ca4b1f0	0.020104378
120	0x3d74f3a8	0.05980268
121	0xbc308c10	-0.010775581
122	0xbd428a24	-0.047495022
123	0x3dddd998	0.10832518
124	0xbdef798c	-0.11693105
125	0x3d3376b4	0.043814376
126	0xbd60c2a8	-0.05487314
127	0xbd21f060	-0.03953588

rnn.weight_ih_l0 f4 [128, 7]
0	0x3d89a051	0.06720031
1	0xbda429bd	-0.080157734
2	0xbc41c9c9	-0.0118278945
3	0xbcf4cb8e	-0.029882219
4	0x3d842884	0.0645304
5	0xbd882df6	-0.06649391
6	0xbc8c888c	-0.017154954
7	0xbd0fdaa3	-0.035120618
8	0x3d85a65d	0.06525872
9	0x3d8d97a0	0.06913686
10	0x3aee2daf	0.0018171574
11	0x3d10c3fb	0.03534315
12	0x3db34fb0	0.087554336
13	0xbd9b85b6	-0.07593863
14	0x3ad861bd	0.001650862
15	0x3da548e6	0.08070545
16	0xbcbc89b6	-0.023014884
17	0xbd857c7b	-0.065178834
18	0x3d9fab58	0.07796353
19	0x3dabaa21	0.08382059
20	0x3d56545b	0.05232654
21	0x3d87867e	0.06617449
22	0xbbcfa934	-0.0063373093
23	0xbd7a4343	-0.061099302
24	0xbd9f6fa4	-0.07784966
25	0x3d15d787	0.036582496
26	0xbcbef164	-0.023308463
27	0x3db29dc9	0.087215014
28	0x3c211204	0.009830955
29	0x3d6ce41c	0.05783473
30	0x3bb9eec2	0.005674214
31	0xbca5b882	-0.020229582
32	0xbd0aa805	-0.033851642
33	0xbd983452	-0.07431854
34	0xbdadc99e	-0.08485721
35	0xbc939fd6	-0.018020552
36	0xbd9a9d89	-0.07549579
37	0xbdb42696	-0.08796422
38	0x3d33baba	0.04387925
39	0xbd1e8aa0	-0.03870642
40	0x3a927528	0.0011173831
41	0xbcb17c86	-0.021665823
42	0xbd87c0f1	-0.066285975
43	0xbce00201	-0.027344706
44	0xbd678f23	-0.05653299
45	0x3c8200d9	0.015869545
46	0x3da956e4	0.08268526
47	0xbcb056c8	-0.021525756
48	0x3c45baa5	0.012068425
49	0x3d4dca33	0.05024166
50	0x3d203fb3	0.03912325
51	0x3bf687d6	0.007523517
52	0xbcf75fd2	-0.030197058
53	0xbc8d1d5e	-0.017225917
54	0xbc3830f0	-0.011242136
55	0x3db5655a	0.08857222
56	0x3c4b9c2e	0.012427373
57	0x3d69193d	0.056908835
58	0x3d4d96c4	0.05019261
59	0x3d9489f6	0.072528765
60	0x3c78f31b	0.01519468
61	0x3a550bb8	0.00081270514
62	0xbcd61303	-0.026132112
63	0x3d667424	0.056263104
64	0x3d85497a	0.06508155
65	0x3d8c1b9f	0.06841206
66	0xbda01226	-0.078159615
67	0x3bcd0130	0.006256245
68	0xbd5de6de	-0.05417525
69	0xbd6f52c5	-0.058428545
70	0xbd9d590b	-0.07682999
71	0xbd03403d	-0.032043684
72	0x3da12966	0.07869224
73	0x3d49e371	0.04928917
74	0xbd793453	-0.060840916
75	0xbc874f80	-0.0165174
76	0x3d24366c	0.040090963
77	0x3d538ba0	0.05164683
78	0x3d82b4ee	0.06382166
79	0xbd3da834	-0.04630299
80	0xbd118297	-0.03552493
81	0x3d431d55	0.047635395
82	0x3c9e1070	0.019294947
83	0xbd39b72e	-0.04534071
84	0xbd8889c9	-0.066669054
85	0xbb6fcc22	-0.0036590178
86	0x3d9931e6	0.074802205
87	0xbd0ec487	-0.03485539
88	0xbc484b4b	-0.0122249825
89	0x3d0ebff3	0.034851026
90	0xbd93b8ca	-0.0721298
91	0xbd11e611	-0.0356198
92	0x3c407b88	0.011748202
93	0xbd249400	-0.040180206
94	0x3d8cfe47	0.06884437
95	0xbc4c4fdf	-0.012470215
96	0x3d1527df	0.036414977
97	0xbc8b4b30	-0.017003626
98	0xbc266f90	-0.0101584345
99	0x3da43bc0	0.08019209
100	0xbd8f8c01	-0.070091255
101	0xbd7ae0cb	-0.061249536
102	0xbd060c0e	-0.03272634
103	0x3c87905c	0.016548328
104	0xbcd4cbf2	-0.025976155
105	0x3ce2a38b	0.027665874
106	0xbd27bb4b	-0.0409501
107	0x3d05c814	0.032661512
108	0xbda826f6	-0.08210556
109	0x3b5a7be1	0.0033337998
110	0x3d3da71e	0.046301953
111	0x3c74f2ca	0.014950464
112	0xbd1eb804	-0.03874971
113	0xbd03eb93	-0.032207083
114	0x3c9d0971	0.019169541
115	0xbd78d4b1	-0.060749713
116	0xbd8c0129	-0.06836159
117	0xba0a40c0	-0.0005273931
118	0xbd98af37	-0.074552946
119	0x3ca18560	0.019716918
120	0xbd6f1eca	-0.058378972
121	0x3d4732ed	0.04863255
122	0x3d525569	0.051350985
123	0x3d91936d	0.07108197
124	0xbd6726e0	-0.05643356
125	0x3b7c97fd	0.003854274
126	0x3da752a6	0.08170061
127	0xbcb283fb	-0.021791449
128	0x3d00b815	0.031425554
129	0x3d4392ab	0.047747295
130	0x3b474747	0.0030407475
131	0xbcf9dfde	-0.030502256
132	0x3cbe824c	0.02325549
133	0x3cc4cabb	0.02402245
134	0xbd8b5a1f	-0.068042986
135	0xbd0388df	-0.032112952
136	0xbd97cf15	-0.07412545
137	0xbd986874	-0.07441798
138	0x3d84e607	0.06489187
139	0x3d7dceb0	0.06196469
140	0xbd75ba32	-0.059992023
141	0xbdae8247	-0.08520942
142	0xbd926934	-0.07148972
143	0x3d2b1ee7	0.041777518
144	0x3d96331a	0.073339656
145	0xbc57f649	-0.013181278
146	0xbcf892d6	-0.030343454
147	0xbd91246d	-0.07087026
148	0xbb667e70	-0.0035170577
149	0x3d48070a	0.048834838
150	0x3d2decfd	0.042462338
151	0xbd136ff9	-0.035995457
152	0xbd148fc8	-0.036269933
153	0x3c7cb72b	0.01542453
154	0x3d2ec36b	0.042666834
155	0x3d94c181	0.072634704
156	0x3c988f0d	0.0186229
157	0x3d6113d3	0.054950546
158	0x3d92f998	0.071765125
159	0xbaa3a053	-0.0012483693
160	0xbc9c7f63	-0.019103711
161	0x3d57a354	0.052645996
162	0x3c0315f7	0.008000842
163	0x3dac8b75	0.08425037
164	0x3d43152b	0.04762761
165	0x3ca3c0b7	0.019989355
166	0xbda74ae3	-0.081685804
167	0x3d5ae59c	0.05344163
168	0xbcfc35ed	-0.030787433
169	0xbc80c0aa	-0.01571687
170	0x3d215fb4	0.03939791
171	0x3cc77d5a	0.024351764
172	0xbcc43c9d	-0.023954684
173	0xbba047af	-0.004891358
174	0xbd899542	-0.06717922
175	0xbd175fb4	-0.036956504
176	0xbcbc745f	-0.023004709
177	0x3a0fc770	0.00054847356
178	0xbcb5aba4	-0.022176571
179	0x3d4763db	0.048679214
180	0xbbbba325	-0.0057262355
181	0xbd65ee1c	-0.056135282
182	0x3cc5ea06	0.024159443
183	0xbce8395c	-0.028347664
184	0x3d80cb0f	0.0628873
185	0xbb248138	-0.0025101434
186	0x3d9c1d92	0.076228276
187	0x3d9de1db	0.07709094
188	0x3db33308	0.08749968
189	0x3c1a9835	0.009435703
190	0x3d86942a	0.06571229
191	0xba8a59f8	-0.0010555377
192	0x3ceb2d56	0.028708141
193	0xbd289f04	-0.041167274
194	0xbd927b28	-0.071523964
195	0xbd8cd875	-0.068772234
196	0xbdab8887	-0.0837565
197	0xbca93eba	-0.020659793
198	0xbd9b019d	-0.07568667
199	0x3d8c1c04	0.06841281
200	0xbd969ef2	-0.07354535
201	0x3d885892	0.066575184
202	0x3c985001	0.018592836
203	0xbd81b8b2	-0.06334056
204	0x3d9a2052	0.07525696
205	0x3cef82bf	0.02923715
206	0xbbe7c125	-0.007072585
207	0x3d8ec995	0.069720425
208	0xbd972744	-0.07380536
209	0x3d823bb7	0.06359046
210	0xbbfc3d27	-0.0076977196
211	0x3ac5151b	0.0015036197
212	0x3d03cbc0	0.032176733
213	0xbd13b140	-0.03605771
214	0xba991450	-0.0011679027
215	0x3d7fbf63	0.06243838
216	0x3d0beaba	0.0341594
217	0x3d2e4af5	0.042551953
218	0x3d9c0d1a	0.076196864
219	0xbd68c703	-0.056830417
220	0xbc83d7ea	-0.016094167
221	0x3d9d334a	0.07675798
222	0xbcf6d3ad	-0.030130232
223	0x3cd582a9	0.02606328
224	0x3d0ee887	0.034889724
225	0xbda1fd57	-0.07909649
226	0x3a9861f0	0.0011625867
227	0x3da69548	0.08133942
228	0xbc736dcb	-0.01485772
229	0xbdae8d81	-0.085230835
230	0xbda2ad0d	-0.07943163
231	0x3c5b7498	0.013394497
232	0xbcdaa5fc	-0.026690476
233	0xbd703a9f	-0.058649655
234	0x3d927220	0.07150674
235	0xbd4bb91f	-0.049737092
236	0xbd7e7d1e	-0.06213104
237	0x3d79d312	0.060992308
238	0x3d88e740	0.066847324
239	0x3cf7f047	0.03026594
240	0x3db410e2	0.08792283
241	0x3b122d50	0.002230484
242	0x3d87430a	0.066045836
243	0xbd55d6de	-0.052206866
244	0xbd92b7c6	-0.07163958
245	0x3c212c18	0.009837173
246	0xbd75ab58	-0.05997786
247	0xbb22aed6	-0.0024823449
248	0xbc10d2c1	-0.00883931
249	0x3c5de518	0.01354339
250	0xbcbc739a	-0.023004342
251	0xbbf7afc0	-0.007558793
252	0xbda3aeef	-0.0799235
253	0xbd1497cd	-0.03627758
254	0x3d25988b	0.04042868
255	0x3d9cb914	0.07652488

rnn.weight_hh_l0 f4 [128, 128]
0	0x3d768825	0.06018843
1	0xbad0c195	-0.0015926833
2	0xbd94f40a	-0.07273109
3	0xbd5a35fd	-0.053274143
4	0x3d5bebfc	0.05369185
5	0xbd998ab0	-0.07497156
6	0xbd840898	-0.06446952
7	0xbd659914	-0.05605419
8	0xbcc177b3	-0.023616647
9	0x3d28545a	0.04109607
10	0x3d79a63c	0.06094955
11	0x3d8ad8ed	0.067796566
12	0x3d277a2a	0.04088799
13	0x3ca37855	0.01995484
14	0xbcbda4e4	-0.023149915
15	0xbd5cdac5	-0.053919572
16	0xbd37f03b	-0.044906836
17	0xbb33bb96	-0.0027425042
18	0x3d9c18d4	0.07621923
19	0xbd009a44	-0.03139712
20	0xbc597026	-0.013271367
21	0xbb1c5700	-0.0023855567
22	0xbd224c42	-0.039623506
23	0xbd2b1b9f	-0.04177439
24	0x3cccf3a9	0.02501853
25	0xbd80eee5	-0.062955655
26	0xbbae1432	-0.005312466
27	0xbcae2210	-0.021256477
28	0x3c9fdf7e	0.019515749
29	0xbc3798ec	-0.011205893
30	0xbd3ce776	-0.046119176
31	0xbcd9a2d9	-0.02656691
32	0xbcb2eef2	-0.021842454
33	0x3d194e87	0.037428405
34	0x3ca4b689	0.02010657
35	0xbce00c83	-0.027349716
36	0x3d8d615c	0.069033355
37	0x3c005cc1	0.007834614
38	0x3d44d662	0.048056014
39	0xbd0942e6	-0.033511065
40	0xbd98dd22	-0.07464053
41	0xbdade292	-0.084904805
42	0xbcf07bd4	-0.02935592
43	0x3d5e6299	0.05429325
44	0x3d6315aa	0.055440582
45	0x3cdc4427	0.026887966
46	0x3ccc1299	0.024911212
47	0xbd723c15	-0.05913933
48	0xbcd49455	-0.025949636
49	0x3c2fbbbf	0.0107259145
50	0xbd9d4359	-0.07678861
51	0xbda3ff17	-0.08007639
52	0xbd88d425	-0.06681088
53	0x3cdfda45	0.027325759
54	0xbc362b8a	-0.011118779
55	0xbc7de31d	-0.015496043
56	0x3d606f77	0.0547938
57	0xbd713597	-0.058888998
58	0xbd5f3b44	-0.05449988
59	0xbca50c49	-0.02014746
60	0x3d5e07e8	0.05420676
61	0x3c67f8e1	0.014158458
62	0xbd9b9564	-0.075968534
63	0x3d7f1106	0.062272094
64	0xbd51401b	-0.051086526
65	0x3d8c7acc	0.06859359
66	0x3d041ae5	0.03225221
67	0x3cbd04da	0.023073602
68	0x3d956378	0.07294363
69	0x3d04b240	0.032396555
70	0xbdb1e8fd	-0.08687017
71	0x3d0f390a	0.034966506
72	0x3daee35d	0.0853946
73	0xbd159c01	-0.03652573
74	0x3d8407d6	0.06446807
75	0x3d91de5c	0.0712249
76	0xbcaa29e4	-0.020771928
77	0x39599cfd	0.00020753215
78	0xbc3af93a	-0.011411959
79	0x3d9f718f	0.077853315
80	0x3d16e7a1	0.036841992
81	0x3d7f4c29	0.06232849
82	0xbda15605	-0.07877735
83	0xbd124f0d	-0.03571992
84	0xbd882f2a	-0.06649621
85	0x3c9dc8bd	0.019260759
86	0xbd0cda3c	-0.034387812
87	0x3cd16ca4	0.0255645
88	0x3d3bd67c	0.045858845
89	0xbcbed1ec	-0.023293458
90	0x3c29fe2a	0.010375539
91	0xbd84f251	-0.06491531
92	0xbc2754ae	-0.01021306
93	0x3c68fe54	0.014220793
94	0x3d80a867	0.0628212
95	0x3d1187f3	0.035530042
96	0x3cbf74c6	0.023371112
97	0x3d3b1df8	0.045682877
98	0x3d8ce92d	0.06880412
99	0x3c07b47e	0.008282779
100	0x3dada025	0.08477811
101	0xbd5bc6eb	-0.0536565
102	0x3cf45c3e	0.02982914
103	0x39531dbf	0.0002013361
104	0x3d85a322	0.06525256
105	0xbdac23ee	-0.084052905
106	0x3d2ed66e	0.042684965
107	0xbd9b07fe	-0.07569884
108	0xbcd776a0	-0.026301682
109	0xbce8c126	-0.028412413
110	0xbcf19834	-0.029491521
111	0xbd2f31e9	-0.042772207
112	0xbd92dcfb	-0.07171055
113	0xbd9dd447	-0.07706504
114	0xbc92a656	-0.01790158
115	0x3d93287d	0.07185457
116	0xbcc1cbc6	-0.023656737
117	0xbd73b25d	-0.059496272
118	0xbccdc47b	-0.025118103
119	0xbd9496ca	-0.07255323
120	0xbb9b89bc	-0.004746644
121	0x3d941a85	0.07231621
122	0xbdb017da	-0.08598299
123	0x3d42a18c	0.047517344
124	0x3d858103	0.06518748
125	0x3d81f592	0.06345667
126	0xbd55bb55	-0.052180607
127	0x3c290d10	0.010318056
128	0x3d4b905e	0.049698226
129	0xbd9a9019	-0.07547016
130	0x3d8a7bd6	0.06761901
131	0xbbd42190	-0.0064737275
132	0xbd9ead79	-0.07747931
133	0xbcb904b4	-0.02258525
134	0x3b26d0f0	0.0025454126
135	0xbd12fd43	-0.03588606
136	0xbd12a72c	-0.03580396
137	0xbc151732	-0.0090997685
138	0x3cf88edd	0.03034156
139	0x3d23a2f9	0.039950345
140	0xbdb04ab5	-0.08607999
141	0xbbb96cec	-0.0056587365
142	0x3cb1e2ba	0.021714557
143	0x3d9186a7	0.07105761
144	0x3d34d79b	0.04415093
145	0x3d75b8da	0.05999074
146	0x3cd5df80	0.02610755
147	0xbc0c5b50	-0.0085666925
148	0xbd47045e	-0.04858815
149	0xbd15aba8	-0.036540657
150	0x3ce9799f	0.028500376
151	0xbc973d6d	-0.018461907
152	0x3da5fde4	0.081050664
153	0xbd61c225	-0.05511679
154	0x3d751fbd	0.05984472
155	0x3d66f760	0.05638826
156	0x3d6e1fd8	0.058135837
157	0x3d8d5c7f	0.06902408
158	0xbd50a166	-0.05093517
159	0x3d505f27	0.050871994
160	0xbdb26edd	-0.08712552
161	0xbd412f4b	-0.047164243
162	0xbc648649	-0.013948032
163	0x3d97f0d9	0.07418985
164	0xbc918d14	-0.017767467
165	0xbd9073bb	-0.07053324
166	0xbda0cea3	-0.07851913
167	0x3adc99c8	0.0016830498
168	0x3bd92bf7	0.0066275555
169	0x3caf5c1f	0.021406231
170	0xbcc9b244	-0.024621136
171	0x3cf06f42	0.029349927
172	0x3c162e9e	0.009166388
173	0xbcbdce87	-0.023169769
174	0x3d388da9	0.045056973
175	0xbd822a26	-0.063556954
176	0xbd3ad0ff	-0.04560947
177	0x3cb1e521	0.021715702
178	0xbcce8f39	-0.025214778
179	0xbb0b32bc	-0.0021239957
180	0xbd012923	-0.03153337
181	0x3d4d69cc	0.050149724
182	0x3da9bfd4	0.082885414
183	0x3d9a4dcc	0.0753437
184	0x3cbaa753	0.022784865
185	0xbd648cdd	-0.0557984
186	0xbcfb90a6	-0.030708622
187	0xbd2418bb	-0.040062647
188	0xbc8ac5e9	-0.016940074
189	0xbd33c8a8	-0.043892533
190	0x3d571de9	0.05251876
191	0xbdaaf93a	-0.083483174
192	0x3b795a2d	0.0038048134
193	0x3d8269b7	0.0636782
194	0xbd8ef426	-0.06980161
195	0xbc7ca8b4	-0.015421081
196	0x3d459f1a	0.048247434
197	0xbcfc04d0	-0.030764014
198	0xbd2aa024	-0.04165663
199	0x3d4032bd	0.046923388
200	0xbd7989e8	-0.060922533
201	0x3db3d467	0.08780747
202	0x3da1bce8	0.07897359
203	0x3b81cb06	0.00396097
204	0x3c695b7d	0.014243004
205	0xbd37e7e3	-0.04489888
206	0x3ca7b919	0.020474004
207	0xbd8839c6	-0.066516444
208	0xbcbc0aa0	-0.022954285
209	0x3d902eb8	0.07040161
210	0x3cd2b791	0.025722297
211	0x3d8289f7	0.06373971
212	0x3d6df1ff	0.058092114
213	0x3dac3a4d	0.084095575
214	0x3cb70cc9	0.022344964
215	0xbd842e8e	-0.06454192
216	0xbda33197	-0.07968443
217	0x3d5fc975	0.054635484
218	0x3d92744e	0.071510896
219	0x3db18cc7	0.08669429
220	0xbd74eaf0	-0.059794366
221	0x3da4a9a2	0.080401674
222	0xbd007b47	-0.031367566
223	0x3cbc2102	0.022964958
224	0x3d7a0558	0.061040252
225	0xbd8b083b	-0.06788679
226	0xbdacf41d	-0.084449984
227	0x3d6fce35	0.058546264
228	0xbda7938c	-0.08182439
229	0x3d2e9b2e	0.04262846
230	0x3d509a8d	0.05092864
231	0x3d8411cb	0.06448706
232	0x3b069421	0.002053507
233	0xbcb7ebe5	-0.02245135
234	0x3c3ca053	0.011512834
235	0xbc483590	-0.012219802
236	0xbda9e467	-0.082955174
237	0x3caa4852	0.020786438
238	0xbd537c5b	-0.051632266
239	0x3d857390	0.065161824
240	0xbd2998ee	-0.04140561
241	0xbc8c845b	-0.017152956
242	0xbd8befd2	-0.068328515
243	0x3da61b73	0.08110704
244	0x3d511a27	0.05105033
245	0x3d9ddc96	0.07708089
246	0x3d525655	0.051351864
247	0xbd5e217f	-0.054231163
248	0x3daa5792	0.08317484
249	0xbc41e9f4	-0.011835564
250	0x3da5ea8f	0.08101379
251	0x3c4a192d	0.012335104
252	0x3d64a782	0.05582381
253	0xbd0efb46	-0.0349076
254	0x3d0d9bb7	0.03457233
255	0xba1614d1	-0.0005725148

rnn.bias_ih_l0 f4 [128]
0	0xbc64a3fa	-0.013955111
1	0x3d728812	0.059211798
2	0xbdae1384	-0.08499816
3	0x3d3ef60a	0.04662136
4	0x3cc3c667	0.023898317
5	0x3d633964	0.055474654
6	0xbcc95cf1	-0.02458045
7	0xbcadd043	-0.021217471
8	0x3da041ee	0.07825075
9	0x3d90f70c	0.070783705
10	0xbd2bb961	-0.041924838
11	0xbd9214d0	-0.07132876
12	0x3db7ab5d	0.08968232
13	0x3d02f51f	0.031972047
14	0x3d7365e1	0.05942333
15	0xbda9afd9	-0.082854934
16	0x3d2ab6e6	0.04167833
17	0xbda9fec8	-0.08300549
18	0xbc8088fe	-0.015690323
19	0xbcaa850e	-0.020815399
20	0xbd5031a4	-0.05082859
21	0xbd704d68	-0.05866757
22	0xbd7135b2	-0.0588891
23	0xbbf923ce	-0.007603145
24	0xbd8a6802	-0.06758119
25	0xbd2baca0	-0.041912675
26	0xbd1a5d8a	-0.037686862
27	0xbcabe0d1	-0.020981224
28	0x3c55f1fa	0.01305818
29	0xbd86e422	-0.06586482
30	0x3da60148	0.08105713
31	0xbdae0925	-0.08497838
32	0x3d29e2d7	0.041476097
33	0xbda25394	-0.079260975
34	0xbc896ece	-0.016776469
35	0xbc3b8d22	-0.011447223
36	0x3da2fdcf	0.079585664
37	0xbd995672	-0.07487191
38	0xbd513cbe	-0.05108332
39	0xba99b54f	-0.0011727008
40	0xbdb3b475	-0.08774654
41	0x3c7eed30	0.01555948
42	0x3b99c528	0.0046926923
43	0x3ce210e5	0.027595947
44	0xbc73dccd	-0.014884186
45	0x3ce2d22f	0.027688114
46	0x3d12dbe8	0.03585425
47	0x3d598047	0.05310085
48	0x3d300b54	0.042979553
49	0x3d8de9d3	0.06929364
50	0x3d6a9296	0.0572687
51	0xbc3c9815	-0.011510869
52	0x3d759af5	0.05996223
53	0x3cb04741	0.021518352
54	0x3d232f6c	0.039840147
55	0xbd85ba20	-0.06529641
56	0x3d2ec31b	0.042666536
57	0x3bc7932e	0.0060905432
58	0xbd866285	-0.0656176
59	0xbd048ec0	-0.0323627
60	0xbcbc11d3	-0.022957718
61	0xbd20ea68	-0.039286047
62	0xbb60fe6f	-0.0034331342
63	0xbd764964	-0.060128585
64	0x3d5a65fc	0.053319916
65	0xbcbd4a0d	-0.0231066
66	0x3a768a96	0.0009404806
67	0x3d093897	0.033501234
68	0x3cfd8586	0.030947458
69	0xbdb523d3	-0.088447236
70	0xbd04854b	-0.03235368
71	0xbd912e03	-0.07088854
72	0xbdaa9259	-0.08328695
73	0x3d7303ce	0.0593298
74	0x3d916eee	0.07101236
75	0xbd7ccecb	-0.06172065
76	0xbd0be1db	-0.03415094
77	0x3d353548	0.044240266
78	0x3da852e6	0.082189366
79	0x3d963981	0.07335187
80	0x3d55f24c	0.052233025
81	0xbd96317e	-0.07333659
82	0xbd3dc206	-0.046327613
83	0x3d8efeb0	0.069821715
84	0xbd9f33f5	-0.07773582
85	0xbd192520	-0.03738892
86	0xbd8eb7d9	-0.0696866
87	0xbd91fad6	-0.07127921
88	0x3ccddbb9	0.025129186
89	0xbcdb1f5a	-0.026748348
90	0xbda899ef	-0.082324855
91	0xbd907b40	-0.07054758
92	0x3d912910	0.0708791
93	0x3d91496f	0.070940845
94	0x3d26968c	0.040670916
95	0x3d1f4f7e	0.03889417
96	0xbd5888bf	-0.052864786
97	0xbd066223	-0.032808434
98	0xbb21cf98	-0.0024690386
99	0x3d04e7d8	0.032447666
100	0xbacc9d9a	-0.0015610934
101	0x3cb538d5	0.022121826
102	0xbd44ccfc	-0.04804705
103	0xbd05c0ce	-0.032654576
104	0x3d09d6ed	0.033652235
105	0xbda976d6	-0.08274619
106	0x3a8a48a9	0.0010550219
107	0x3d9c87dc	0.076431006
108	0xbd70d212	-0.05879409
109	0xbc96f220	-0.018426001
110	0xbc83ed1d	-0.016104275
111	0xbcfe026d	-0.031007016
112	0x3d4f8fc0	0.0506742
113	0x3cad0ed9	0.021125244
114	0x3dac0a0f	0.08400356
115	0xbcacba5b	-0.021084955
116	0x3d0b3acb	0.033991616
117	0x3cc2e167	0.02378912
118	0xbd476a64	-0.048685446
119	0xbdb42aab	-0.08797201
120	0x3d482821	0.048866395
121	0xbd65f85b	-0.056145053
122	0xbce9c8cb	-0.028538128
123	0xbc8b68f9	-0.017017828
124	0xbdb0fd47	-0.08642059
125	0x3d62f20d	0.05540662
126	0xbcabf902	-0.02099276
127	0xbd399752	-0.045310326

rnn.bias_hh_l0 f4 [128]
0	0xbda21ef7	-0.07916062
1	0x3c27e48a	0.010247359
2	0xba1996b9	-0.0005858946
3	0xbc3ca0fc	-0.011512991
4	0xbcfebf64	-0.031097122
5	0x3d13600d	0.035980273
6	0xbca2ebc3	-0.01988781
7	0x3c20e4dc	0.009820189
8	0x3d5fc3b1	0.054629985
9	0x3cc3874e	0.02386823
10	0xbd78ef76	-0.060775243
11	0xbc6a60d7	-0.014305315
12	0xbce9f5f6	-0.028559666
13	0x3bbea479	0.0058179465
14	0x3d5ccd7c	0.053906903
15	0xbc138265	-0.009003256
16	0xbd02ba19	-0.031915758
17	0xbd43847d	-0.047733773
18	0x3d4e5fc9	0.050384317
19	0xbccb126a	-0.024789054
20	0x3ba95b72	0.005168372
21	0xbc995852	-0.018718872
22	0xbd8480cc	-0.064698786
23	0x3d005782	0.031333454
24	0x3d8fd338	0.07022709
25	0xbd5cad7f	-0.053876396
26	0x3c531c05	0.012885098
27	0x3cc5ea2b	0.024159512
28	0xbccf1c60	-0.025282085
29	0xbc7a2882	-0.015268447
30	0xbb758c80	-0.0037467778
31	0x3d5af156	0.053452812
32	0xbb1b27fd	-0.0023674958
33	0xbdaead6b	-0.085291706
34	0xbcdf90e3	-0.027290767
35	0xbd2893aa	-0.04115645
36	0xbb8427df	-0.0040330733
37	0xbd3cb33c	-0.04606937
38	0x3c81115f	0.015755353
39	0xbc27fb79	-0.010252827
40	0xbd3bd2fa	-0.0458555
41	0xbc0a9f4d	-0.008460832
42	0xbd8a554c	-0.0675455
43	0xbd37d567	-0.04488125
44	0x3d3e1710	0.046408713
45	0x3b6b27e8	0.003588194
46	0x3d4297bd	0.04750799
47	0x3ca8c0e2	0.020599786
48	0x3d74edea	0.059797205
49	0x3da63ed9	0.08117456
50	0x3d8f1a2f	0.06987416
51	0xbcaf7dd6	-0.021422308
52	0xbd17e183	-0.0370803
53	0x3d91a7cb	0.07112082
54	0x3d397dd4	0.045286015
55	0x3d9cc2d2	0.076543465
56	0x3d9f583c	0.07780501
57	0x3d850562	0.06495167
58	0x3c1a113d	0.009403524
59	0xbac241c9	-0.0014820631
60	0xbd453943	-0.048150312
61	0x3da9c869	0.08290178
62	0xbd495cad	-0.049160648
63	0x3d5289d0	0.05140096
64	0xbc432f6e	-0.011913164
65	0xbd4b9440	-0.04970193
66	0xbd81e5bc	-0.063426465
67	0x3ca3ded4	0.020003714
68	0xbd050738	-0.032477587
69	0x3d4664df	0.048436042
70	0xbd218cd6	-0.039440952
71	0xbc519782	-0.01279247
72	0x3ccbff72	0.02490208
73	0x3dadb953	0.084826134
74	0xbd949b53	-0.07256188
75	0xbd4ba721	-0.049719933
76	0xbd4ee888	-0.050514728
77	0x3cc4b731	0.024013134
78	0x3d95532a	0.07291253
79	0x3c52a889	0.012857565
80	0x3c07fbcd	0.00829978
81	0x3d7bd6d1	0.06148416
82	0xbd8171bc	-0.06320521
83	0x3db07cdb	0.08617564
84	0x3db30aa4	0.08742264
85	0xbd7c2420	-0.06155789
86	0xbb6b9efc	-0.0035952916
87	0x3d179465	0.037006754
88	0xbd5cdf2e	-0.05392378
89	0xbd28641b	-0.041111093
90	0x3d7b183a	0.0613024
91	0x3d84833b	0.06470343
92	0xbd8e71f3	-0.06955328
93	0x3d138079	0.036011193
94	0xbd3934b6	-0.045216285
95	0xbc41646b	-0.011803727
96	0xbdb47b9a	-0.088126376
97	0xbd994827	-0.07484465
98	0xbbf5d942	-0.007502706
99	0xbd7ed1d7	-0.062211838
100	0xbd4325cc	-0.047643468
101	0x3d329549	0.0435994
102	0x3d48b9d7	0.049005356
103	0xbd84cb4b	-0.064840876
104	0x3d802b39	0.06258244
105	0x3dad7343	0.0846925
106	0xbcbba9be	-0.022908088
107	0x3d0315b8	0.032003134
108	0xbc6775e1	-0.014127226
109	0xbb91a767	-0.0044450047
110	0xbcb0ff12	-0.021606002
111	0x3cc4200d	0.023941064
112	0x3da2fc27	0.079582505
113	0xbcdc7b78	-0.026914343
114	0xbcf43eee	-0.029815163
115	0x3db04cb6	0.086083815
116	0x3d8b875b	0.068129264
117	0xbd76d49e	-0.06026136
118	0x3da308a7	0.07960635
119	0xbc8f6b22	-0.01750714
120	0x3cc59ce6	0.024122667
121	0x3c672df4	0.014110077
122	0xbc1da1be	-0.009621082
123	0xbd54fc28	-0.051998287
124	0xb9862f43	-0.00025593684
125	0xbd809aca	-0.06279524
126	0xbc83e112	-0.016098533
127	0x3d58732b	0.052844208

rnn.weight_ih_l1 f4 [128, 128]
0	0x3d86d195	0.06582943
1	0xbd6d2069	-0.057892237
2	0x3d1f0c59	0.038830135
3	0xbb5353ba	-0.003224595
4	0x3d84fc3f	0.064934246
5	0x3d7d8bf0	0.061901033
6	0xbcdb0f4e	-0.026740696
7	0x3d4257b9	0.04744694
8	0x3ccdede2	0.025137845
9	0x3d1685d2	0.036748715
10	0xbd622cab	-0.05521838
11	0x3c68850a	0.014191875
12	0xbd96e07a	-0.07367034
13	0x3d413839	0.04717276
14	0xbcbc7473	-0.023004746
15	0x3d11fa8e	0.03563934
16	0x3d85f281	0.065403946
17	0x3c46b557	0.012128196
18	0xbd8dc930	-0.06923139
19	0xbd825504	-0.06363872
20	0x3c59228c	0.0132528655
21	0xbdaf4979	-0.08558936
22	0x3d48270c	0.048865363
23	0xbcbf8976	-0.023380976
24	0xbd8d8c37	-0.069115095
25	0x3d6965fa	0.056982018
26	0x3c3ee441	0.0116511
27	0x3da3a534	0.07990494
28	0x3b0f7186	0.0021887734
29	0x3d0bc75a	0.034125663
30	0x3d453d15	0.048153955
31	0x3d2b9e85	0.041899223
32	0xbd225380	-0.039630413
33	0xbd9267cd	-0.07148705
34	0xbbb0287a	-0.005375919
35	0x3da6ff69	0.08154184
36	0x3d62099f	0.055184957
37	0xbcf077d9	-0.029354023
38	0xbcfec58d	-0.031100059
39	0x3d7c1793	0.06154592
40	0x3d666854	0.05625184
41	0x3d2292d9	0.039690826
42	0xbd9b39c2	-0.07579376
43	0xbda643df	-0.08118414
44	0x3d7699be	0.060205214
45	0x3d986c1c	0.07442495
46	0x3da11aef	0.07866465
47	0x3d391f10	0.04519564
48	0xbd07ca3f	-0.03315186
49	0xbc11a4ec	-0.008889418
50	0x3da1d1cb	0.07901343
51	0xbb45cd5d	-0.003018222
52	0xbd51d73f	-0.051230665
53	0x3d1b5ba4	0.037929192
54	0xbd76021a	-0.060060598
55	0x3cc60368	0.024171546
56	0xbd257d05	-0.04040243
57	0xbc80e249	-0.015732901
58	0x3d2833a6	0.04106488
59	0xbd2bf364	-0.041980162
60	0xb91145f0	-0.00013854331
61	0xbd99566f	-0.07487189
62	0x3c6d1967	0.014471388
63	0xbcf26182	-0.029587511
64	0x3d0789c8	0.033090383
65	0x3d8dd059	0.06924505
66	0xbd62939b	-0.05531655
67	0x3daaad8a	0.08333881
68	0x3d12d8ab	0.035851162
69	0x3da118fb	0.07866093
70	0x3be0dfcf	0.0068626176
71	0xbd56c876	-0.05243727
72	0xbd8b30ea	-0.06796439
73	0x3d92a6bf	0.071607105
74	0xbd4fd94c	-0.05074434
75	0xbd63255a	-0.055455543
76	0xbcef5625	-0.029215882
77	0xbdb54529	-0.08851082
78	0xb93ea1b3	-0.0001818005
79	0x38c0afd5	9.188025e-05
80	0x3c7335e2	0.01484439
81	0xbb2e6a7e	-0.0026613767
82	0xbd4e9903	-0.050438892
83	0x3d98f77e	0.074690804
84	0xbd249f2c	-0.04019086
85	0xbd9c2f17	-0.07626169
86	0x3d87691c	0.06611845
87	0xbd91e54e	-0.071238145
88	0xbd838cff	-0.06423377
89	0xbda75c14	-0.081718594
90	0x3d49f41e	0.049305074
91	0x3ca92400	0.020647049
92	0x3d88286b	0.06648334
93	0x3d5e6f12	0.054305144
94	0xbd5177ad	-0.051139522
95	0x3ca6fa48	0.020383015
96	0x3be84641	0.007088453
97	0x3d511b25	0.051051278
98	0xbd21bf8f	-0.039489325
99	0x3d96748b	0.073464476
100	0xbc9a834d	-0.018861437
101	0xbd508a4a	-0.050913133
102	0xbc1b117e	-0.00946462
103	0x3d30b5be	0.043142073
104	0x3c474a37	0.01216369
105	0x3d906cc0	0.070519924
106	0x3ce5a49c	0.028032593
107	0x3d9da3b3	0.07697239
108	0x3ce21f3e	0.027602788
109	0xbdb39cef	-0.08770167
110	0xbbba1880	-0.00567919
111	0xbccc7b59	-0.02496116
112	0x3d95a262	0.07306363
113	0x3d9c4d95	0.07631985
114	0x3cc2d2bc	0.023782127
115	0xbd2b179e	-0.04177057
116	0xbcfce3ef	-0.030870406
117	0xbd673bf9	-0.05645368
118	0xbd9db984	-0.077014
119	0xbd39335b	-0.045214992
120	0x3d8b9d58	0.0681712
121	0x3d129ba0	0.035792947
122	0x3c80fcc3	0.015745526
123	0x3d9bc3d3	0.0760571
124	0xbcfddef3	-0.0309901
125	0x3da430d5	0.080171265
126	0xbd5cabaf	-0.053874668
127	0x3c686315	0.014183779
128	0xbcc434fc	-0.023951046
129	0x3d1e52cb	0.038653176
130	0x3cd8acd2	0.026449595
131	0x3d2eb611	0.0426541
132	0x3c905862	0.01762027
133	0xbd915181	-0.07095624
134	0x3d4c315c	0.04985176
135	0x3cadc812	0.021213565
136	0x3d201c07	0.03908923
137	0xbd940e73	-0.072293185
138	0xbdaae311	-0.08344091
139	0x3d59c944	0.053170457
140	0x3d7049d1	0.058664147
141	0xbd324087	-0.04351857
142	0xbcefb026	-0.029258799
143	0x3d0383b6	0.03210803
144	0xbc6d1224	-0.014469657
145	0xbd818e10	-0.063259244
146	0xbd96392a	-0.07335122
147	0x3ce35622	0.027751032
148	0x3da19881	0.07890416
149	0x3da78a10	0.0818063
150	0xbd3bb765	-0.045829196
151	0x3d912b25	0.07088307
152	0xb9ef1254	-0.00045599288
153	0x3cc8576f	0.024455754
154	0xbd95202f	-0.07281529
155	0xbc4ce846	-0.01250655
156	0xbb9eb9de	-0.0048439344
157	0x3c2dd80c	0.010610592
158	0x3c96b9d6	0.01839916
159	0x3aef8412	0.0018273613
160	0xbb1420b9	-0.0022602512
161	0x3c537c1f	0.012908011
162	0xbd44c042	-0.048034914
163	0x3d825cd3	0.06365361
164	0xbd5a76a6	-0.05333581
165	0x3c9b1115	0.018929044
166	0xbd876f04	-0.066129714
167	0x3cb6dc89	0.022321956
168	0x3d9d829b	0.07690927
169	0xbd85f90b	-0.06541642
170	0x3d4e1bb0	0.050319374
171	0x3d608a76	0.054819547
172	0x3d630da2	0.055432923
173	0x3da0b322	0.07846667
174	0xbd8147fa	-0.063125566
175	0x3daf83f1	0.08570088
176	0xbd1e412f	-0.038636383
177	0xbc811a6d	-0.015759671
178	0x3cff8968	0.03119345
179	0xbd5dd559	-0.054158542
180	0xbc5893fe	-0.013218878
181	0x3db04975	0.08607761
182	0x3bb20207	0.0054323706
183	0xbd4ec505	-0.05048086
184	0xbd1be128	-0.038056523
185	0x3cfd93c7	0.030954255
186	0xbcb0d8b8	-0.021587715
187	0xbd3c6354	-0.045993164
188	0x3d019156	0.031632744
189	0x3ca3eff3	0.020011878
190	0x3d5db3d1	0.054126564
191	0xbb3fa602	-0.0029243235
192	0x3d386992	0.045022555
193	0xbcca0ec0	-0.024665236
194	0x3d599649	0.05312184
195	0xbc075062	-0.008258911
196	0x3da149b8	0.07875389
197	0xbc9b5530	-0.018961519
198	0xbd9d0fef	-0.07669055
199	0x3bad1dd6	0.0052830977
200	0x3d024f0e	0.031813674
201	0x3d97e83c	0.07417342
202	0xbda1e3a5	-0.07904748
203	0x3c8eaa41	0.017415168
204	0x3d679ce5	0.05654611
205	0xbceb23ab	-0.028703531
206	0xbc9f731f	-0.019464074
207	0x3ca9306f	0.020652978
208	0x3d6fef6d	0.058577944
209	0x3d8cd39d	0.068762995
210	0x3d9745e7	0.0738638
211	0x3bc47210	0.0059950426
212	0x3d4d2137	0.050080504
213	0xbd21f6b4	-0.039541915
214	0xbd4a5610	-0.04939848
215	0x3d89854a	0.06714876
216	0xbd8d84c3	-0.06910088
217	0x3db30408	0.08741003
218	0x3c8352f3	0.016030764
219	0x3c91b566	0.017786693
220	0xbcb76c3e	-0.022390481
221	0xbd1730db	-0.036911827
222	0xbc5cebac	-0.013483923
223	0x3d5d0786	0.053962253
224	0xbd7ec25e	-0.06219708
225	0xbd3ff0d1	-0.04686052
226	0xbd95b4e1	-0.073098905
227	0x3cb507ce	0.022098448
228	0x3d24a497	0.040196028
229	0xbbcc028d	-0.00622589
230	0x3d9d0701	0.076673515
231	0x3cd6263e	0.026141282
232	0xbc52e983	-0.012873056
233	0xbd150b7e	-0.036387913
234	0xbc21fb9c	-0.0098866485
235	0x3d33fc49	0.04394177
236	0x3c6c267d	0.014413473
237	0xbdad1cca	-0.08452757
238	0xbd8ea7bf	-0.06965589
239	0x3d8e0e32	0.06936301
240	0xbcd4aebe	-0.02596223
241	0xbd8e612b	-0.06952127
242	0xbc0fe1aa	-0.00878183
243	0x3d34b724	0.04411997
244	0xbd9d9b0f	-0.07695591
245	0xb7831370	-1.5625468e-05
246	0xbdaf9197	-0.08572691
247	0x3c68fd89	0.014220604
248	0x3da915a1	0.082560785
249	0xbbbdc50c	-0.005791312
250	0xbd91f2e1	-0.071264036
251	0x3cbf8733	0.023379898
252	0xbd9fb04d	-0.077972986
253	0x3c35899f	0.011080175
254	0xbcafad7a	-0.021445025
255	0x3d4d58f8	0.050133675
