src/pred_training/trained_rnn_models/T3_resnet50/pred_rnn/cosine_True_0.01_0.9mammograms_pred_rnn_0.51_19.pth (torch, 111867 bytes, 10 tensors)

init_net.0.weight f4 [64, 15]
0	0xbae213f4	-0.0017248378
1	0x3dfd1b5b	0.12358733
2	0xbe422a7a	-0.18961516
3	0xbe2d9de7	-0.16954766
4	0xbdb5b99d	-0.088732935
5	0x3d7d0bca	0.06177882
6	0xbb9592af	-0.004564605
7	0x3e3b0d4e	0.18266794
8	0xbca77c67	-0.020445062
9	0x3d79b370	0.06096214
10	0xbd8e9768	-0.06962472
11	0xbd397ce4	-0.04528512
12	0xbe6160c8	-0.22009575
13	0xbe1c3d65	-0.15257795
14	0xbdc27f09	-0.09496886
15	0x3c05a9cb	0.008158158
16	0x3dbcc132	0.092165366
17	0x3e0ec5f1	0.13942696
18	0xbe1fef14	-0.15618545
19	0xbdcd7619	-0.10032291
20	0x3dab5fed	0.08367906
21	0x3e460377	0.19337259
22	0xbd4208dd	-0.047371734
23	0x3e30a0f0	0.17248893
24	0xbd18113d	-0.037125815
25	0x3cc7bdc6	0.024382483
26	0x3e55af06	0.20867547
27	0xbe5ad909	-0.21371855
28	0xbe122eae	-0.1427562
29	0xbd6ee62d	-0.05832498
30	0xbdb80c15	-0.089866795
31	0x3e4bf2b1	0.19916798
32	0xbe18e8e9	-0.14932598
33	0xbdd93222	-0.10605265
34	0xbe24d139	-0.16095437
35	0xbe5cf21d	-0.21576734
36	0xbe0996e6	-0.1343647
37	0x3e4ac194	0.19800407
38	0x3dd294d1	0.10282291
39	0x3de4b2ea	0.11166938
40	0x3c468c5b	0.012118424
41	0xbdf1f60f	-0.1181451
42	0x3d1fc81a	0.03900919
43	0xbe5c2571	-0.21498658
44	0xbe2a7658	-0.16646707
45	0xbdf33ea9	-0.11877186
46	0x3e14d834	0.145356
47	0x3e0a536f	0.1350839
48	0xbdd14042	-0.10217334
49	0xbc08326c	-0.008312803
50	0x3e16e127	0.14734326
51	0x3e6a87e6	0.22903404
52	0x3dbb42b0	0.09143579
53	0x3cfef5e0	0.031123102
54	0x3e1e2cc4	0.15446764
55	0xbe0ae7f7	-0.1356505
56	0x3d2fd861	0.042930964
57	0xbe36e75e	-0.17861697
58	0xbe2380a9	-0.15967049
59	0xbdf3bc78	-0.11901182
60	0x3dd4cb18	0.103902996
61	0x3dbccb65	0.09218482
62	0xbe0bd177	-0.13654123
63	0x3d8e8a8a	0.06960018
64	0x3e018261	0.12647392
65	0xbcee35a7	-0.029078318
66	0x3c09da0f	0.008413806
67	0x3d5a7aee	0.05333989
68	0x3e1250e1	0.14288665
69	0x3e62833c	0.22120374
70	0xbe35cc93	-0.1775382
71	0xbdaceb88	-0.084433615
72	0x3db94cae	0.090478286
73	0x3e42e988	0.19034398
74	0x3e4d4ae0	0.20048094
75	0x3e4f95bf	0.20271967
76	0x3d348cf1	0.044079725
77	0xbe4e4e6b	-0.20147102
78	0x3cad9df6	0.021193486
79	0xbe139662	-0.14412835
80	0xbe5bdc08	-0.21470654
81	0x3e4f0af0	0.20219016
82	0x3e332f84	0.17498595
83	0xbe6b5d95	-0.22984917
84	0x3d30925a	0.04310832
85	0xbd1efd93	-0.038816046
86	0xbd1b71ae	-0.03795021
87	0xbdd83a69	-0.10558016
88	0x3daf7e59	0.08569021
89	0xbe0bbb4e	-0.1364567
90	0x3dacdeac	0.08440909
91	0x3dee722b	0.116428696
92	0x3e28c62c	0.16481847
93	0x3db06b88	0.0861426
94	0xbe697db3	-0.22801857
95	0xbe1908f6	-0.14944825
96	0x3deb4c1a	0.114891246
97	0x3d4555d2	0.048177548
98	0xbe3806f9	-0.1797141
99	0xbe07d6da	-0.13265553
100	0x3e5defc0	0.21673489
101	0x3e1eee94	0.15520698
102	0xbdcdb037	-0.10043376
103	0xbd6e4159	-0.05816779
104	0xbe60babe	-0.21946236
105	0xbb87b0ce	-0.00414095
106	0xbe31a7c1	-0.1734915
107	0xbe35f8cc	-0.1777069
108	0xbc4ffa65	-0.012693976
109	0x3d0daf1b	0.03459082
110	0xbdc139aa	-0.09434827
111	0x3e0bfc42	0.13670447
112	0xbe0f8fb5	-0.14019664
113	0x3e560f3f	0.20904253
114	0x3e21abcb	0.1578819
115	0xbe46f0b6	-0.19427761
116	0xbd6adbd0	-0.057338536
117	0x3c2a51ce	0.01039548
118	0x3d09adf3	0.033613157
119	0x3d5fcf14	0.054640844
120	0x3dba6b90	0.09102547
121	0x3c6a7a3d	0.01431137
122	0xbde605b4	-0.112315565
123	0x3ddf432f	0.10901486
124	0xbe624c54	-0.2209943
125	0xbe0bd3c2	-0.13654998
126	0xbd6a1d50	-0.05715686
127	0xbde5cae0	-0.11220336
128	0xbda502b5	-0.08057157
129	0xbe415bb8	-0.18882644
130	0xbd48ba7f	-0.04900598
131	0x3d49d82d	0.049278427
132	0xbe19ac0f	-0.15007041
133	0xbc37c65c	-0.011216726
134	0x3e28e0ca	0.16492
135	0xbcbf0cf2	-0.023321602
136	0x3bb86681	0.005627454
137	0xbca9ff1e	-0.020751532
138	0x3d3ef9ff	0.046625134
139	0x3e160078	0.14648616
140	0x3e5f7773	0.2182291
141	0x3e146227	0.14490567
142	0x3e5fea96	0.21866831
143	0xbc88debf	-0.016707776
144	0xbe53ecd8	-0.20695817
145	0xbddfae4a	-0.10921915
146	0x3e209cb4	0.15684777
147	0xbad41e68	-0.0016183378
148	0xbdede6f2	-0.11616315
149	0xbe34c868	-0.17654574
150	0xbe5d4db6	-0.21611676
151	0xbe46efc7	-0.19427405
152	0xbd3e321c	-0.046434507
153	0x3e016028	0.12634337
154	0x3dff1674	0.124554545
155	0xbe63857a	-0.22218886
156	0x3e13a04c	0.14416617
157	0xbe389adf	-0.18027829
158	0xbd4775c7	-0.048696306
159	0xbdbf5073	-0.09341516
160	0xbd35c2c5	-0.0443752
161	0xbd394571	-0.04523224
162	0xbe53b1fc	-0.20673364
163	0xbe4b37f0	-0.19845557
164	0xbd13a93f	-0.036050078
165	0x3b3ff88c	0.0029292433
166	0xbdd6a0ba	-0.10479875
167	0x3db17458	0.08664769
168	0xbe545590	-0.20735765
169	0xbc7ebc7d	-0.015547869
170	0x3e4f7727	0.20260297
171	0xbdc0d631	-0.09415854
172	0x3e54f81b	0.2079777
173	0x3daad91d	0.08342192
174	0xbe54e63d	-0.20790954
175	0x3e154340	0.14576435
176	0xbcd9e8ad	-0.026600206
177	0xbdd2a4ba	-0.10285325
178	0x3e3c5c98	0.18394697
179	0xbe3ea39f	-0.18617104
180	0x3cc83bae	0.02444252
181	0xbd4268dc	-0.047463283
182	0x3e294eb6	0.16533932
183	0x3d83b52a	0.06431039
184	0x3de2b6dc	0.11070034
185	0x3da6a0fd	0.08136175
186	0xbd5d8e62	-0.054090865
187	0xbd461fac	-0.04837005
188	0xbe425ef9	-0.18981542
189	0x3dffaf06	0.12484555
190	0x3e3b4fd6	0.18292174
191	0x3e2171e8	0.15766108
192	0xbe26498e	-0.16238996
193	0x3c426c1f	0.011866598
194	0xbe264d67	-0.16240464
195	0xbe01ed28	-0.12688124
196	0xbe09406f	-0.13403486
197	0x3da1bc15	0.07897202
198	0xbe0c953a	-0.137288
199	0xbba4b3af	-0.0050263028
200	0x3c1eca30	0.00969176
201	0x3e187114	0.14886886
202	0xbe324955	-0.17410786
203	0xbe21f164	-0.1581474
204	0xbe08fc3e	-0.13377473
205	0x3e251ed2	0.16125038
206	0xbda9918f	-0.08279716
207	0x3e470259	0.1943449
208	0x3dab8930	0.08375776
209	0x3ceefb01	0.029172422
210	0xbae40ba3	-0.0017398488
211	0xbd3a85f8	-0.04553792
212	0x3cecf29e	0.028924283
213	0xbd577a2c	-0.052606747
214	0xbad42ce6	-0.0016187697
215	0x3cf0ce27	0.029395176
216	0xbe3887ee	-0.18020603
217	0xbdf74c45	-0.12075094
218	0x3e3e87c1	0.18606474
219	0xbe3f73fe	-0.18696591
220	0xbc878519	-0.016542958
221	0x3e695d1e	0.22789428
222	0x3daa70c7	0.08322292
223	0x3bd6810a	0.0065461444
224	0xbe4c716d	-0.19965144
225	0x3de8d628	0.11368972
226	0xbe28381d	-0.16427656
227	0xbd86a7a6	-0.06574945
228	0xbd9e4de3	-0.077296995
229	0xbd0bbe11	-0.03411681
230	0x3b252671	0.0025199915
231	0x3e421267	0.18952332
232	0x3ceb8cea	0.028753716
233	0x3e5348cf	0.20633243
234	0x3e104e7d	0.14092441
235	0xbe15257b	-0.14565079
236	0x3dd39c22	0.10332514
237	0xbe26c3f8	-0.16285694
238	0xbdc90ed5	-0.09817282
239	0x3d8ac65d	0.06776116
240	0x3d9b9ae0	0.075978994
241	0x3e317935	0.17331393
242	0xbd97062e	-0.073742256
243	0x39c15cdb	0.0003688101
244	0x3df2e7d5	0.11860625
245	0xbe64261f	-0.22280167
246	0x3e2b5758	0.16732538
247	0xbe430dc5	-0.19048221
248	0x3b50db5f	0.0031869037
249	0xbd206ae7	-0.03916445
250	0xbdf87d93	-0.121333264
251	0x3cf9ab90	0.030477315
252	0x3e43240b	0.19056718
253	0xbd8816c3	-0.066449665
254	0xbe0c0f4c	-0.1367771
255	0xbdaf07d6	-0.085464165

init_net.0.bias f4 [64]
0	0xbe289987	-0.16464816
1	0x3d54659b	0.05185471
2	0x3e56ee6f	0.20989393
3	0xbe680a47	-0.2266017
4	0xbe6b2434	-0.22963029
5	0x3cda041b	0.026613286
6	0x3e31757b	0.17329971
7	0xbe0f8cd1	-0.14018561
8	0x3d523707	0.05132201
9	0x3e242691	0.16030337
10	0x3d926c99	0.071496196
11	0x3d4b12a0	0.04957831
12	0x3e6d0170	0.2314508
13	0x3e1a2690	0.15053773
14	0xbe04a8fc	-0.12955087
15	0x3c9ec851	0.019382628
16	0x3df2e077	0.118592195
17	0x3e517e52	0.20458344
18	0xbe699b72	-0.22813204
19	0x3dffd517	0.124918155
20	0xbd88ee4c	-0.066860765
21	0xbe6764e4	-0.2259708
22	0x3d51e6fa	0.051245667
23	0xbe00b9ed	-0.12570925
24	0x3d042e46	0.032270692
25	0xbe183b01	-0.14866258
26	0xbe3200f3	-0.17383175
27	0xbca89bdb	-0.02058213
28	0xbd9e8615	-0.07740418
29	0x3e08c04d	0.13354607
30	0x3cae1ed1	0.021254929
31	0x3e385ada	0.18003407
32	0x3d327707	0.043570545
33	0xbd97b83a	-0.07408185
34	0x3e1f7983	0.15573697
35	0x3c4a9f24	0.012367044
36	0x3d313903	0.04326726
37	0xbd97dac6	-0.074147746
38	0x3a3baa39	0.0007158849
39	0xbd3b4805	-0.04572298
40	0xbca55133	-0.02018032
41	0xbe384e0a	-0.1799852
42	0xbb048d3f	-0.002022579
43	0xbe43740a	-0.19087234
44	0xbd50b66a	-0.050955214
45	0x3e09999e	0.13437507
46	0xbe23425f	-0.15943287
47	0xbe1fda3e	-0.15610597
48	0xbd654f7f	-0.055984017
49	0xbd801dbf	-0.062556736
50	0x3d1af7fa	0.037834145
51	0x3d1f102c	0.038833782
52	0x3def293e	0.11677788
53	0xbe228568	-0.15871203
54	0xbc853746	-0.016261708
55	0x3e03deac	0.12877911
56	0x3e491e4d	0.19640465
57	0xbc909f8c	-0.017654203
58	0xbe08e523	-0.13368659
59	0x3d851b98	0.06499404
60	0x3e0925e2	0.13393357
61	0xbe135d43	-0.14391045
62	0xbe091c03	-0.13389592
63	0x3dd0793c	0.101793736

init_net.2.weight f4 [128, 64]
0	0xbc00093c	-0.007814702
1	0xbdd84cb1	-0.10561503
2	0xbd83e9c8	-0.064410746
3	0x3d38fdd3	0.04516394
4	0xbd1b35ae	-0.03789299
5	0x3d9d07c2	0.07667495
6	0x3db38e48	0.08767372
7	0x3c84e9d0	0.016224772
8	0xbc10e3d6	-0.008843383
9	0xbd1217c2	-0.03566719
10	0xbbbb8050	-0.005722083
11	0x3ca443a4	0.020051785
12	0xbdaf3c0d	-0.08556376
13	0xbcde8ff4	-0.027168252
14	0xbdbe03bd	-0.09278057
15	0x3d8c12ac	0.06839499
16	0xbd922a38	-0.07136959
17	0x3dcf35fa	0.10117717
18	0xbcec1d2e	-0.028822508
19	0xbd83aab1	-0.06429041
20	0x3d5b67a8	0.05356565
21	0x3c87fc3e	0.01659977
22	0x3d9ce4ea	0.076608494
23	0x3d3e3e4c	0.04644613
24	0xbddc228b	-0.10748776
25	0x3d905425	0.07047299
26	0xbcad0fff	-0.021125792
27	0xbd4b4610	-0.049627364
28	0x3d910b0f	0.070821874
29	0x3da67b61	0.081290014
30	0xbdc90f8c	-0.098174185
31	0xbc29a47d	-0.0103541585
32	0x3dbb7e0f	0.09154903
33	0x3d30edb8	0.043195456
34	0x3dc0510a	0.09390457
35	0xbd1dcf5a	-0.038527824
36	0xbd7c1533	-0.061543655
37	0x3dc46629	0.09589798
38	0x3d3de8ad	0.046364475
39	0x3ddae7e7	0.10688763
40	0xbd3f10a0	-0.046646714
41	0xbd92c4d6	-0.0716645
42	0xbc57a062	-0.013160797
43	0xbdd7279c	-0.10505602
44	0x3d326ca1	0.043560628
45	0x3da81d74	0.08208743
46	0x3cda46e2	0.026645128
47	0xbc35e19e	-0.011101155
48	0x3d61e789	0.05515245
49	0xbd9112aa	-0.07083638
50	0x3dde89fa	0.10866161
51	0xbde3e66d	-0.111279346
52	0xbddb9ba6	-0.10723047
53	0xbcd7ef1d	-0.026359135
54	0x3dba8441	0.09107257
55	0x3c369964	0.01114497
56	0x3d2dec31	0.042461578
57	0xbda7ef4e	-0.081999406
58	0x3d25f86a	0.04052011
59	0xbc52bba1	-0.012862117
60	0x3d3590ca	0.044327535
61	0x3da150fb	0.07876774
62	0x3d466703	0.048438083
63	0xbc1b7c6b	-0.009490113
64	0xbbe120df	-0.0068703736
65	0xbd8e7bc5	-0.06957201
66	0xbd24c30c	-0.040225074
67	0x3d94a044	0.07257131
68	0xbd36db35	-0.044642646
69	0x3d8eb3d5	0.06967894
70	0xbd325903	-0.04354192
71	0xbcd4cbc5	-0.025976071
72	0x3b1da339	0.0024053587
73	0xbdd0e11a	-0.10199185
74	0xba81eb1b	-0.0009911986
75	0xbc32b942	-0.010908427
76	0xbc1bc9c4	-0.009508554
77	0xbcb08590	-0.021548063
78	0x3db41912	0.08793844
79	0x3da8b9d5	0.0823857
80	0xbd99ddd2	-0.07513012
81	0x3d5855b9	0.052816126
82	0xbdb2f94c	-0.08738956
83	0xbdc15fb3	-0.09442081
84	0x3d0bbf1d	0.034117807
85	0x3adb1918	0.0016715853
86	0xbd5171c6	-0.051133893
87	0xbddc031f	-0.10742783
88	0xbd309b3f	-0.043116804
89	0x3d18f541	0.037343267
90	0xbdd31359	-0.10306425
91	0xbddcfb1b	-0.10790082
92	0x3c68115a	0.014164293
93	0xbda46964	-0.08027914
94	0xbdc7bfe6	-0.097533986
95	0xbd2e8d3e	-0.042615168
96	0xbc92a9fe	-0.017903324
97	0xbdcf910b	-0.101350866
98	0xbd985fb0	-0.07440126
99	0x3bfda47e	0.0077405563
100	0xbdd757ce	-0.10514794
101	0xbc804a1a	-0.015660334
102	0xbd9328c5	-0.071855105
103	0xbd9dccad	-0.077050544
104	0x3d33e606	0.04392054
105	0xbdafad2f	-0.08577954
106	0xbdacdfd0	-0.08441126
107	0x3d825914	0.063646466
108	0x3caca656	0.021075409
109	0x3dd07cc4	0.10180047
110	0xbcf2c316	-0.02963404
111	0xbd5c23fb	-0.05374525
112	0xbc25f216	-0.010128519
113	0x3a20b35d	0.0006130243
114	0x3daf76fd	0.08567617
115	0xbde27862	-0.110581174
116	0xbbf24c6a	-0.007394363
117	0x3d4a17bd	0.049339045
118	0xbd7b66ea	-0.061377443
119	0xbd680a32	-0.056650348
120	0x3d5eda67	0.054407503
121	0xbdda2b17	-0.1065275
122	0x3cda25c4	0.026629336
123	0xbdafbdce	-0.08581124
124	0x3d651a4c	0.05593328
125	0xbdc34ddd	-0.095363356
126	0x3d8c8b29	0.0686248
127	0xbdd838fa	-0.105577424
128	0xbdc000b9	-0.09375138
129	0x3abbdcf3	0.0014332816
130	0x3db3d010	0.08779919
131	0xbdc3b75c	-0.095564574
132	0xbd4bfa86	-0.049799465
133	0x3dc81e26	0.09771375
134	0xbc9c76c2	-0.019099597
135	0x3d3d4321	0.046206597
136	0xbddbc716	-0.10731332
137	0xbd108273	-0.035280656
138	0xbd683c0a	-0.056697883
139	0x3dc02548	0.09382111
140	0x3d3c66c2	0.045996435
141	0xbda774be	-0.08176564
142	0x3c9341fa	0.017975796
143	0xbaaea15f	-0.0013323239
144	0xbd3cc703	-0.04608823
145	0xbd839499	-0.06424827
146	0xbd17d012	-0.037063666
147	0x3db360ed	0.087587215
148	0xbda3c6bd	-0.07996891
149	0xbda2c417	-0.079475574
150	0xbd0ee236	-0.0348837
151	0x3af1cc1a	0.0018447668
152	0x3cf8795a	0.030331302
153	0x3b57e460	0.0032942519
154	0xbcdcb29d	-0.026940638
155	0xbd8b06e3	-0.06788423
156	0xbca3fdf6	-0.020018559
157	0xbd3815b6	-0.04494258
158	0x3db84a34	0.08998528
159	0xbddec7d4	-0.10877958
160	0xbd91c386	-0.07117371
161	0xbdb9d71e	-0.090742335
162	0xbca7604d	-0.020431662
163	0x3db18a85	0.08668999
164	0x3dc83263	0.097752355
165	0xbdc6dee7	-0.09710484
166	0xbba18ae7	-0.0049298885
167	0x3d85cd7d	0.065333344
168	0x3d493538	0.04912302
169	0x3dbb040d	0.09131632
170	0xbb4f8f66	-0.0031671165
171	0xbd998e89	-0.074978895
172	0x3d96db7a	0.073660806
173	0xbd1d48a3	-0.03839935
174	0x3d6c1c03	0.0576439
175	0xbce1a45f	-0.027544199
176	0x3d41b356	0.04729017
177	0x3dcd60c4	0.10028222
178	0x3dd3b1c7	0.10336643
179	0xbdd07ad7	-0.1017968
180	0xbd97ae3f	-0.07406282
181	0xbd3ce6e8	-0.046118647
182	0xbd91b652	-0.07114853
183	0x3ddb2175	0.10699741
184	0xbc26226a	-0.010140041
185	0xbd97e313	-0.07416358
186	0xbd4bc8a5	-0.049751896
187	0xbd7d9f31	-0.061919395
188	0x3d391854	0.045189217
189	0xbdc73ebe	-0.09728764
190	0xbdd50dcf	-0.104030244
191	0xbde12c0f	-0.10994732
192	0x3d44ae41	0.048017744
193	0x3d62a700	0.055335045
194	0xbd8dbdd6	-0.06920974
195	0x3ce2ef76	0.027702074
196	0x3da8b2e4	0.08237246
197	0x3c867b65	0.016416261
198	0xbcbe7dfa	-0.02325343
199	0x3c0702be	0.0082404
200	0xbc43ac21	-0.011942894
201	0x3d66c30c	0.056338355
202	0xbd9afbbc	-0.07567546
203	0x3d685dda	0.05673013
204	0x3d814378	0.06311697
205	0xbd89ad25	-0.06722478
206	0x3dba877f	0.09107875
207	0x3de06ecb	0.10958632
208	0xbd332abf	-0.043741938
209	0xbcfbeca8	-0.030752495
210	0x3d63dbbd	0.05562948
211	0xbdb2632c	-0.08710322
212	0x3d34b546	0.04411819
213	0x3cd54fb9	0.026038991
214	0x3d90da5b	0.07072898
215	0xbdc640f6	-0.09680359
216	0xbdbdb54f	-0.092630975
217	0x3d4d57c9	0.050132547
218	0x3d24e621	0.04025853
219	0xbdd42822	-0.10359217
220	0xbd7ebd01	-0.062191967
221	0xbdd0ef31	-0.10201872
222	0xbda373a9	-0.07981045
223	0xbd4d64f0	-0.05014509
224	0x3dbd142b	0.09232362
225	0xbcb5de84	-0.02220083
226	0x3d83440f	0.064094655
227	0x3dd9594c	0.10612735
228	0x3d503b5b	0.050837856
229	0xbdcc7881	-0.09983922
230	0x3d66396a	0.056207098
231	0x3d2ebc94	0.04266031
232	0x3db11ea5	0.08648423
233	0xbde140ce	-0.10998689
234	0x3d8c9a22	0.06865336
235	0x3dbb068d	0.09132109
236	0xbdd44b53	-0.103659295
237	0x3c41275b	0.011789168
238	0x3dc32dd8	0.095302284
239	0xbda60478	-0.08106321
240	0x3d164fdb	0.03669725
241	0x3d49f927	0.049309876
242	0x3cf1ed4c	0.029532097
243	0x3de3a092	0.11114611
244	0x3dbb8b60	0.09157443
245	0x3dc3fa26	0.095691964
246	0xbc637b48	-0.013884373
247	0x3dbf9b3f	0.09355783
248	0xbdd45885	-0.10368446
249	0xbd75db8b	-0.060023826
250	0xbcc2954b	-0.023752829
251	0xbd069b84	-0.032863155
252	0x3dd38375	0.10327808
253	0x3d577b8e	0.052608065
254	0x3d931dce	0.07183419
255	0x3d9b6034	0.07586709

init_net.2.bias f4 [128]
0	0xbd3bfb3d	-0.045893896
1	0x3c50668a	0.01271976
2	0xbd5a7826	-0.05333724
3	0x3c97be31	0.018523308
4	0xbcc2ba70	-0.023770541
5	0xbd92325b	-0.07138511
6	0x3bfd2df5	0.007726426
7	0x3d32de31	0.04366893
8	0xbc93a880	-0.018024683
9	0x3b53ccb2	0.0032318053
10	0xbde29975	-0.11064426
11	0xbd2a8f7c	-0.041640744
12	0xbdea104f	-0.11428892
13	0x3de6e1aa	0.11273511
14	0x3dc217c6	0.09477191
15	0xbdc41657	-0.095745735
16	0xbdac97de	-0.08427404
17	0xbdc63ea7	-0.09679919
18	0x3d710fc3	0.058852922
19	0x3cb7f14b	0.022453925
20	0xbdd84994	-0.10560909
21	0xbd14975d	-0.036277164
22	0x3dab855b	0.08375045
23	0xba947335	-0.0011325838
24	0xbdcf3254	-0.10117021
25	0x3d0dbd39	0.034604285
26	0x3deb78b8	0.11497635
27	0x3dd096a6	0.10184984
28	0x3c1432c2	0.009045305
29	0xbd04d103	-0.03242589
30	0x3c471eac	0.012153309
31	0x3db0e70c	0.08637819
32	0x3d43b726	0.047782086
33	0xbdc6163f	-0.09672212
34	0x3d74cf31	0.059767906
35	0x3d90c834	0.07069436
36	0xbdbddd84	-0.092707664
37	0xbda5149e	-0.08060573
38	0x3d9f689d	0.07783625
39	0x3d6f4771	0.05841774
40	0xbdca4489	-0.09876353
41	0x3d00a10e	0.031403594
42	0x3d80f98e	0.06297599
43	0x3cadac75	0.021200398
44	0x3d7d8e8a	0.061903514
45	0x3d18aacf	0.03727227
46	0x3d0ea575	0.03482576
47	0x3d85017c	0.06494424
48	0xbd1b272c	-0.037879154
49	0x3b8622eb	0.004093518
50	0xbcbb8cb9	-0.02289425
51	0xbc9bb860	-0.019008815
52	0x3d2bbfd1	0.041930977
53	0xbd1d0e13	-0.0383435
54	0xbb82c4e6	-0.0039907573
55	0x3dc73791	0.09727395
56	0x3d1e68c3	0.038674127
57	0x3ddf32b3	0.10898342
58	0xbbce0513	-0.006287226
59	0xbd1d7a61	-0.038446788
60	0x3dc53a87	0.09630304
61	0xbd8b5762	-0.06803776
62	0x3d51b26a	0.05119554
63	0x3dbb6d06	0.09151654
64	0xbd817851	-0.06321777
65	0xbcc3822c	-0.023865782
66	0x3dcc1c56	0.09966342
67	0xbc240a77	-0.010012261
68	0xbdcd872c	-0.100355476
69	0xbd7b7537	-0.06139108
70	0xbdd4be22	-0.103878275
71	0xbcb4467e	-0.02200627
72	0x3d72716d	0.059190203
73	0xbc817948	-0.015804902
74	0xbc920f5c	-0.01782959
75	0x3bbbea21	0.0057346974
76	0xbc0e219e	-0.008675007
77	0xbca24e28	-0.019812658
78	0xbd08c744	-0.03339316
79	0x3c7ab89c	0.015302803
80	0xbb958e7f	-0.004564106
81	0xbc99e986	-0.01878811
82	0xbcf42e0e	-0.029807117
83	0x3cf86c63	0.03032512
84	0xbd3a2e35	-0.045454223
85	0xbbefb923	-0.007315771
86	0xbc90506d	-0.017616475
87	0x3d9e720a	0.07736595
88	0x3d447081	0.047958855
89	0x3d38e970	0.0451445
90	0xb98524f5	-0.00025395272
91	0xbd904796	-0.07044904
92	0x3c07e9cc	0.008295488
93	0xbdb40e68	-0.0879181
94	0x3b2b683a	0.0026154653
95	0x3ddf50ca	0.10904081
96	0xbc82730e	-0.015924003
97	0x3ddd21b9	0.10797448
98	0xbd94637e	-0.07245539
99	0x3db1bd83	0.086787246
100	0x3d24fd6b	0.04028074
101	0xbd42fb8b	-0.04760317
102	0xbde20b9f	-0.11037373
103	0xbd5dc240	-0.05414033
104	0x3d5aa5b1	0.053380672
105	0x3ddd7db8	0.108149946
106	0xbdb9a794	-0.09065166
107	0xbd47a404	-0.048740402
108	0x3d1c9a6b	0.038233202
109	0xbce33294	-0.027734078
110	0xbdc99095	-0.0984203
111	0xbd26749e	-0.04063856
112	0x3d20724d	0.039171506
113	0xbde319f5	-0.11088935
114	0xbd15f0ce	-0.036606602
115	0x3d851f8d	0.065001585
116	0x3d58c5c9	0.052922998
117	0xbd46a2c6	-0.048495077
118	0x3dd59b3e	0.10430001
119	0x3c90fd9e	0.01769906
120	0x3d563673	0.05229802
121	0xbc1470d9	-0.009060108
122	0xbd239029	-0.039932404
123	0x3dc89107	0.09793287
124	0xbdd75dd4	-0.10515943
125	0x3d23a40e	0.039951377
126	0xbd460307	-0.04834273
127	0xbd0a85ad	-0.03381889

rnn.weight_ih_l0 f4 [128, 7]
0	0x3d7686d3	0.060187172
1	0xbda40ab9	-0.08009858
2	0xbc2dda6c	-0.010611158
3	0xbcdb7bfd	-0.02679252
4	0x3d6cdfa0	0.057830453
5	0xbd8ed9e3	-0.06975152
6	0xbcbbc3b2	-0.022920463
7	0xbd00e682	-0.03146983
8	0x3d4758ae	0.048668556
9	0x3d7dbb38	0.061946124
10	0x3ad6d67a	0.0016390823
11	0x3d0169c3	0.031595003
12	0x3d8e0816	0.06935136
13	0xbd9c16b0	-0.07621515
14	0x3ac04ef8	0.0014671972
15	0x3d7dc5ad	0.061956096
16	0xbca8e764	-0.020618148
17	0xbd6f2e29	-0.05839363
18	0x3d8f0a9a	0.06984444
19	0x3d838091	0.064210065
20	0x3d1be993	0.03806455
21	0x3d72d213	0.059282374
22	0xbc812d4b	-0.015768668
23	0xbd603c54	-0.054745033
24	0xbd8edb27	-0.06975394
25	0x3d0611b5	0.03273173
26	0xbcfc53ec	-0.030801736
27	0x3d8de3fd	0.06928251
28	0x3c107e3f	0.008819162
29	0x3d8492fd	0.06473348
30	0x3ba6cce9	0.005090345
31	0xbc946456	-0.01811425
32	0xbcf7eb95	-0.030263701
33	0xbd57f1c4	-0.0527208
34	0xbd845141	-0.064608105
35	0xbc8433e1	-0.016138019
36	0xbd62e7c8	-0.055396825
37	0xbda169d0	-0.0788151
38	0x3d20f79e	0.039298646
39	0xbd0d9867	-0.03456917
40	0x3c48e0dd	0.012260643
41	0xbc1b5012	-0.0094795395
42	0xbd73483a	-0.059395052
43	0xbcfd9627	-0.030955387
44	0xbd4f719c	-0.050645456
45	0x3c690116	0.01422145
46	0x3d979366	0.07401161
47	0xbcc96936	-0.024586301
48	0x3bb91f5a	0.0056494894
49	0x3d387216	0.045030676
50	0x3d4fa207	0.05069163
51	0x3bdcfb8d	0.0067438544
52	0xbcdd9353	-0.027047789
53	0xbc7c78a6	-0.015409624
54	0x3bcc28d8	0.006230455
55	0x3dbdfa4f	0.09276258
56	0x3c36cbaa	0.011156956
57	0x3d8782e5	0.06616763
58	0x3d383817	0.044975366
59	0x3d8519cf	0.06499063
60	0x3c5f6187	0.013634092
61	0x3c8b4fe0	0.01700586
62	0xbc2503b8	-0.010071687
63	0x3d4ea752	0.050452538
64	0x3dc14d5d	0.09438584
65	0x3d7b1d20	0.061307073
66	0xbd8f59e9	-0.06999571
67	0x3bbbe298	0.005733799
68	0xbc057ded	-0.008147699
69	0xbc9f604e	-0.019455101
70	0xbd8cf54c	-0.06882724
71	0xbce15ff1	-0.027511569
72	0x3d906514	0.07050529
73	0x3d34e60f	0.044164713
74	0xbd5f54a4	-0.05452408
75	0xbc5a4aaf	-0.01332347
76	0x3d184740	0.037177324
77	0x3d3d578e	0.046226077
78	0x3cf11cbb	0.029432645
79	0xbd29fe6b	-0.041502398
80	0xbd0279eb	-0.03185455
81	0x3d2e7590	0.042592585
82	0xbc366f12	-0.01113488
83	0xbd837a3e	-0.064198
84	0xbd74ca78	-0.0597634
85	0xbd0df01d	-0.034652818
86	0x3d89407d	0.06701753
87	0xbcffc644	-0.03122247
88	0xbc358d85	-0.011081104
89	0xbab0a42a	-0.0013476659
90	0xbdbb08f8	-0.0913257
91	0xbd029802	-0.031883247
92	0x3d04db1a	0.032435514
93	0xbd136aed	-0.035990644
94	0x3d7ca99e	0.061685197
95	0xbc357759	-0.011075818
96	0x3d6014de	0.0547074
97	0x3b691782	0.003556699
98	0xbc152a51	-0.009104327
99	0x3d945e02	0.07244493
100	0xbd809d41	-0.06279994
101	0xbd60c9e6	-0.054880045
102	0xbcf00c76	-0.029302817
103	0x3c7bb425	0.015362774
104	0xbcbc3759	-0.02297561
105	0x3ccb2490	0.024797708
106	0xbce37e35	-0.027770141
107	0x3cefccb5	0.029272417
108	0xbd969d41	-0.073542126
109	0x3b442607	0.0029929893
110	0x3d509191	0.050920073
111	0x3cae091a	0.021244574
112	0xbd0e2683	-0.034704696
113	0xbcb5d6cb	-0.022197148
114	0x3c8cba7c	0.017178766
115	0xbd5ee476	-0.054417096
116	0xbd7ab829	-0.061210785
117	0x3bed8489	0.0072484654
118	0xbd78a1ed	-0.0607013
119	0x3c908625	0.01764209
120	0xbd6cce82	-0.05781413
121	0x3d3278c3	0.0435722
122	0x3d3c7149	0.046006475
123	0x3d826741	0.0636735
124	0xbd67553b	-0.056477766
125	0xba6c6d9e	-0.000901902
126	0x3d95de22	0.07317759
127	0xbd03537b	-0.032062035
128	0x3ce69d1d	0.02815109
129	0x3d2f30db	0.0427712
130	0x3b30dc07	0.0026986615
131	0xbd264702	-0.040595062
132	0x3c2791fa	0.010227675
133	0x3cb01733	0.021495437
134	0xbdba08e5	-0.09083728
135	0xbcebd9a6	-0.028790306
136	0xbd881039	-0.06643719
137	0xbd88c17d	-0.0667753
138	0x3ccbdf48	0.024886742
139	0x3ce79dd0	0.028273493
140	0xbd5c4cfb	-0.05378435
141	0xbdc71639	-0.097210355
142	0xbd832d75	-0.064051546
143	0x3d194554	0.037419632
144	0x3d8652f3	0.0655879
145	0xbd0d6bbf	-0.034526583
146	0xbd39c85b	-0.04535709
147	0xbd821ecf	-0.063535325
148	0xbcf0ef1b	-0.02941089
149	0x3d332ca8	0.04374376
150	0x3d1bc723	0.03803171
151	0xbd04c78d	-0.03241687
152	0xbd6dbe69	-0.058042917
153	0xbc083d89	-0.008315452
154	0x3d1ca56f	0.038243707
155	0x3d863fc7	0.06555133
156	0x3c88a32c	0.016679369
157	0x3d499bd8	0.04922089
158	0x3d83d363	0.06436803
159	0xba7ddcd3	-0.00096840895
160	0xbc8959c8	-0.016766444
161	0x3d4136a1	0.04717124
162	0x3c599b33	0.013281631
163	0x3d9a9575	0.07548038
164	0x3d2ec7fa	0.04267118
165	0x3c925514	0.017862834
166	0xbd8758d1	-0.06608737
167	0x3d5a31bb	0.053270083
168	0xbce20e88	-0.02759482
169	0xbd02deef	-0.031950887
170	0x3d108a44	0.03528811
171	0x3cb29f90	0.021804601
172	0xbcb05e9d	-0.02152949
173	0xbcb918fd	-0.022594923
174	0xbd9a9ac2	-0.07549049
175	0xbd07b12b	-0.033127945
176	0xbd289cb4	-0.04116507
177	0x39fedced	0.00048611258
178	0xbca2d4dd	-0.019876892
179	0x3d326cd6	0.043560825
180	0xbcd63cc7	-0.026152028
181	0xbd89d5fc	-0.067302674
182	0x3cb1a34b	0.02168431
183	0xbb5831e4	-0.0032988722
184	0x3d66ca18	0.056345075
185	0xbb12e8e1	-0.0022416639
186	0x3d8c141a	0.068397716
187	0x3db89edf	0.09014677
188	0x3dc585a8	0.096446335
189	0x3c0aca3f	0.008471071
190	0x3d96ce35	0.073635496
191	0xba789fa7	-0.0009484239
192	0x3cd2a9a0	0.02571565
193	0xbd16af5e	-0.036788337
194	0xbd4758b7	-0.04866859
195	0xbd477a47	-0.048700597
196	0xbd99a898	-0.0750286
197	0xbc2c9759	-0.010534131
198	0xbd8ad802	-0.067794815
199	0x3d7b1eed	0.06130879
200	0xbd86e857	-0.06587284
201	0x3d8ad40b	0.06778725
202	0x3cc13b24	0.02358777
203	0xbd686cc2	-0.056744345
204	0x3d9b7551	0.07590736
205	0x3cd68f6b	0.026191434
206	0xbbcfbf11	-0.0063399156
207	0x3d7ffa8c	0.0624948
208	0xbd690af9	-0.05689523
209	0x3d83dfd2	0.06439175
210	0xbbe186e4	-0.0068825353
211	0x3c065183	0.008198145
212	0x3cec2148	0.028824463
213	0xbd045483	-0.03230716
214	0xba829bfd	-0.0009964701
215	0x3d8087da	0.06275912
216	0x3d14b00d	0.036300708
217	0x3d1c3aca	0.038142003
218	0x3d9c2e41	0.0762601
219	0xbd508611	-0.050909106
220	0xbc6c1f72	-0.014411794
221	0x3d8cef5d	0.068815924
222	0xbc955df8	-0.018233284
223	0x3cf74406	0.030183803
224	0x3cfffcd5	0.03124849
225	0xbd989193	-0.07449641
226	0x3a88a4fa	0.0010425143
227	0x3d953dc8	0.072871745
228	0xbc5adbd0	-0.013358071
229	0xbda3437b	-0.07971855
230	0xbd97f9ab	-0.07420667
231	0x3c43b959	0.011946046
232	0xbd714f44	-0.058913484
233	0xbd5749b5	-0.052560527
234	0x3d8324be	0.064034924
235	0xbd37101a	-0.04469309
236	0xbdbb27c8	-0.09138447
237	0x3cc8e4ee	0.024523225
238	0x3d7561c1	0.05990768
239	0x3d2b7488	0.04185918
240	0x3da15317	0.07877176
241	0x3b032af4	0.0020014616
242	0x3d728b9f	0.059215184
243	0xbd01617d	-0.031587113
244	0xbd523b34	-0.05132599
245	0x3c107afe	0.008818386
246	0xbd683a6b	-0.056696337
247	0xbb124cad	-0.0022323534
248	0xbc01f5eb	-0.007932167
249	0x3c469f90	0.012123004
250	0xbcc5f0a4	-0.024162598
251	0xbc1832dc	-0.00928947
252	0xbd92949a	-0.0715725
253	0xbb32ddda	-0.0027292878
254	0x3d1452ab	0.03621165
255	0x3d8c62cb	0.06854781

rnn.weight_hh_l0 f4 [128, 128]
0	0x3d6cf2cb	0.057848733
1	0xbaa2c646	-0.0012418709
2	0xbd810810	-0.06300366
3	0xbd408e0a	-0.04701046
4	0x3d3b8258	0.045778602
5	0xbd8e3f57	-0.06945675
6	0xbd68a1ec	-0.056795046
7	0xbd5813af	-0.052753147
8	0xbcbdd4f4	-0.023172833
9	0x3cfcc1f8	0.03085421
10	0x3d63f439	0.05565283
11	0x3d865a51	0.06560195
12	0x3d291adc	0.04128538
13	0x3c623e50	0.013808802
14	0xbcb896ff	-0.022532938
15	0xbd4560bb	-0.048187952
16	0xbd220091	-0.03955132
17	0x3b2edeaf	0.0026683023
18	0x3d8eb5ea	0.06968291
19	0xbcc1bf08	-0.023650661
20	0xbbd6a93a	-0.006550935
21	0x3b1deda3	0.0024097941
22	0xbd0f1f8f	-0.034942206
23	0xbd1de070	-0.03854412
24	0x3ccfbdca	0.025359053
25	0xbd538248	-0.051637918
26	0xbc0ae8a7	-0.00847832
27	0xbcb5780c	-0.02215197
28	0x3c7d3492	0.015454428
29	0xbc27c41d	-0.010239628
30	0xbd3664ef	-0.04452985
31	0xbccd7ea1	-0.025084795
32	0xbc9c50bb	-0.019081464
33	0x3d2652ea	0.040606417
34	0x3c84e3fa	0.016221989
35	0xbcbfb845	-0.023403296
36	0x3d6c8396	0.057742678
37	0x3c3361ad	0.010948581
38	0x3d2fd45d	0.042927135
39	0xbceb1534	-0.028696634
40	0xbd7db206	-0.061937355
41	0xbda54073	-0.08068933
42	0xbca46205	-0.02006627
43	0x3d4c860e	0.049932532
44	0x3d3ede7e	0.046598904
45	0x3cb200ba	0.021728862
46	0x3c8d1ef6	0.017226677
47	0xbd53986b	-0.05165903
48	0xbcd87f5a	-0.026427913
49	0x3bd084fb	0.0063635088
50	0xbd9477e6	-0.07249431
51	0xbd975977	-0.07390111
52	0xbd6eebed	-0.058330465
53	0x3ca991de	0.020699438
54	0xbc2abfa2	-0.010421665
55	0xbc92fcbb	-0.017942777
56	0x3d3423d0	0.043979466
57	0xbd5507c7	-0.05200937
58	0xbd3c39cf	-0.045953568
59	0xbc94b6dc	-0.0181536
60	0x3d57ce5e	0.05268704
61	0x3c658e8f	0.014011039
62	0xbd89fe78	-0.06737989
63	0x3d70c892	0.05878503
64	0xbd3eb4e2	-0.046559222
65	0x3d8403fe	0.06446074
66	0x3d0500e6	0.03247156
67	0x3c8e3888	0.01736094
68	0x3d880ab7	0.06642669
69	0x3ce7b7e4	0.028285928
70	0xbda03949	-0.07823426
71	0x3d128860	0.03577459
72	0x3da39ff4	0.07989493
73	0xbd044595	-0.03229292
74	0x3d67d16f	0.056596216
75	0x3d8a942d	0.067665435
76	0xbc87b108	-0.016563907
77	0xbb0434d0	-0.002017308
78	0xbc478630	-0.012177989
79	0x3d89c548	0.067270815
80	0x3d0c20bc	0.034210905
81	0x3d74f084	0.059799686
82	0xbd847b12	-0.06468786
83	0xbd0d858c	-0.03455119
84	0xbd67b476	-0.056568585
85	0x3c9bad44	0.019003518
86	0xbcf39372	-0.029733393
87	0x3cc8538f	0.024453906
88	0x3d289281	0.041155342
89	0xbc829675	-0.015940884
90	0x3c34bd57	0.01103147
91	0xbd67c848	-0.056587487
92	0xbc34676d	-0.011010987
93	0x3c2302a1	0.009949357
94	0x3d6463b2	0.05575914
95	0x3d019874	0.03163953
96	0x3caaa8ff	0.020832537
97	0x3d187909	0.037224803
98	0x3d8299bf	0.06376981
99	0x3bdd8f5e	0.0067614755
100	0x3da63295	0.081151165
101	0xbd4787d9	-0.04871354
102	0x3cf87458	0.030328915
103	0x3be803e5	0.0070805424
104	0x3d64c21f	0.05584919
105	0xbd9c2943	-0.076250575
106	0x3d28d3c0	0.041217566
107	0xbd90cbe0	-0.07070136
108	0xbccfb269	-0.025353627
109	0xbcd1e88e	-0.025623586
110	0xbccd57fb	-0.025066366
111	0xbd0e887f	-0.03479814
112	0xbd903e43	-0.070431255
113	0xbd908219	-0.07056064
114	0xbcae595e	-0.021282848
115	0x3d866d9b	0.06563874
116	0xbcc6a894	-0.024250306
117	0xbd56b7bb	-0.052421313
118	0xbcb94cb4	-0.022619583
119	0xbd83802e	-0.06420933
120	0xbb97f83d	-0.0046377466
121	0x3d837027	0.06417876
122	0xbda196d6	-0.07890098
123	0x3d218c43	0.039440405
124	0x3d777d97	0.060422506
125	0x3d631b60	0.05544603
126	0xbd46e083	-0.048553955
127	0x3c19960f	0.009374156
128	0x3d4d7452	0.05015976
129	0xbd8b8b03	-0.06813624
130	0x3d7c9c83	0.0616727
131	0xbb91fbf9	-0.0044550863
132	0xbd956ef4	-0.07296553
133	0xbc99c31c	-0.018769793
134	0x3b1e2abe	0.0024134363
135	0xbd027358	-0.03184828
136	0xbd0e4d90	-0.034741938
137	0xbc717ab9	-0.014738732
138	0x3cf31002	0.029670719
139	0x3d2b1c4b	0.04177503
140	0xbd944c67	-0.07241135
141	0xbbbb3740	-0.0057133734
142	0x3c9bfa0e	0.019040134
143	0x3d8264c1	0.063668735
144	0x3d33101c	0.043716535
145	0x3d77e6be	0.060522787
146	0x3cd42e4d	0.025900984
147	0xba5e4ae8	-0.000847979
148	0xbd13db45	-0.036097784
149	0xbceefcba	-0.029173244
150	0x3cd3786b	0.025814256
151	0xbca21a29	-0.019787865
152	0x3d97fa4f	0.074207895
153	0xbd237bbb	-0.03991292
154	0x3d4e5a02	0.050378807
155	0x3d4a5a0c	0.04940228
156	0x3d4e8c31	0.050426666
157	0x3d6fc60c	0.05853848
158	0xbd42ce5c	-0.04756008
159	0x3d3a9a29	0.045557175
160	0xbd9dab88	-0.076987326
161	0xbd104586	-0.035222553
162	0xbc6d4cb4	-0.0144836195
163	0x3d8cf501	0.06882668
164	0xbcbff57a	-0.023432482
165	0xbd7e1655	-0.062033016
166	0xbd90a5ef	-0.07062899
167	0x3b615f46	0.0034389063
168	0x3bf8ec30	0.007596515
169	0x3c864bea	0.01639362
170	0xbc82e56d	-0.01597854
171	0x3ce10d33	0.027472114
172	0x3b4db660	0.0031389222
173	0xbcd52743	-0.026019698
174	0x3d107fa9	0.035277996
175	0xbd6685d7	-0.056279983
176	0xbd35bb3b	-0.04436801
177	0x3c64b12e	0.013958259
178	0xbce6e175	-0.028183678
179	0xbbb0b202	-0.005392314
180	0xbcde9dd5	-0.02717487
181	0x3d25c95c	0.040475234
182	0x3d955041	0.07290698
183	0x3d7e7493	0.062122893
184	0x3c78ebce	0.015192939
185	0xbd49521e	-0.04915058
186	0xbcbb76f4	-0.02288387
187	0xbd1006e6	-0.03516283
188	0xbc3e8b4e	-0.0116298925
189	0xbd20cee1	-0.039259795
190	0x3d502e58	0.050825447
191	0xbd920cc1	-0.07131339
192	0x3a8ab806	0.0010583408
193	0x3d82c951	0.06386054
194	0xbd6c6cc3	-0.05772091
195	0xbc7ad1dd	-0.015308824
196	0x3d31d3a1	0.043414716
197	0xbcef6d92	-0.029227052
198	0xbd188b80	-0.037242413
199	0x3d42c285	0.04754879
200	0xbd598e69	-0.05311433
201	0x3d9f956b	0.07792171
202	0x3d8e5784	0.06950286
203	0x3c10d549	0.008839914
204	0x3c858dea	0.016303021
205	0xbd35e4b8	-0.044407576
206	0x3c85af52	0.01631895
207	0xbd747ef3	-0.05969138
208	0xbc921a5d	-0.017834837
209	0x3d8d2fd2	0.068938866
210	0x3ce3cb08	0.027806774
211	0x3d664855	0.056221325
212	0x3d5dda2a	0.054163136
213	0x3d9c283d	0.07624862
214	0x3c9e83d1	0.019349964
215	0xbd6e4c5a	-0.058178283
216	0xbd9486fd	-0.072523095
217	0x3d647a99	0.05578098
218	0x3d8773c3	0.06613877
219	0x3da21e04	0.07915881
220	0xbd59fb2c	-0.05321805
221	0x3d8f2e1a	0.06991215
222	0xbcf8461c	-0.030306868
223	0x3cb461e4	0.022019334
224	0x3d635b36	0.055506907
225	0xbd7f451f	-0.06232178
226	0xbd94205c	-0.072327346
227	0x3d551d23	0.05202974
228	0xbd89a903	-0.067216896
229	0x3d1e6d56	0.03867849
230	0x3d430073	0.04760785
231	0x3d856c23	0.06514766
232	0xbb7ca776	-0.0038551963
233	0xbc950420	-0.018190444
234	0x3c72f7aa	0.0148295555
235	0xbc55bf08	-0.013046034
236	0xbd9aadc9	-0.07552678
237	0x3caa2dbb	0.02077376
238	0xbd3daf00	-0.04630947
239	0x3d81b0c6	0.06332545
240	0xbd3b692e	-0.045754604
241	0xbc8b9f72	-0.017043803
242	0xbd8c3015	-0.068451084
243	0x3d9bf894	0.07615772
244	0x3d3902e7	0.045168784
245	0x3d9569df	0.07295584
246	0x3d3760e6	0.044770144
247	0xbd46a3a1	-0.048495892
248	0x3d978bd3	0.07399716
249	0xbc340acd	-0.010988903
250	0x3d9284bc	0.07154223
251	0x3c19aa2a	0.009378949
252	0x3d60f404	0.05492021
253	0xbd071f19	-0.03298864
254	0x3ce9eb63	0.028554624
255	0xbadc549e	-0.0016809886

rnn.bias_ih_l0 f4 [128]
0	0xbcfdfa44	-0.031003125
1	0x3d0bb3e8	0.03410712
2	0xbdc776d7	-0.09739464
3	0x3cb1bbdc	0.021696024
4	0x3d45c3b3	0.048282336
5	0x3d9619a7	0.073291115
6	0xbd0aa59e	-0.03384935
7	0x3c54c5d3	0.012986618
8	0x3dd023d3	0.10163083
9	0x3e0f76e4	0.14010197
10	0xbd0ee8b2	-0.034889884
11	0xbdf64267	-0.12024384
12	0x3c8510e6	0.01624341
13	0x3d950bb8	0.07277626
14	0x3d5eb8e5	0.054375548
15	0xbd64acab	-0.05582873
16	0x3d5411df	0.051774856
17	0xbdafc3ae	-0.08582245
18	0xbd237df5	-0.039915044
19	0xbda7d856	-0.0819556
20	0xbdb6dfb8	-0.0892939
21	0xbdd63712	-0.104597226
22	0xbd5532e7	-0.052050497
23	0x3bd06d8a	0.0063607143
24	0xbdc61a41	-0.09672976
25	0xbda238d0	-0.079209924
26	0x3c1cd857	0.009573064
27	0x3c3c1a06	0.011480814
28	0x3ce4522c	0.027871214
29	0xbd290782	-0.041266926
30	0x3db0d77c	0.086348504
31	0xbd72defe	-0.059294693
32	0x3cf6a466	0.030107688
33	0xbe115f52	-0.14196518
34	0x3c7540d4	0.0149690695
35	0xbc899c15	-0.016798059
36	0x3e0490fa	0.12945929
37	0xbdc0c0a1	-0.09411741
38	0xbcabc34c	-0.020967148
39	0xbc92d9e5	-0.017926166
40	0xbdd7d1f5	-0.10538093
41	0x3d55ca6b	0.052194994
42	0xbd7c84e2	-0.061650164
43	0xbc96f846	-0.018428933
44	0x3b7bbf0a	0.0038413429
45	0x3d24a819	0.040199373
46	0x3da26c2c	0.079307884
47	0x3cd71cc6	0.026258837
48	0x3d651422	0.055927403
49	0x3dd437b7	0.10362189
50	0x3dcde1c7	0.10052829
51	0x3ce99a16	0.028515857
52	0x3ce0649f	0.02739173
53	0x3d569b1d	0.05239402
54	0x3c953300	0.018212795
55	0xbb81ec91	-0.0039649685
56	0x3db3419e	0.0875275
57	0x3aafd7ca	0.001341575
58	0xbd8407fd	-0.06446836
59	0xbcf89c7e	-0.030348059
60	0xbd7608f2	-0.060067125
61	0xbd491ca7	-0.04909959
62	0xbc399dc3	-0.011329117
63	0xbda56b09	-0.08077056
64	0x3d84b82a	0.06480439
65	0xbd04d2be	-0.032427542
66	0xbd29a290	-0.041414797
67	0x3d8cbe75	0.06872264
68	0x3c005c63	0.007834527
69	0xbd6cd84a	-0.057823457
70	0xbb83ec1c	-0.004025949
71	0xbdcba885	-0.09944252
72	0xbdf04909	-0.1173268
73	0x3d314164	0.043275252
74	0x3da7be1e	0.08190559
75	0xbdec0091	-0.115235455
76	0xbd0ca8fb	-0.03434084
77	0x3d1c8149	0.038209233
78	0x3dcc5753	0.09977593
79	0x3d9b67fc	0.07588193
80	0x3cf8f2b2	0.030389164
81	0xbde9fc69	-0.114250965
82	0xbdcd3534	-0.10019913
83	0x3db126be	0.086499676
84	0xbde65472	-0.112465754
85	0xbd545c9d	-0.051846135
86	0xbd4c66be	-0.04990267
87	0xbde673f6	-0.112525865
88	0x3d122e04	0.035688415
89	0xbd9edd60	-0.07757068
90	0xbdba2486	-0.090889975
91	0xbd5cad72	-0.053876348
92	0x3dcf90ff	0.10135078
93	0x3da10fbf	0.078643315
94	0x3d4c575e	0.049888007
95	0x3cc50d98	0.024054334
96	0xbd01e53d	-0.03171276
97	0x3cb2ba09	0.021817224
98	0xbcf60827	-0.030033184
99	0x3d1271ac	0.035752937
100	0xbd4ea5f0	-0.05045122
101	0x3c29d718	0.010366224
102	0xbdbdc72e	-0.09266506
103	0xbd85b164	-0.06527975
104	0x3d530206	0.0515156
105	0xbd37b152	-0.04484684
106	0xbca0ac3a	-0.019613374
107	0x3db295ca	0.08719976
108	0xbd38f18f	-0.045152243
109	0xbc19d816	-0.009389898
110	0xbd0084c4	-0.031376615
111	0xbdaf6002	-0.08563234
112	0x3dedc866	0.116104886
113	0x3d3fe70d	0.046851207
114	0x3e0072e6	0.1254383
115	0xbd301588	-0.042989284
116	0x3d8595c1	0.06522704
117	0xbb780d59	-0.0037849753
118	0xbd677612	-0.056509085
119	0xbda0c64a	-0.07850321
120	0x3cfc3001	0.030784609
121	0xbd105850	-0.03524047
122	0x3c0ec634	0.0087142475
123	0x3cb63e94	0.022246636
124	0xbdb38369	-0.08765299
125	0x3dc37398	0.09543532
126	0x3aa94cf3	0.0012916609
127	0xbd3a95e9	-0.04555312

rnn.bias_hh_l0 f4 [128]
0	0xbdb72219	-0.089420505
1	0xbc1fe77a	-0.009759778
2	0xbcb257ba	-0.021770347
3	0xbcf8ec3b	-0.030386081
4	0xba81750e	-0.0009876804
5	0x3d64aa1a	0.055826284
6	0xbcf2da8f	-0.029645232
7	0x3d27166d	0.04079287
8	0x3da4cd03	0.080469154
9	0x3dc8d94a	0.098070696
10	0xbd5414fb	-0.05177782
11	0xbd8da258	-0.0691573
12	0xbdb7aeb6	-0.0896887
13	0x3d4a1de2	0.049344905
14	0x3d4a7ada	0.049433567
15	0x3c295182	0.010334374
16	0xbc67f51d	-0.014157561
17	0xbd5e18dc	-0.054222926
18	0x3c9df251	0.019280585
19	0xbdaf2294	-0.08551517
20	0xbd20433f	-0.03912663
21	0xbd8ceafd	-0.06880758
22	0xbd6a84ab	-0.05725543
23	0x3d28ef2f	0.04124373
24	0x3cdafbf8	0.026731476
25	0xbdb82c42	-0.089928165
26	0x3d60c9e2	0.05488003
27	0x3d54ac16	0.051921926
28	0xbbd44160	-0.00647752
29	0x3b8519ce	0.004061914
30	0x3c29f4be	0.0103732925
31	0x3d848e7a	0.06472488
32	0xbc164405	-0.009171491
33	0xbe16e7b5	-0.14736827
34	0x3bb5d7c9	0.0055494052
35	0xbd31d33d	-0.043414343
36	0x3d5f6b53	0.05454571
37	0xbd8be7b6	-0.06831305
38	0x3d1f6374	0.038913205
39	0xbcd57dd6	-0.02606098
40	0xbd8af55b	-0.06785079
41	0x3cfb4b3e	0.030675527
42	0xbe016699	-0.12636794
43	0xbdaab8fa	-0.08336063
44	0x3d70a710	0.058753073
45	0x3c9870b5	0.01860843
46	0x3db7cde1	0.08974815
47	0xbb3b57e5	-0.0028586325
48	0x3d91659f	0.07099461
49	0x3dea0437	0.11426585
50	0x3de5029d	0.11182139
51	0x3ca0dc61	0.019636335
52	0xbd73e885	-0.05954792
53	0x3dc64ffe	0.09683226
54	0x3cbd2ac2	0.023091678
55	0x3dfc2022	0.12310816
56	0x3df3ba55	0.119007744
57	0x3d5d7d7c	0.05407475
58	0x3b33b742	0.0027422463
59	0xbb2fc9c0	-0.0026823133
60	0xbda93d81	-0.08263684
61	0x3d7743e0	0.060367465
62	0xbd563444	-0.052295938
63	0x3c9cdc21	0.019147934
64	0x3bd07bd2	0.006362417
65	0xbd666ab8	-0.05625412
66	0xbdcaeaa6	-0.09908037
67	0x3d67f54c	0.056630418
68	0xbd48a6f0	-0.04898733
69	0x3d84bab5	0.06480924
70	0xbc29fd71	-0.010375367
71	0xbd4220d1	-0.047394577
72	0xbca72028	-0.020401075
73	0x3d876896	0.06611745
74	0xbd3f5e9b	-0.046721082
75	0xbdd5fbb8	-0.10448402
76	0xbd48b515	-0.04900082
77	0x3ca48f77	0.02008794
78	0x3dbb51e0	0.09146476
79	0x3cb1a5ec	0.021685563
80	0xbc12f81d	-0.008970288
81	0x3bd61aa5	0.006533938
82	0xbdec2c82	-0.11531927
83	0x3dcf2841	0.101151
84	0x3d1166c6	0.035498403
85	0xbd9686a9	-0.07349903
86	0x3c188079	0.009307974
87	0xbc7e2b8b	-0.015513311
88	0xbd0fe945	-0.035134573
89	0xbdb937b1	-0.090438254
90	0x3d1ac3fc	0.03778456
91	0x3d89d18c	0.06729421
92	0xbcc86403	-0.024461752
93	0x3d41f1e9	0.047349844
94	0xbcdda81e	-0.027057704
95	0xbcaf0697	-0.021365447
96	0xbd81a51d	-0.06330321
97	0xbc81c850	-0.015842587
98	0xbd0d7cc1	-0.034542803
99	0xbd48eab3	-0.04905195
100	0xbdbbe003	-0.09173586
101	0x3cf28c1c	0.029607825
102	0xbbbb51f1	-0.0057165553
103	0xbdc0bf9b	-0.09411546
104	0x3d9e95c4	0.07743409
105	0x3dd75e34	0.10516015
106	0xbd284560	-0.041081786
107	0x3d42237b	0.047397118
108	0xbba84817	-0.005135547
109	0x3b4d7e35	0.0031355743
110	0xbd14b557	-0.03630575
111	0xbd151d29	-0.036404762
112	0x3e116945	0.14200313
113	0x3b79e35c	0.0038129902
114	0x3cc04282	0.023469213
115	0x3d592df2	0.053022332
116	0x3dc43855	0.09581057
117	0xbda1f76a	-0.079085186
118	0x3d6f50cf	0.058426674
119	0xbc7be45c	-0.015374269
120	0x3c0d2dff	0.008616923
121	0x3ce2ec5a	0.027700592
122	0x3cd238ee	0.025661912
123	0xbc14f6f8	-0.009092085
124	0xbc2b5bd1	-0.010458902
125	0xbc2b6281	-0.010460497
126	0x3bba00c5	0.0056763613
127	0x3d2d9949	0.042382512

output_net.weight f4 [2, 128]
0	0xbb997234	-0.0046828035
1	0xbd787e0a	-0.060667075
2	0x3c1c52d9	0.009541237
3	0xbc6aeb07	-0.014338261
4	0x3dce0df6	0.100612566
5	0x3d3fc4a8	0.046818405
6	0xbd0733b6	-0.0330083
7	0x3d456f16	0.048201643
8	0x3d5cc857	0.053901996
9	0x3dec4d4d	0.115381815
10	0xbda47217	-0.080295734
11	0xbd64603c	-0.05575584
12	0xbe0498f3	-0.1294897
13	0x3d84dc7a	0.06487365
14	0xbc992395	-0.018693725
15	0x3d110440	0.035404444
16	0x3c48efd1	0.012264208
17	0xbd9e8b09	-0.077413626
18	0xbdaa585f	-0.08317637
19	0xbe14118b	-0.14459817
20	0xbdac0c81	-0.084008224
21	0xbe035001	-0.12823488
22	0x3d35e27a	0.044405438
23	0x3c3cda66	0.01152668
24	0xbdb47121	-0.0881064
25	0xbd822272	-0.06354226
26	0x3d676b75	0.056498963
27	0x3dbaad9e	0.09115146
28	0x3cc5c7de	0.024143156
29	0x3d943c7f	0.07238101
30	0x3d851f06	0.06500058
31	0x3d24ccac	0.040234253
32	0xbd2584bb	-0.040409785
33	0xbe242abd	-0.16031928
34	0x3cdc0bad	0.026861036
35	0x3d516c9c	0.05112897
36	0x3e09bc7d	0.13450809
37	0xbd4cde03	-0.050016414
38	0xbcd0094a	-0.025395054
39	0x3d0f3502	0.03496266
40	0x3cc91d7c	0.024550192
41	0x3d8b46dc	0.06800625
42	0xbe18b79b	-0.1491379
43	0xbdbff202	-0.09372331
44	0x3de82967	0.11336022
45	0x3e013d05	0.12620933
46	0x3e0bb62f	0.13643716
47	0x3d0c3905	0.034234066
48	0x3c33f150	0.010982826
49	0x3d8562af	0.06512963
50	0x3e0c973e	0.1372957
51	0x3d1da306	0.03848555
52	0xbd7a074a	-0.061042108
53	0x3da49801	0.08036805
54	0xbd29e8c8	-0.041481763
55	0x3dae2d0d	0.085046865
56	0x3cd855d9	0.026408123
57	0xbd0766c3	-0.033056986
58	0xbcab938e	-0.020944383
59	0xbd4145a3	-0.04718555
60	0xbd49f87b	-0.049309235
61	0xbd92fddf	-0.07177328
62	0xbd0034df	-0.03130042
63	0xbd8420bd	-0.06451557
64	0x3d85f90b	0.06541642
65	0xbc73ecef	-0.014888032
66	0xbddf2116	-0.108949825
67	0x3dbf7324	0.09348133
68	0x3caf291b	0.021381905
69	0x3da2cc3c	0.07949111
70	0xbbd3c841	-0.006463081
71	0xbde78029	-0.113037415
72	0xbda254dd	-0.07926343
73	0x3d90bfa1	0.070678
74	0xbcf50789	-0.02991082
75	0xbde90e27	-0.113796525
76	0xbd9c546a	-0.07633288
77	0xbd0a80c5	-0.03381421
78	0x3cdbc320	0.026826441
79	0x3c95a7a6	0.018268418
80	0xbccd8032	-0.025085542
81	0xbd92f164	-0.07174948
82	0xbde3b75c	-0.111189574
83	0x3db2eeff	0.08736991
84	0xbd8cfcd3	-0.0688416
85	0xbdbe2f71	-0.092863925
86	0x3d7b4dcf	0.0613535
87	0xbd652063	-0.05593909
88	0xbd1fe9af	-0.039041217
89	0xbe25a567	-0.16176377
90	0x3c8fc822	0.017551485
91	0xbbf3d811	-0.0074415286
92	0x3d7fcbb4	0.062450126
93	0x3d90066c	0.07032475
94	0xbcef58f1	-0.029217215
95	0xbba5a084	-0.0050545353
96	0xbbe60f36	-0.0070208563
97	0x3d999590	0.0749923
98	0xbdadd412	-0.08487715
99	0x3d977563	0.073954366
100	0xbdc00a96	-0.09377019
101	0xbd5b3779	-0.0535197
102	0xbd1f884d	-0.038948346
103	0xbd82bd93	-0.06383815
104	0x3d989ea1	0.07452131
105	0x3d70d6ac	0.058798477
106	0xbccf2260	-0.025284946
107	0x3dc26d13	0.094934605
108	0x3d33ead7	0.043925133
109	0xbdc6693b	-0.0968804
110	0xbbf82ca4	-0.007573681
111	0xbda9c107	-0.0828877
112	0x3e28767e	0.16451451
113	0x3dc51a4b	0.096241556
114	0x3df296f2	0.11845197
115	0xbda7ea88	-0.0819903
116	0xbc9f8800	-0.01947403
117	0xbdb03a6e	-0.086048946
118	0xbd65625f	-0.056002017
119	0xbd2bd3fc	-0.04195021
120	0x3d824696	0.063611194
121	0x3d10cd8b	0.03535227
122	0x3cd84246	0.02639879
123	0x3dd2d29f	0.10294079
124	0xbd9d5152	-0.07681526
125	0x3dc2f263	0.09518888
126	0xbc9df432	-0.01928148
127	0x3cf12826	0.02943809
128	0x3d28b67f	0.041189667
129	0x3d33412e	0.043763332
130	0x3d48d66d	0.049032617
131	0x3d4bdd92	0.049771853
132	0xbcd997ab	-0.026561579
133	0xbd61d547	-0.055135038
134	0x3d5bbe19	0.053648088
135	0x3c5902a0	0.013245255
136	0x3b89dddb	0.0042073554
137	0xbe162533	-0.14662628
138	0xbd37a752	-0.044837303
139	0x3dec4bac	0.11537871
140	0x3dee8ab7	0.116475515
141	0xbd7cc200	-0.06170845
142	0xbce2bb41	-0.02767718
143	0x3cced4d6	0.025247972
144	0x3d057d4a	0.032590188
145	0x3cf7c71a	0.030246306
146	0xbd360332	-0.04443664
147	0x3de53852	0.11192383
148	0x3e29855a	0.16554776
149	0x3dff376c	0.12461743
150	0xbd2ceb83	-0.04221679
151	0x3d0236d1	0.03179056
152	0x3cd3140e	0.025766399
153	0x3e0a4d66	0.13506088
154	0xbde376f7	-0.11106675
155	0xbcfdfb4b	-0.031003615
156	0xbcd919db	-0.026501587
157	0xbd03e53d	-0.03220104
158	0xbba04e6a	-0.00489216
159	0xba8dbff0	-0.0010814648
160	0x3b1cfa9c	0.0023953086
161	0x3ddacc00	0.10683441
162	0xbd9972dd	-0.074926116
163	0x3da0a300	0.0784359
164	0xbe077004	-0.13226324
165	0x3d25384e	0.0403369
166	0xbd7df89b	-0.062004667
167	0x3d21f90f	0.03954416
168	0x3dc140ff	0.09436225
169	0xbdba4a86	-0.090962455
170	0x3e011073	0.12603931
171	0x3d9010e5	0.070344724
172	0xbc0de129	-0.008659639
173	0x3c3c6f4c	0.011501145
174	0xbdfa37f0	-0.122177005
175	0x3dab0c45	0.083519496
176	0xbd999661	-0.074993856
177	0xbdb12a09	-0.08650596
178	0xbd1aebef	-0.03782266
179	0xbdb7922a	-0.089634255
180	0x3b525b2f	0.0032097807
181	0x3d00dd86	0.03146126
182	0xbbe0dfe7	-0.0068626287
183	0xbddd21a6	-0.107974336
184	0xbdc4b274	-0.0960435
185	0x3d3f25e9	0.046667013
186	0x3d192f5b	0.037398677
187	0xbd01a976	-0.03165575
188	0x3d9d9d4e	0.07696019
189	0x3cba8ebe	0.022773143
190	0x3dbc3be7	0.09191113
191	0x3d0fd928	0.035119206
192	0x3ba3007e	0.004974424
193	0x3d5bcc79	0.053661797
194	0x3ddafe3e	0.10693024
195	0xbcd76306	-0.026292335
196	0x3da70ed3	0.08157124
197	0xbcd45d37	-0.025923355
198	0xbd6796ff	-0.056540485
199	0x3d90335a	0.070410445
200	0x3d3f8162	0.04675425
201	0x3d76ded8	0.060271114
202	0xbdb0d0cb	-0.08633574
203	0x3da294ed	0.079385616
204	0x3dcd250a	0.1001683
205	0xbd8fb378	-0.07016653
206	0xbd353020	-0.04423535
207	0x39b40fe0	0.00034344103
208	0x3db9f1e3	0.09079339
209	0x3e059bc0	0.13047695
210	0x3e06f203	0.13178258
211	0xbc70cff9	-0.014698022
212	0x3d9efdef	0.07763278
213	0xbc33052c	-0.010926526
214	0xbd405353	-0.046954464
215	0x3d58a088	0.05288747
216	0xbda4389e	-0.08018611
217	0x3e2a4335	0.166272
218	0x3d277002	0.040878303
219	0x3d29a1f9	0.041414235
220	0xbcbf8a9c	-0.023381524
221	0xbd5ea3fa	-0.0543556
222	0xbcea233b	-0.028581252
223	0x3d928fda	0.07156344
224	0xbd30623b	-0.04306243
225	0xbd92b8a3	-0.07164123
226	0xbc890563	-0.016726201
227	0x3c3e2833	0.011606264
228	0x3de65d6d	0.11248288
229	0x3b2603fa	0.002533196
230	0x3dcb146a	0.09916003
231	0x3dff529b	0.124669276
232	0xbd97d73f	-0.07414102
233	0xbceb51bd	-0.0287255
234	0x3d27df1c	0.040984258
235	0x3c621815	0.013799687
236	0xbbc90287	-0.0061343345
237	0xbd6c5d52	-0.057706185
238	0xbd771608	-0.060323745
239	0x3dfaef31	0.122526534
240	0xbdf7dc0a	-0.12102516
241	0xbdb8df03	-0.09026911
242	0xbdd54140	-0.10412836
243	0x3dab35ab	0.08359846
244	0xbd9dfff5	-0.077148356
245	0x3d1099c8	0.035302907
246	0xbdb7261f	-0.08942818
247	0x3c686172	0.014183389
248	0x3d935fdc	0.07196018
249	0xbc0d6005	-0.00862885
250	0xbd9c5b79	-0.076346345
251	0xbc62d94d	-0.013845754
252	0xbcb41b83	-0.021985775
253	0xbc632359	-0.013863408
254	0xbd4421a8	-0.04788366
255	0x3ceb1ed7	0.028701229

output_net.bias f4 [2]
0	0xbefa2018	-0.4885261
1	0x3f01b5ba	0.5066792
