src/pred_training/trained_rnn_models/T3_resnet50/pred_rnn/cosine_True_0.05_0.9mammograms_pred_rnn_0.505_4.pth (torch, 43259 bytes, 10 tensors)

init_net.0.weight f4 [64, 15]
0	0xbaed4652	-0.0018102622
1	0x3e04d24a	0.12970844
2	0xbe4bc862	-0.19900659
3	0xbe36373e	-0.1779451
4	0xbdbeb9b0	-0.09312761
5	0x3d84ca24	0.06483868
6	0xbb9cfb34	-0.004790688
7	0x3e4450fb	0.19171517
8	0xbcafc806	-0.021457683
9	0x3d8308b7	0.063981466
10	0xbd95a758	-0.07307309
11	0xbd42acd9	-0.04752812
12	0xbe6c8a5f	-0.2309966
13	0xbe23fa85	-0.16013534
14	0xbdcc2131	-0.09967268
15	0x3c0fe568	0.008782722
16	0x3dc3e3eb	0.09564956
17	0x3e14bc6b	0.14525001
18	0xbe27db01	-0.16392137
19	0xbdd7a34c	-0.10529193
20	0x3db3dcb3	0.087823294
21	0x3e4dd705	0.20101555
22	0xbd4bd480	-0.049763203
23	0x3e3947a3	0.18093733
24	0xbd1fa07c	-0.03897141
25	0x3cd196f5	0.025584677
26	0x3e603013	0.21893339
27	0xbe65affb	-0.22430412
28	0xbe1ba315	-0.1519893
29	0xbd7abb1e	-0.061213605
30	0xbdc03f13	-0.093870305
31	0x3e554584	0.208273
32	0xbe208f80	-0.15679741
33	0xbde3f402	-0.11130525
34	0xbe2cfb0f	-0.16892646
35	0xbe67e37e	-0.22645375
36	0xbe11015c	-0.14160675
37	0x3e54c33a	0.20777598
38	0x3ddcd851	0.107834466
39	0x3df00029	0.117187805
40	0x3c5058c5	0.012716477
41	0xbdfde0b8	-0.12396377
42	0x3d2714de	0.040791385
43	0xbe67e78c	-0.22646922
44	0xbe32e796	-0.17471156
45	0xbdfee14e	-0.12445317
46	0x3e1c1cec	0.15245408
47	0x3e110361	0.14161445
48	0xbddb9d86	-0.107234046
49	0xbc0ef11b	-0.008724476
50	0x3e1e5a43	0.1546412
51	0x3e75e1f5	0.24011977
52	0x3dc4880d	0.09596262
53	0x3d05cb37	0.032664504
54	0x3e260243	0.162118
55	0xbe11c905	-0.14236839
56	0x3d388d70	0.04505676
57	0xbe3ff675	-0.1874636
58	0xbe2bde33	-0.16783981
59	0xbdffcef2	-0.124906436
60	0x3ddfb849	0.109238215
61	0x3dc6e144	0.09710935
62	0xbe12ba86	-0.14328966
63	0x3d9599eb	0.07304748
64	0x3e07ec60	0.13273764
65	0xbcfa01f2	-0.030518506
66	0x3c15b571	0.009137497
67	0x3d656fdf	0.05601489
68	0x3e199459	0.14997996
69	0x3e6dbd00	0.23216629
70	0xbe3ecd99	-0.18633117
71	0xbdb57977	-0.08861058
72	0x3dc27c3f	0.09496354
73	0x3e4cf2b9	0.20014466
74	0x3e5775c4	0.21041018
75	0x3e5a91d1	0.21344687
76	0x3d45ebfd	0.04832076
77	0xbe573dcf	-0.21019672
78	0x3cb6374d	0.022243166
79	0xbe1ae5c2	-0.15126708
80	0xbe66bf8b	-0.22534005
81	0x3e5c3b5a	0.21507016
82	0x3e3c4853	0.18386964
83	0xbe76fb74	-0.24119359
84	0x3d396180	0.045259
85	0xbd26d713	-0.040732455
86	0xbd22fb45	-0.03979041
87	0xbde2ad37	-0.11068194
88	0x3dbef7a3	0.09324577
89	0xbe12a6e1	-0.14321472
90	0x3db5d482	0.08878423
91	0x3df9f54c	0.1220499
92	0x3e30f0aa	0.17279306
93	0x3db9286f	0.09040915
94	0xbe750e00	-0.23931122
95	0xbe209d70	-0.15685058
96	0x3df66a98	0.1203205
97	0x3d4f2e9d	0.050581563
98	0xbe4128c8	-0.18863213
99	0xbe0e92ca	-0.13923183
100	0x3e68ece0	0.2274661
101	0x3e26d34f	0.16291545
102	0xbdd80c5d	-0.10549233
103	0xbd7b6bc4	-0.06138207
104	0xbe6bdc09	-0.23033156
105	0xbb8e6913	-0.004346022
106	0xbe3a7463	-0.1820846
107	0xbe3efc26	-0.18650874
108	0xbc5a4770	-0.013322696
109	0x3d14b37f	0.036303993
110	0xbdcacbd7	-0.099021606
111	0x3e12eaf7	0.14347444
112	0xbe16ac11	-0.14714076
113	0x3e60a93d	0.2193956
114	0x3e29ad75	0.16570075
115	0xbe50cb2a	-0.20390001
116	0xbd767dab	-0.06017844
117	0x3c32c145	0.010910337
118	0x3d107f90	0.035277903
119	0x3d6ae4be	0.05734705
120	0x3dc296d5	0.09501425
121	0x3c6f51fc	0.014606949
122	0xbdf196c8	-0.11796337
123	0x3dea51c9	0.114413805
124	0xbe6d819e	-0.23193976
125	0xbe12c07b	-0.14331238
126	0xbd777466	-0.06041374
127	0xbdf132c0	-0.11777258
128	0xbdad3a7f	-0.08458423
129	0xbe4aef61	-0.19817878
130	0xbd52ab76	-0.05143305
131	0x3d53bc74	0.051693395
132	0xbe214bda	-0.15751591
133	0xbc490b26	-0.012270724
134	0x3e313de1	0.17308761
135	0xbcc6f1b2	-0.024285171
136	0x3bbf96ae	0.00584682
137	0xbcb2eb42	-0.021840695
138	0x3d486f7a	0.048934437
139	0x3e1d6e5e	0.15374133
140	0x3e6a88d1	0.22903754
141	0x3e1bab3b	0.15202038
142	0x3e6af983	0.22946744
143	0xbc8fb6f8	-0.017543301
144	0xbe5e6bb6	-0.21720776
145	0xbdeac263	-0.114628576
146	0x3e28911e	0.16461608
147	0xbae11a96	-0.0017174061
148	0xbdf9ee78	-0.122036874
149	0xbe3dbc59	-0.1852888
150	0xbe673cd3	-0.22581796
151	0xbe5122c9	-0.20423426
152	0xbd4a104a	-0.04933194
153	0x3e07c882	0.13260081
154	0x3e05dc57	0.13072334
155	0xbe6eca20	-0.23319292
156	0x3e19ff5b	0.15038817
157	0xbe41bf1a	-0.18920556
158	0xbd5169e7	-0.051126387
159	0xbdc8ca2f	-0.098041885
160	0xbd3ec363	-0.046573054
161	0xbd42725b	-0.04747234
162	0xbe5e2e21	-0.21697284
163	0xbe563d9f	-0.20921944
164	0xbd1af986	-0.03783562
165	0x3b331975	0.0027328406
166	0xbddf898a	-0.10914905
167	0x3dbc64e5	0.091989316
168	0xbe5ed9d5	-0.21762784
169	0xbc85ad37	-0.016317947
170	0x3e59bdac	0.2126376
171	0xbdc77a47	-0.097401194
172	0x3e5fa6f6	0.21841034
173	0x3db370c8	0.08761746
174	0xbe5f7099	-0.21820296
175	0x3e1ca79d	0.15298314
176	0xbce4655a	-0.02788036
177	0xbddc9997	-0.107714824
178	0x3e47a086	0.19494829
179	0xbe4814cd	-0.19539185
180	0x3cd4449a	0.025911618
181	0xbd4f56ae	-0.050619774
182	0x3e30e83c	0.1727609
183	0x3d8a3af2	0.06749524
184	0x3dedf142	0.11618282
185	0x3daee1a9	0.08539135
186	0xbd6de077	-0.058075394
187	0xbd50542e	-0.05086153
188	0xbe4c0b4f	-0.19926189
189	0x3e0627a3	0.13101058
190	0x3e449601	0.19197847
191	0x3e296855	0.16543706
192	0xbe2e98c2	-0.1705046
193	0x3c32488b	0.010881553
194	0xbe2e89f6	-0.17044815
195	0xbe086bc2	-0.13322356
196	0xbe100a7c	-0.140665
197	0x3da9f31b	0.08298322
198	0xbe138baf	-0.14408754
199	0xbbacdbfb	-0.005275247
200	0x3c26a77a	0.010171765
201	0x3e200c48	0.15629685
202	0xbe3b2796	-0.1827682
203	0xbe29f4a7	-0.16597234
204	0xbe0fc4dd	-0.14039941
205	0x3e2d4d26	0.16923961
206	0xbdb1ff76	-0.086913034
207	0x3e50f650	0.20406461
208	0x3db44148	0.08801514
209	0x3cfad11c	0.03061729
210	0xbaed080c	-0.0018084063
211	0xbd43cc01	-0.047801975
212	0x3cf893e2	0.030343954
213	0xbd622625	-0.05521216
214	0xbadeaf00	-0.001698941
215	0x3cfcbb7b	0.030851116
216	0xbe41abc4	-0.1891318
217	0xbe01c5de	-0.12673137
218	0x3e47eee8	0.19524729
219	0xbe48ef94	-0.19622642
220	0xbc8e3b46	-0.017362248
221	0x3e74ef0e	0.23919317
222	0x3db2e1bb	0.08734461
223	0x3be06d95	0.0068490007
224	0xbe5691b1	-0.20954014
225	0x3df567eb	0.119827114
226	0xbe3057b4	-0.17220956
227	0xbd8c759f	-0.06858372
228	0xbda6252a	-0.08112557
229	0xbd12a9d6	-0.0358065
230	0x3b2d5468	0.0026448015
231	0x3e4c4783	0.19949155
232	0x3cf74c32	0.0301877
233	0x3e5dc634	0.2165764
234	0x3e177563	0.14790873
235	0xbe1c88a2	-0.15286496
236	0x3dde1908	0.10844618
237	0xbe2f0656	-0.1709226
238	0xbdd1bc90	-0.102410436
239	0x3d91a5af	0.0711168
240	0x3da3452d	0.079721786
241	0x3e39eb9c	0.18156284
242	0xbd9f0812	-0.07765211
243	0x39caf09e	0.00038707716
244	0x3dfeefc7	0.12448078
245	0xbe6f72be	-0.23383614
246	0x3e33509b	0.17511217
247	0xbe4cbd13	-0.19994001
248	0x3b5ab2f3	0.0033370822
249	0xbd286108	-0.04110816
250	0xbe0266eb	-0.12734573
251	0x3d02eb53	0.031962704
252	0x3e4cc6b4	0.19997674
253	0xbd900ad4	-0.07033315
254	0xbe12ff0d	-0.14355107
255	0xbdb666ad	-0.089063026

init_net.0.bias f4 [64]
0	0xbe30f339	-0.17280282
1	0x3d560eb3	0.052260112
2	0x3e60b8bb	0.21945469
3	0xbe73ccbb	-0.23808567
4	0xbe7667ba	-0.24063006
5	0x3cfff02c	0.031242453
6	0x3e39e7f7	0.18154894
7	0xbe16a8eb	-0.14712875
8	0x3d5a95d9	0.053365562
9	0x3e2c283b	0.16812222
10	0x3d97c30a	0.074102476
11	0x3d5cdf91	0.053924147
12	0x3e772212	0.2413409
13	0x3e21e591	0.15810229
14	0xbe0b4061	-0.13598777
15	0x3cabc362	0.02096719
16	0x3dfdb121	0.123873
17	0x3e58cac0	0.21171093
18	0xbe76b16e	-0.24091122
19	0x3e06a7db	0.1314997
20	0xbd8f12a4	-0.06985977
21	0xbe729e70	-0.23693252
22	0x3d5a0873	0.053230714
23	0xbe0782d9	-0.13233508
24	0x3d0b9e4c	0.03408651
25	0xbe20ccb5	-0.1570309
26	0xbe3b281d	-0.18277021
27	0xbca9b515	-0.02071623
28	0xbda60cfb	-0.081079446
29	0x3e10cf99	0.14141692
30	0x3ca70ae8	0.020390943
31	0x3e40c338	0.1882447
32	0x3d3b44d0	0.04571992
33	0xbd9f3c0b	-0.07775124
34	0x3e276f34	0.16351014
35	0x3c670f1d	0.014102724
36	0x3d39e831	0.04538745
37	0xbd9f2f99	-0.077727504
38	0x3a14e371	0.00056796434
39	0xbd43d0b6	-0.047806464
40	0xbca853e9	-0.020547824
41	0xbe4160da	-0.18884602
42	0xbacce6c5	-0.001563274
43	0xbe4d5f24	-0.20055825
44	0xbd57facb	-0.05272941
45	0x3e0ecece	0.13946077
46	0xbe2cadeb	-0.1686322
47	0xbe273b60	-0.16331244
48	0xbd72ad4c	-0.0592473
49	0xbd87ec78	-0.066369
50	0x3d28aa29	0.041177902
51	0x3d26ce27	0.040723946
52	0x3dfb1690	0.12260163
53	0xbe2a9042	-0.16656592
54	0xbc8c15f7	-0.017100317
55	0x3e0a368a	0.13497368
56	0x3e560e09	0.20903791
57	0xbc92d20d	-0.017922426
58	0xbe0f12d1	-0.13972022
59	0x3d8e5711	0.069502
60	0x3e0d9d1c	0.13829464
61	0xbe1ab7fe	-0.1510925
62	0xbe0f7981	-0.14011194
63	0x3ddae376	0.10687916

init_net.2.weight f4 [64, 64]
0	0xbc0660a8	-0.008201756
1	0xbde2c4bf	-0.110726826
2	0xbd8a55a8	-0.06754619
3	0x3d423d98	0.04742202
4	0xbd22ba24	-0.0397283
5	0x3da53b55	0.08067957
6	0x3dbce485	0.09223274
7	0x3c8b7f06	0.017028343
8	0xbc17c07e	-0.009262202
9	0xbd18d328	-0.03731075
10	0xbbc3efa3	-0.0059794947
11	0x3cad2c62	0.021139327
12	0xbdb79e99	-0.08965797
13	0xbce89182	-0.028389696
14	0xbdc76aa8	-0.0973714
15	0x3d9319d9	0.071826644
16	0xbd991b1d	-0.074758746
17	0x3dd9f2b1	0.10641993
18	0xbcf79427	-0.030222012
19	0xbd89cc7a	-0.06728454
20	0x3d664b64	0.05622424
21	0x3c8ed704	0.017436512
22	0x3da502b3	0.080571555
23	0x3d47f231	0.048814956
24	0xbde70030	-0.11279333
25	0x3d978ed1	0.07400287
26	0xbcb51e52	-0.022109184
27	0xbd54c85b	-0.051948886
28	0x3d9832d9	0.074315734
29	0x3daec449	0.08533532
30	0xbdd2e0d4	-0.10296789
31	0xbc2fa85b	-0.010721291
32	0x3dc4cf0e	0.09609805
33	0x3d39b108	0.045334846
34	0x3dc9e3b0	0.09857881
35	0xbd252044	-0.040313974
36	0xbd844490	-0.0645839
37	0x3dce2322	0.10065295
38	0x3d47b93b	0.048760634
39	0x3de5c7c1	0.11219741
40	0xbd487504	-0.04893972
41	0xbd99f3ff	-0.07517242
42	0xbc61f59e	-0.01379147
43	0xbde1d374	-0.110266596
44	0x3d3b7c15	0.04577263
45	0x3db0a8de	0.08625959
46	0x3ce58a01	0.028019907
47	0xbc3ee18f	-0.011650457
48	0x3d6d739f	0.057971593
49	0xbd98307d	-0.074311234
50	0x3de9ea66	0.11421661
51	0xbdeee6ef	-0.11665141
52	0xbde6410e	-0.11242877
53	0xbce298d1	-0.02766076
54	0x3dc3cf0e	0.09560977
55	0x3c3fda15	0.01170971
56	0x3d3741ff	0.044740673
57	0xbdb0146d	-0.08597646
58	0x3d2e934f	0.042620953
59	0xbc599381	-0.013279797
60	0x3d3f3862	0.04668463
61	0x3da94f50	0.08267081
62	0x3d506022	0.05087293
63	0xbc23224c	-0.0099569075
64	0xbbec4746	-0.007210645
65	0xbd958a20	-0.07301736
66	0xbd2cd761	-0.04219759
67	0x3d9c0614	0.07618347
68	0xbd3fe94c	-0.04685335
69	0x3d959e7d	0.0730562
70	0xbd3b0e2e	-0.04566782
71	0xbcdf55b4	-0.027262546
72	0x3b24d9ff	0.002515435
73	0xbddb3516	-0.10703485
74	0xba86712c	-0.0010257117
75	0xbc3a843c	-0.011384066
76	0xbc22bde1	-0.009932966
77	0xbcb827bc	-0.022479884
78	0x3dbd04d0	0.092294335
79	0x3db109ab	0.08644422
80	0xbda16b98	-0.0788185
81	0x3d63a6b9	0.05557892
82	0xbdbbd109	-0.0917073
83	0xbdcaeab8	-0.0990805
84	0x3d12b586	0.035817645
85	0x3ae64f6c	0.0017571277
86	0xbd5b1f71	-0.05349678
87	0xbde6ec9b	-0.11275598
88	0xbd395689	-0.045248542
89	0x3d208788	0.039191753
90	0xbddd8f40	-0.108183384
91	0xbde7d13d	-0.11319206
92	0x3c7401ab	0.014892976
93	0xbdac8596	-0.08423917
94	0xbdd19913	-0.10234275
95	0xbd374323	-0.04474176
96	0xbc99d1a2	-0.018776719
97	0xbdd9d8f4	-0.10637084
98	0xbd9fe3cb	-0.0780712
99	0x3c058944	0.008150402
100	0xbde20240	-0.110355854
101	0xbc86a394	-0.016435422
102	0xbd9a8667	-0.075451665
103	0xbda565ed	-0.080760814
104	0x3d3cdbdc	0.04610811
105	0xbdb86c42	-0.090050235
106	0xbdb55804	-0.08854678
107	0x3d88eaea	0.06685431
108	0x3cb585ff	0.02215862
109	0x3ddad04c	0.10684261
110	0xbcfecf7a	-0.031104792
111	0xbd66d7ee	-0.05635827
112	0xbc2e9ab1	-0.0106569985
113	0x3a257058	0.0006310991
114	0x3db84f4f	0.08999502
115	0xbded81c9	-0.1159702
116	0xbbfb1437	-0.007662322
117	0x3d541a0c	0.051782653
118	0xbd83f023	-0.06442287
119	0xbd738532	-0.059453197
120	0x3d69f61b	0.05711947
121	0xbde4deea	-0.1117533
122	0x3ce4cedc	0.02793067
123	0xbdb87eb3	-0.09008541
124	0x3d70bf9f	0.058776494
125	0xbdccfa1d	-0.10008643
126	0x3d9376d9	0.07200403
127	0xbde2ef52	-0.11080803
128	0xbdc98330	-0.09839475
129	0x3ad87ea2	0.0016517232
130	0x3dbcd953	0.09221139
131	0xbdcd584f	-0.10026609
132	0xbd55eed9	-0.052229736
133	0x3dd266ad	0.1027349
134	0xbca1e28d	-0.019761348
135	0x3d46a2d9	0.048495147
136	0xbde6a1b4	-0.11261311
137	0xbd17139a	-0.036883928
138	0xbd7395c2	-0.059468992
139	0x3dc9fb5c	0.09862396
140	0x3d469a14	0.048486784
141	0xbdaf3d1a	-0.08556576
142	0x3c9a9557	0.018870039
143	0xbab1cb50	-0.001356462
144	0xbd4563a9	-0.048190746
145	0xbd895013	-0.06704726
146	0xbd1f2e6f	-0.038862642
147	0x3dbcc3a4	0.09217003
148	0xbdabde94	-0.08392063
149	0xbdaac78f	-0.08338844
150	0xbd14a599	-0.03629074
151	0x3b03ec66	0.0020129918
152	0x3d027706	0.03185179
153	0x3b64cf40	0.003491357
154	0xbce71b68	-0.02821131
155	0xbd918c04	-0.07106784
156	0xbcac1477	-0.021005852
157	0xbd411925	-0.04714312
158	0x3dc19e8e	0.0945407
159	0xbde98060	-0.11401439
160	0xbd98f17a	-0.07467933
161	0xbdc30b8e	-0.09523688
162	0xbcaf6c72	-0.021414015
163	0x3dbaa4f5	0.09113494
164	0x3dd21e18	0.10259646
165	0xbdd0b52e	-0.10190807
166	0xbba6e6e3	-0.005093442
167	0x3d8c9684	0.06864646
168	0x3d534551	0.051579777
169	0x3dc459d4	0.09587446
170	0xbb565025	-0.0032701578
171	0xbda11844	-0.078659564
172	0x3d9e8175	0.07739536
173	0xbd2492aa	-0.040178932
174	0x3d782103	0.060578357
175	0xbcec8790	-0.028873235
176	0x3d4bb0d9	0.049729202
177	0x3dd79c36	0.10527842
178	0x3ddeac5d	0.108727194
179	0xbdda6208	-0.10663229
180	0xbd9ed507	-0.077554755
181	0xbd463f8a	-0.04840044
182	0xbd98e307	-0.07465177
183	0x3de60401	0.112312324
184	0xbc2b0f09	-0.010440596
185	0xbd9f2a46	-0.07771735
186	0xbd558305	-0.052126903
187	0xbd84a06d	-0.06475911
188	0x3d433934	0.047661975
189	0xbdd11b7d	-0.10210321
190	0xbddf88f0	-0.10914791
191	0xbdec5219	-0.115390964
192	0x3d4e6c28	0.050396115
193	0x3d6f3bd1	0.058406655
194	0xbd947fec	-0.07250962
195	0x3cef068f	0.029177932
196	0x3db13ab3	0.08653774
197	0x3c8fb418	0.01754193
198	0xbcc3037d	-0.023805374
199	0x3c0db265	0.00864849
200	0xbc4d0bce	-0.0125150215
201	0x3d737c75	0.059444863
202	0xbda26477	-0.079293184
203	0x3d7523f1	0.05984873
204	0x3d889359	0.06668729
205	0xbd8ee5ec	-0.06977448
206	0x3dc3c7ed	0.09559617
207	0x3deba2f6	0.11505692
208	0xbd3a1ff1	-0.045440618
209	0xbd002ffb	-0.031295758
210	0x3d6f8f46	0.058486246
211	0xbdba55a7	-0.09098368
212	0x3d3dcd41	0.046338324
213	0x3ce01089	0.027351635
214	0x3d99e20c	0.07513818
215	0xbdcfd62b	-0.10148271
216	0xbdc6f757	-0.09715145
217	0x3d57e395	0.052707274
218	0x3d2da785	0.042396087
219	0xbdddc129	-0.10827858
220	0xbd859f3d	-0.06524513
221	0xbddb13d0	-0.10697138
222	0xbdab3710	-0.08360112
223	0xbd564469	-0.052311335
224	0x3dc69525	0.09696416
225	0xbcbee07d	-0.023300404
226	0x3d89f689	0.06736476
227	0x3de4fac8	0.11180645
228	0x3d5aaf26	0.05338969
229	0xbdd68fa7	-0.10476618
230	0x3d7214cc	0.059101865
231	0x3d38d9a9	0.045129452
232	0x3dba19e9	0.09086973
233	0xbdec5412	-0.11539473
234	0x3d93d777	0.07218831
235	0x3dc46ab1	0.09590662
236	0xbdde6280	-0.10858631
237	0x3c4daa29	0.012552776
238	0x3dcd20d3	0.10016026
239	0xbdadf195	-0.08493344
240	0x3d1e4e4b	0.038648885
241	0x3d5418c2	0.051781423
242	0x3d0153d4	0.031574085
243	0x3defea2e	0.11714588
244	0x3dc61594	0.096720845
245	0x3dcdaf01	0.10043145
246	0xbc6e4f21	-0.014545233
247	0x3dc922e3	0.09821107
248	0xbdddeaca	-0.10835798
249	0xbd804ab5	-0.06264249
250	0xbccadbc7	-0.024763001
251	0xbd0b551b	-0.03401671
252	0x3ddef5d1	0.108867295
253	0x3d622811	0.05521399
254	0x3d9a7365	0.07541541
255	0x3da3125d	0.07962487

init_net.2.bias f4 [64]
0	0xbd716b0a	-0.05893997
1	0xbde19a50	-0.11015761
2	0x3d80d229	0.06290085
3	0x3de0a28a	0.10968502
4	0xbd12c428	-0.0358316
5	0xbddbc306	-0.10730557
6	0x3d17b93a	0.03704188
7	0xbda808b6	-0.082047865
8	0xbd9d5eb2	-0.07684077
9	0x3d067242	0.03282381
10	0xbc58de2e	-0.0132365655
11	0xbc0cedbf	-0.008601605
12	0x3dd71105	0.10501293
13	0xbca73c65	-0.02041454
14	0x3d93eba1	0.07222677
15	0xbd110dac	-0.03541343
16	0x3daef613	0.08543029
17	0x3d1490d0	0.036270916
18	0x3dd2b838	0.10289043
19	0x3d36f4b8	0.044666976
20	0xbd3a5a16	-0.04549607
21	0x3d5c6e93	0.05381639
22	0x3dcb9360	0.09940219
23	0x3cc4692c	0.023975931
24	0x3d5f19be	0.05446791
25	0xbdab6357	-0.08368557
26	0x3d818a1c	0.063251704
27	0xbde32131	-0.11090315
28	0x3dd61704	0.10453609
29	0x3d4a7193	0.04942472
30	0x3bc3e704	0.005978467
31	0xbde23e91	-0.1104709
32	0x3ddf8294	0.10913578
33	0x3d9bf4b6	0.07615034
34	0x3ddff50c	0.10935411
35	0x3d415103	0.0471964
36	0x3d1ebd23	0.038754594
37	0xbcf9bfee	-0.030487027
38	0xbd4086da	-0.047003604
39	0x3d403cb8	0.046932906
40	0x3d28322d	0.041063476
41	0xbb5acd2d	-0.0033386454
42	0x3c901d27	0.017592026
43	0x3d2219b8	0.03957531
44	0xbde209f6	-0.11037056
45	0xbdd4867f	-0.103772156
46	0xbd000dc7	-0.03126314
47	0x3da49aa3	0.08037307
48	0x3d6381f7	0.055543866
49	0xbde9d9a2	-0.11418463
50	0xbd121076	-0.03566023
51	0xbc3495bd	-0.0110220285
52	0x3d214e64	0.0393814
53	0x3dc53ce3	0.09630754
54	0x391839b4	0.00014517346
55	0xbdbd6323	-0.092474245
56	0x3be49bcd	0.0069765807
57	0xbd3aafad	-0.045577694
58	0xbd94e234	-0.07269707
59	0x3d85fc72	0.06542291
60	0xbc725c95	-0.014792581
61	0x3d5b1067	0.05348244
62	0x3dc24795	0.094863094
63	0x3c363bdc	0.01112267

rnn.weight_ih_l0 f4 [64, 7]
0	0x3d8720f6	0.06598084
1	0xbd71b3c8	-0.059009343
2	0x3d85d2c9	0.06534345
3	0x3b97e5e4	0.0046355594
4	0x3d9f8f6a	0.07791026
5	0x3dd7e597	0.10541838
6	0xbdbd2d45	-0.0923715
7	0x3de3590f	0.11100971
8	0x3dc4e03b	0.09613081
9	0xbdc11f4e	-0.09429799
10	0x3d0ccd3e	0.03437542
11	0xbdc36ea3	-0.09542587
12	0x3d4712eb	0.048602026
13	0x3ccd7e9e	0.02508479
14	0xbde4ec36	-0.11177866
15	0x3d36c278	0.044619054
16	0xbd03b348	-0.032153398
17	0x3deeffdc	0.11669895
18	0x3de9e7e5	0.114211835
19	0x3d30b8cd	0.04314499
20	0x3dc08ad7	0.094014816
21	0x3d2d3674	0.04228826
22	0x3e0356ab	0.1282603
23	0xbc311210	-0.010807529
24	0x3ced3a15	0.02895836
25	0xbc9db09e	-0.019249257
26	0x3c992d32	0.018698309
27	0xbca1735c	-0.019708328
28	0xbd3dbc36	-0.04632207
29	0x3d7c3fa6	0.061584137
30	0x3d4dc0a5	0.05023255
31	0xbd53b3d0	-0.051685154
32	0xbdd3590c	-0.10319719
33	0x3d4bb449	0.04973248
34	0xbde7d4ba	-0.11319871
35	0xbbae132e	-0.005312345
36	0xbe0db0be	-0.13836953
37	0x3dc8bc87	0.09801584
38	0x3dc32b0d	0.09529696
39	0xbdc59d35	-0.096491255
40	0xbe15bef7	-0.14623629
41	0xbdcd0370	-0.10010421
42	0x3d049b12	0.03237445
43	0xbd130b32	-0.03589935
44	0xbce45dd5	-0.027876774
45	0xbcf31f45	-0.029677996
46	0x3cb18964	0.021671958
47	0xbd0495b8	-0.032369345
48	0x3d9304e2	0.07178666
49	0xbdab8216	-0.08374421
50	0xbc9d6eb2	-0.019217823
51	0x3dc8f386	0.098120734
52	0xbd847429	-0.06467468
53	0x3db81753	0.08988824
54	0x3d5d63f9	0.05405042
55	0xbd339506	-0.04384329
56	0x3d26bfdc	0.040710315
57	0xbd61107f	-0.054947373
58	0x3c1a5af0	0.009421095
59	0x3d07a3a3	0.03311504
60	0x3dcfcacf	0.101461045
61	0xbd363f39	-0.044493888
62	0xbd43086b	-0.04761545
63	0xbd6f795a	-0.05846534
64	0xbdfe3ef4	-0.12414351
65	0x3cc1ec49	0.02367224
66	0xbdc68344	-0.09693006
67	0xbd00f190	-0.031480372
68	0xbd7f204c	-0.06228666
69	0xbb15b92b	-0.0022845964
70	0x3d117a97	0.0355173
71	0xbdc4bfca	-0.09606893
72	0xbd0d8bba	-0.03455708
73	0xbc384fa5	-0.0112494575
74	0xbd8aa232	-0.067692176
75	0x3c84973f	0.016185401
76	0x3d0d7aae	0.034540825
77	0xbdaac9df	-0.08339285
78	0x3da5b96e	0.080920085
79	0x3daa5adc	0.08318111
80	0xbd1013b6	-0.035175048
81	0x3c8eb33f	0.017419456
82	0x3b2304fb	0.0024874795
83	0xbcd077fa	-0.025447834
84	0xbda0f6f0	-0.078595996
85	0x3dbb89c3	0.09157135
86	0x3d6bf28e	0.057604365
87	0xbdc8607f	-0.0978403
88	0xbdb9fb01	-0.09081078
89	0x3dd8a7d7	0.10578888
90	0x3c627062	0.013820739
91	0xbcdcf011	-0.026969941
92	0x3da80b16	0.082052395
93	0x3d09bdba	0.033628203
94	0x3d2c1572	0.04201264
95	0x3dbde669	0.09272463
96	0xbbd812e3	-0.0065940483
97	0x3de75294	0.112950474
98	0xbda80cbb	-0.08205553
99	0xbd753222	-0.059862264
100	0x3ca27b00	0.019834042
101	0xbc689fca	-0.014198253
102	0x3d8970f3	0.067109965
103	0xbc9ba1ac	-0.01899799
104	0x3cee7614	0.029109038
105	0xbcc74e4a	-0.024329323
106	0x3de4ae24	0.11166027
107	0xbbfb9888	-0.0076780953
108	0x3ae72993	0.0017636291
109	0x3dafc5b5	0.085826315
110	0x3e0aeafd	0.13566203
111	0x3e05630f	0.13026069
112	0xbdeaac9c	-0.11458704
113	0xbdc6ca8d	-0.09706602
114	0xbcd03b33	-0.025418853
115	0xbcc62e3d	-0.02419197
116	0x3d8a1901	0.0674305
117	0x3c9d6494	0.019212998
118	0xbd14e8f2	-0.036354966
119	0x3b42cec3	0.002972529
120	0x3d8066c5	0.06269602
121	0x3dceaa04	0.10091022
122	0x3d7886f6	0.060675584
123	0xbd7010aa	-0.058609642
124	0xbc9f0f43	-0.019416457
125	0x3d8ef5db	0.06980487
126	0xbc413fc4	-0.011794988
127	0xbd9bd611	-0.07609189
128	0xbde80852	-0.11329712
129	0x3c894316	0.016755622
130	0xbd0bb9fb	-0.03411291
131	0xbd8f4485	-0.06995491
132	0x3cabf6bb	0.020991674
133	0x3de9b995	0.1141235
134	0x3dfcef56	0.12350337
135	0x3d88afd6	0.06674163
136	0xbdb4d855	-0.088303246
137	0x3d8973ea	0.06711562
138	0x3db415f9	0.087932535
139	0x3d799a74	0.060938314
140	0xbcefd498	-0.029276177
141	0xbd443a10	-0.047906935
142	0xbd8207fc	-0.06349179
143	0xbcd8815d	-0.026428873
144	0xbca076ae	-0.01958784
145	0xbd824708	-0.063612044
146	0xbe1d3600	-0.1535263
147	0x3d29a950	0.041421235
148	0xbd84d2c4	-0.06485513
149	0xbdb347f8	-0.08753961
150	0x3d42df55	0.047576267
151	0xbdc383fc	-0.095466584
152	0x3e0ca13c	0.13733381
153	0x3e0a4fe2	0.13507035
154	0xbd190321	-0.0373565
155	0xbd182f5c	-0.03715454
156	0xbdb768d9	-0.08955545
157	0x3bed8e00	0.0072495937
158	0x3cac81ae	0.02105793
159	0xbda4e2b5	-0.080510534
160	0x3cb49d5d	0.022047693
161	0xbb9496d3	-0.004534581
162	0xbd51c59f	-0.051213857
163	0xb9d453ea	-0.00040498312
164	0xbde8657e	-0.11347483
165	0xbda922f9	-0.08258624
166	0xba1d74f9	-0.0006006505
167	0x3dc9c199	0.09851379
168	0xbd8e3477	-0.069436006
169	0x3d9872c7	0.07443767
170	0x3c2f85ba	0.010713035
171	0xbd4e4ba9	-0.050365124
172	0x389de901	7.529744e-05
173	0x3d6a8f17	0.057265367
174	0x3c6477b5	0.013944556
175	0x3dd400a3	0.10351684
176	0xbd179e18	-0.037016004
177	0xbda016fd	-0.07816885
178	0x3dd8a3d7	0.10578125
179	0xbd099ebe	-0.033598654
180	0x3d7581cc	0.059938237
181	0x3d854de9	0.06509001
182	0x3ca9924e	0.020699646
183	0xbddbbb67	-0.107291035
184	0xbdeb5b61	-0.114920385
185	0x3d6394d3	0.05556185
186	0x3cea08ee	0.028568711
187	0x3d670dc5	0.056409616
188	0xbde70d46	-0.112818286
189	0xbc8306a9	-0.015994387
190	0x3db0bb61	0.0862949
191	0x3d7be730	0.061499774
192	0x3dc71636	0.09721033
193	0x3dbc8e62	0.09206845
194	0xbd3887d4	-0.04505141
195	0xbdbc85c4	-0.09205201
196	0xbd8f0de0	-0.06985068
197	0x3cdf6f59	0.027274774
198	0xbd3e516a	-0.04646436
199	0x39faecf3	0.00047860257
200	0x3c97d7ee	0.01853558
201	0x3d766627	0.060156014
202	0x3d5f1657	0.054464664
203	0x3d88e4e6	0.06684284
204	0x3c0992a3	0.008396777
205	0x3d87577d	0.06608484
206	0xbd609699	-0.05483112
207	0xbd3fad38	-0.046796054
208	0xbc87ce42	-0.016577844
209	0xbd868e83	-0.06570151
210	0x3dd5cf3a	0.10439916
211	0xbd1490fe	-0.036271088
212	0x3d0b649e	0.034031503
213	0xbb71e487	-0.0036909895
214	0xbadb9257	-0.0016751987
215	0xbda946fd	-0.08265493
216	0xbcc70ad4	-0.024297155
217	0xbdd6398f	-0.10460197
218	0xbd54c143	-0.05194212
219	0x3db87d6c	0.09008297
220	0xbde0d1a0	-0.10977483
221	0x3c9ef50e	0.01940396
222	0x3cb86107	0.022507204
223	0xbdde2526	-0.10846929
224	0x3cbc178a	0.022960443
225	0x3da57a06	0.08079915
226	0x3dada296	0.084782764
227	0x3cb35042	0.021888856
228	0x3dbbf560	0.09177661
229	0x3d027ea7	0.031859066
230	0x3d88be11	0.06676877
231	0x3d0dc421	0.03461087
232	0xbd9a03eb	-0.075202785
233	0xbcd28002	-0.025695805
234	0xbda8c856	-0.08241336
235	0x3dba6b0f	0.09102451
236	0x3d8aac66	0.06771164
237	0xbd23276e	-0.039832525
238	0xbcae53cc	-0.021280192
239	0x3d4c89ac	0.04993598
240	0xbdd10787	-0.10206514
241	0x3b5a1dcc	0.003328192
242	0x3d65f5d9	0.05614266
243	0x3d131750	0.035910904
244	0x3bd5ce09	0.0065248054
245	0x3d9a5365	0.075354375
246	0x3d94ef4d	0.072722055
247	0xbdd51f41	-0.10406352
248	0x3d8d1c2f	0.06890141
249	0xbdbc9162	-0.09207417
250	0x3db17f03	0.08666804
251	0x3dedf3da	0.116187766
252	0x3c2f4552	0.01069768
253	0xbd5c6749	-0.053809438
254	0xbd77aadf	-0.06046569
255	0xbd54c5b6	-0.051946364

rnn.weight_hh_l0 f4 [64, 64]
0	0x3dba0866	0.09083633
1	0x3cc8f6da	0.02453177
2	0x3bb78408	0.005600456
3	0x3cc4ae44	0.024008878
4	0xbd8d9628	-0.06913406
5	0xbcba9a13	-0.022778546
6	0xbb7fc7eb	-0.0039029073
7	0xbd95ad51	-0.07308448
8	0xbb816fc4	-0.003950091
9	0xbc86d8e7	-0.016460849
10	0xbd2cfbe5	-0.042232413
11	0xbd1411ac	-0.036149666
12	0xbdf1a7f5	-0.117996134
13	0x3de464d1	0.11152042
14	0x3d6a94e4	0.0572709
15	0x3dae1244	0.08499578
16	0xbdcd93b8	-0.10037941
17	0xbdea5a15	-0.11442963
18	0x3db06db9	0.08614678
19	0xbca15161	-0.019692125
20	0x3ca9f7e7	0.020748092
21	0x3d6d1de9	0.057889853
22	0x3c0f6474	0.008751977
23	0xbb9bc257	-0.0047533917
24	0x3d8e5378	0.06949514
25	0x3dbedc8c	0.0931941
26	0xbd0a0e7e	-0.033705227
27	0xbdcb606e	-0.09930502
28	0xbd844264	-0.064579755
29	0x3dad9318	0.084753215
30	0x3c18001b	0.009277369
31	0x3dcf351f	0.10117554
32	0xbd2e656f	-0.042577203
33	0xbde12e5d	-0.10995171
34	0x3d18a17b	0.037263375
35	0xbd4fcdca	-0.050733365
36	0xbd8fbc40	-0.07018328
37	0x3d994c61	0.07485271
38	0x3c0ba175	0.008522381
39	0xbc0dc9bf	-0.008654057
40	0x3de9ad82	0.11410047
41	0x3dd19817	0.10234087
42	0xbdc23f8f	-0.09484779
43	0xbddb1ba3	-0.10698631
44	0xbd6e6cf1	-0.058209363
45	0xbdb9e74d	-0.0907732
46	0xbd8150e3	-0.06314256
47	0x3d9e7f5d	0.07739136
48	0xbda2da37	-0.079517774
49	0x3de06c90	0.10958207
50	0x3d1d976f	0.038474496
51	0x3bc68035	0.006057764
52	0x3c961716	0.018321555
53	0x3ccee030	0.025253385
54	0x3d170d21	0.036877755
55	0xbdc4cf26	-0.09609823
56	0xbadb0fda	-0.0016713098
57	0x3da3d8bb	0.080003224
58	0x3df22766	0.11823921
59	0xbba2e8a1	-0.004971579
60	0xbda9aa22	-0.082844034
61	0x3d58ab39	0.052897666
62	0xbdde29f3	-0.10847845
63	0x3dd6df13	0.10491767
64	0x3d9001f7	0.07031625
65	0x3d5cace5	0.053875823
66	0x3c91ab43	0.01778186
67	0x3db35093	0.08755603
68	0xbd4df232	-0.050279804
69	0xbdd10b89	-0.10207278
70	0xbd71a81a	-0.058998205
71	0x3db1858a	0.08668049
72	0xbd68f0a1	-0.056870107
73	0xbdbe4cda	-0.09292002
74	0x3cd552d9	0.026040481
75	0xbd9bd4e0	-0.07608962
76	0xbb83a519	-0.004017484
77	0xbd9905c7	-0.07471805
78	0x3ce0afa1	0.027427496
79	0xbc80d947	-0.015728606
80	0x3c464ede	0.012103764
81	0x3d6e5f9e	0.058196656
82	0xbd98a7ea	-0.07453902
83	0xbd161a35	-0.036646087
84	0xbdb28f9e	-0.08718799
85	0x3dd335c7	0.103129916
86	0xbd36c213	-0.044618677
87	0x3d2a4501	0.041569714
88	0x3ce07d73	0.027403569
89	0xbdee861c	-0.11646673
90	0xbda8c744	-0.08241132
91	0xbd0b8bde	-0.034068935
92	0xbdba0c71	-0.09084404
93	0x3d783690	0.06059891
94	0x3d92f704	0.07176021
95	0xbb24e2ac	-0.002515952
96	0x3ca3e237	0.020005329
97	0x3d02b987	0.031915214
98	0x3d2b850a	0.041874923
99	0xbc939fc2	-0.018020514
100	0xbd421a59	-0.04738841
101	0xbd9eff4c	-0.07763538
102	0x3b353d74	0.0027655037
103	0x3db617a6	0.08891229
104	0xbc9095fc	-0.017649643
105	0x3dd11023	0.10208156
106	0x3d129d17	0.035794344
107	0xbd823be9	-0.06359083
108	0x3d3fd1b0	0.046830833
109	0x3d2d28e1	0.042275313
110	0xbd5eac8e	-0.05436378
111	0xbcae0c87	-0.021246208
112	0xbc719c6e	-0.014746768
113	0x3d2bc31c	0.041934118
114	0x3db2088b	0.08693036
115	0xbcc5ebd6	-0.024160307
116	0x3da022cb	0.07819136
117	0x3d84999c	0.06474611
118	0xbdd5cffd	-0.10440061
119	0x3dad7af2	0.084707156
120	0xbbc68460	-0.006058261
121	0x3db72486	0.08942513
122	0x3daebc92	0.08532061
123	0xbde0ded8	-0.10980004
124	0xbdd26342	-0.10272838
125	0xbc67ee92	-0.014156001
126	0x3d2511be	0.040300123
127	0xbca3ca73	-0.019993996
128	0xbde718b7	-0.11284011
129	0x3d867974	0.06566134
130	0xbd875fc5	-0.066100635
131	0x3d5c6da5	0.053815503
132	0x3da72493	0.08161273
133	0xbd2b78af	-0.04186314
134	0x3d948d76	0.07253544
135	0x3c8086aa	0.015689213
136	0xbd12bff8	-0.035827607
137	0x3bf918d2	0.0076018358
138	0x3d29d92f	0.041466888
139	0x3d6f5c4c	0.05843763
140	0xbd8a27f6	-0.06745903
141	0x3db2a8f8	0.087236345
142	0xbd5f87ea	-0.054572977
143	0xbdcaf899	-0.099106975
144	0xbd565366	-0.05232563
145	0xbdd06eb8	-0.10177368
146	0x3d04aac7	0.03238943
147	0x3c17c8f4	0.00926422
148	0xbc1890b2	-0.009311842
149	0xbd9c81c9	-0.07641942
150	0x3d77a346	0.060458444
151	0x3c907638	0.017634496
152	0xbcedbc5c	-0.02902048
153	0x3caae3fe	0.020860668
154	0x3d27e9d1	0.04099447
155	0xbd93ea37	-0.07222407
156	0xbd0da823	-0.034584176
157	0xbd5b07c6	-0.05347421
158	0x3dd1bec2	0.10241462
159	0x3ce65735	0.028117755
160	0xbdb07274	-0.0861558
161	0x3daa1b48	0.08305985
162	0xbc8dfee9	-0.017333465
163	0x3c1d0424	0.009583507
164	0x3c70f753	0.014707404
165	0xbc7b5cb2	-0.0153419245
166	0x3de27466	0.110573575
167	0x3d4b7bb3	0.049678516
168	0x3cc75396	0.024331849
169	0xbd2ae121	-0.041718606
170	0x3ccaec7c	0.024770968
171	0xbdb0ce5d	-0.08633111
172	0xbd241d84	-0.04006721
173	0x3d6ced40	0.057843447
174	0xbded8302	-0.115972534
175	0xbb5fe612	-0.0034164232
176	0xbd387f23	-0.045043122
177	0x3d7a0f9b	0.06105004
178	0xbd98d473	-0.074623965
179	0x3cac39c1	0.021023633
180	0xbd07c665	-0.03314819
181	0x3dc9fc79	0.098626085
182	0xbc972673	-0.018450951
183	0xbdafe2ba	-0.085881665
184	0xbd16d8dc	-0.036827907
185	0x3da972a2	0.082738176
186	0x3d2d4b14	0.04230793
187	0x3cd5cce3	0.026098674
188	0x3d91cd9e	0.071192965
189	0x3d36539a	0.044513322
190	0xbc6dc422	-0.014512094
191	0xbd7fd67f	-0.06246042
192	0xbde30dcf	-0.11086618
193	0x3d855003	0.06509402
194	0x3dc11658	0.0942809
195	0xbd1a6c94	-0.037701204
196	0xbd7031f3	-0.058641385
197	0x3c1ee904	0.00969911
198	0xbaa2940e	-0.0012403743
199	0x3dbb5f96	0.09149091
200	0x39a2b611	0.00031034698
201	0xbb40d275	-0.0029422317
202	0xbde50da8	-0.11184245
203	0x3cebba9e	0.02877551
204	0xb9a729ee	-0.00031883962
205	0x3cdce40b	0.026964208
206	0x3d990f65	0.074736394
207	0x3d777f31	0.060424034
208	0xbbb13b08	-0.0054086484
209	0x3a1626fa	0.0005727854
210	0xbd7346c0	-0.059393644
211	0x3ded6fb5	0.11593572
212	0x3da0b08d	0.078461744
213	0x3c477208	0.012173183
214	0x3de4045c	0.11133644
215	0x3dbedc27	0.093193345
216	0x3d8ec3ea	0.069709614
217	0x3d76b698	0.06023273
218	0x3d3c1022	0.045913823
219	0xbd0164a5	-0.031590123
220	0x3bea8ca6	0.00715788
221	0x3dc29568	0.09501153
222	0xbcceb6b9	-0.025233613
223	0x3cf3464f	0.029696612
224	0xbcc51670	-0.02405855
225	0x3c9ddeaf	0.019271223
226	0x3d9be998	0.07612914
227	0x3da81664	0.08207396
228	0x3d5e8e66	0.05433502
229	0x3d3e7f2f	0.04650801
230	0xbd06304f	-0.032760914
231	0x3dce98b4	0.100877196
232	0x3d9e8d5e	0.077418074
233	0x3deb2f80	0.11483669
234	0xbdda75c4	-0.10666993
235	0xbd6de077	-0.058075394
236	0xbdc6af59	-0.09701414
237	0x3a14a7ab	0.00056707364
238	0x3daf9a3a	0.08574338
239	0xbda6759c	-0.08127901
240	0x3cb92e9a	0.02260523
241	0x3b33825e	0.0027390937
242	0xbdf120ef	-0.1177386
243	0xbb363bd5	-0.0027806659
244	0xbc47e0d6	-0.012199601
245	0xbd52b22a	-0.05143944
246	0xbda24376	-0.079230234
247	0x3d850745	0.06495527
248	0xbc771cf5	-0.0150825875
249	0xbcc501bf	-0.024048684
250	0xbd3d577c	-0.04622601
251	0xbc118fac	-0.008884352
252	0xbd2e8878	-0.042610615
253	0xbd92d931	-0.07170332
254	0x3d53bb94	0.05169256
255	0xbb985d70	-0.0046498105

rnn.bias_ih_l0 f4 [64]
0	0xbd4ebd63	-0.050473582
1	0x3d97033f	0.07373666
2	0x3da0a8a3	0.07844665
3	0x3ce6befe	0.028167244
4	0x3ca8d1c1	0.020607831
5	0x3c2f7714	0.010709543
6	0x3dfe84ca	0.12427671
7	0x3d38c2dd	0.04510771
8	0x3e005f46	0.12536344
9	0x3cb6b1a1	0.022301497
10	0x3c2743b8	0.0102090165
11	0xbe0d5e48	-0.13805497
12	0xbd09688c	-0.03354697
13	0xbcf4e0b1	-0.029892297
14	0x3d50a631	0.050939742
15	0x3c462183	0.012092951
16	0xbe2feeb2	-0.17180899
17	0x3e3501a4	0.17676407
18	0xbd5b04c4	-0.05347134
19	0xbd69c264	-0.05707015
20	0xbe117a9c	-0.14206928
21	0x3da71b8c	0.08159551
22	0xbd96a3dd	-0.07355473
23	0xbe197c9b	-0.1498894
24	0x3d214b25	0.039378304
25	0x3c8049b8	0.015660152
26	0x3db00ae4	0.08595827
27	0xbe16290a	-0.14664093
28	0xbd41f41a	-0.047351934
29	0xbd1f8dc3	-0.038953554
30	0xbda26684	-0.079297096
31	0x3c2f23d1	0.010689692
32	0x3e274fc6	0.16339025
33	0x3c324abe	0.010882078
34	0x3e0ffcf1	0.14061333
35	0x3d72d6c6	0.059286855
36	0xbdb53fa0	-0.08850026
37	0xbd8e7750	-0.06956351
38	0x3d2fe968	0.042947203
39	0x3d16ed86	0.036847614
40	0xbd8261da	-0.0636632
41	0x3b9ef3d8	0.004850846
42	0xbe14669a	-0.14492264
43	0xbdf85aa7	-0.121266656
44	0xbb3d71eb	-0.0028907012
45	0x3a767d30	0.00094028097
46	0xbcbe1a95	-0.023206035
47	0x3d0cd5df	0.03438365
48	0xbe078973	-0.13236026
49	0x3d5e9274	0.054338887
50	0xbe097d06	-0.13426599
51	0x3c9bb114	0.019005336
52	0x3dbe6e17	0.09298342
53	0x3d305862	0.04305304
54	0xbe044bdd	-0.12919565
55	0xbe0e55b8	-0.13899887
56	0xbd3a3b2f	-0.045466598
57	0xbce2bb32	-0.027677152
58	0xbe24c718	-0.16091573
59	0x3dfb6f04	0.12277034
60	0xbd62f4bb	-0.055409174
61	0xbd68cecd	-0.056837846
62	0x3dd87b01	0.10570336
63	0xbdd830b0	-0.105561614

rnn.bias_hh_l0 f4 [64]
0	0x3cdf73d8	0.027276918
1	0x3dd4cf0f	0.10391056
2	0x3cf65651	0.030070456
3	0x3dcf28ba	0.1011519
4	0xbd623074	-0.05522199
5	0xbe3e2c3b	-0.1857156
6	0x3e1efee5	0.15526922
7	0xbe06f768	-0.13180315
8	0xbb1841ea	-0.0023232647
9	0x3dafaf5b	0.08578368
10	0xbd9f8afe	-0.077901825
11	0xbd3c78d2	-0.04601366
12	0xbd9091dd	-0.07059071
13	0x3cecd877	0.028911812
14	0xbc8f05b5	-0.017458776
15	0x3db70912	0.08937277
16	0x3d4934b8	0.049122542
17	0xbc15636a	-0.00911794
18	0x3d975661	0.07389522
19	0x3cc9d60f	0.024638204
20	0xbe5719a8	-0.21005881
21	0x3ddd1a3a	0.10796018
22	0xbde58275	-0.11206523
23	0x3d1313f9	0.03590772
24	0xbca37c97	-0.01995687
25	0xbdcd13e9	-0.10013563
26	0xbdffe050	-0.12493956
27	0xbbbcbeae	-0.0057600355
28	0xbe0d4b28	-0.13798201
29	0x3d8f5714	0.06999031
30	0x3bc4e34f	0.0060085426
31	0xbdbab5f8	-0.09116739
32	0x3dec70a4	0.11544922
33	0xbd8d9cf5	-0.06914703
34	0x3d5622dc	0.05227934
35	0x3c188916	0.009310028
36	0x3d4fdc97	0.05074748
37	0xbe210d3b	-0.15727703
38	0xbd5dbf3b	-0.05413745
39	0xbd9752fe	-0.073888764
40	0xbd0f0058	-0.034912437
41	0x3cfe32ac	0.031030022
42	0xbdf64ff7	-0.12026971
43	0xbcfc2d39	-0.030783283
44	0x3d0897dc	0.03334795
45	0xbe034dca	-0.12822643
46	0xbb2d88ee	-0.0026479322
47	0x3d6fb350	0.058520615
48	0x3cd1943f	0.025583385
49	0x3d8b8480	0.06812382
50	0xbdbad368	-0.09122354
51	0xbd010820	-0.03150189
52	0x3d8a03da	0.06739016
53	0x3d664d43	0.056226026
54	0xbd04f901	-0.03246403
55	0x3d131926	0.035912655
56	0xbd831371	-0.064001925
57	0xbdc8b3b7	-0.09799903
58	0xbe07ca46	-0.13260755
59	0xbd508788	-0.050910503
60	0x3c776ce9	0.01510165
61	0x3d04b7c4	0.032401815
62	0xbd1d068f	-0.038336333
63	0xbcab13e9	-0.020883517

output_net.weight f4 [2, 64]
0	0x3c30c452	0.010788994
1	0x3d3b7aa5	0.04577126
2	0xbd717c8b	-0.058956664
3	0x3db3df89	0.0878287
4	0xbdb66204	-0.08905414
5	0xbe1fd411	-0.1560824
6	0x3d9afc2d	0.0756763
7	0xbcb9d0aa	-0.022682507
8	0x3d4065be	0.04697203
9	0xbb2122e8	-0.0024587456
10	0x3a99f651	0.0011746382
11	0x3cb3de06	0.021956455
12	0xbdf9af39	-0.12191624
13	0xbd5d5274	-0.05403371
14	0x3e07d1de	0.13263652
15	0x3dba7d85	0.09105972
16	0xbd7ea075	-0.062164742
17	0x3e2594fc	0.16170114
18	0x3daa1afe	0.083059296
19	0x3dfac828	0.12245208
20	0xbe67db34	-0.22642213
21	0x3e52c1de	0.20581767
22	0xbe0e340a	-0.13887039
23	0xbe551cd9	-0.20811786
24	0x3d2dcf8c	0.04243426
25	0xbcdf4b6d	-0.027257646
26	0xbdebface	-0.115224466
27	0x3b58d334	0.0033084871
28	0xbcce8e64	-0.025214382
29	0xbd77e548	-0.060521394
30	0xbbab7731	-0.0052327146
31	0x3cc70275	0.024293164
32	0x3dac7fd9	0.084228225
33	0x3db3d1ec	0.08780274
34	0x3e13dd98	0.1444
35	0x3dac6333	0.08417358
36	0xbda29668	-0.07938844
37	0xbe13a1be	-0.14417168
38	0xbcf76687	-0.030200256
39	0xbd7ec1b1	-0.062196437
40	0xbe0cf425	-0.13765009
41	0xbda2209c	-0.07916376
42	0xbe2bea57	-0.16788612
43	0xbce2f34c	-0.027703904
44	0xbd5c9a2c	-0.053857967
45	0xbe2c7fbb	-0.168456
46	0xbd51f18e	-0.051255755
47	0xbd8e9ace	-0.069631204
48	0xbdd80cae	-0.105492935
49	0x3e007add	0.12546869
50	0x3c6b9ea9	0.014381089
51	0x3db38aed	0.08766732
52	0x3df86a70	0.12129676
53	0x3d548e0e	0.051893286
54	0xbdee23e3	-0.116279386
55	0xbd558b09	-0.052134547
56	0xbbed474b	-0.007241165
57	0xbd31889f	-0.043343183
58	0xbb93a79b	-0.004506064
59	0x3de11af8	0.10991472
60	0xbe1d3f0c	-0.15356082
61	0xba680855	-0.0008851339
62	0x3c593447	0.013257093
63	0x3c848ac1	0.016179444
64	0xbde807d7	-0.1132962
65	0x3cb25669	0.02176972
66	0xbd7d5371	-0.061847154
67	0xbbe2c1c5	-0.006920072
68	0xbc295ee5	-0.010337566
69	0x3df50b32	0.11965026
70	0xbdc128c9	-0.09431607
71	0xbdb09a2d	-0.08623157
72	0xbe039f2a	-0.12853685
73	0x3d20c4fc	0.03925036
74	0x3d578f27	0.052626755
75	0x3dbae8de	0.09126447
76	0xbd3948fc	-0.04523562
77	0x3cbf5f88	0.023360983
78	0xbd86a15f	-0.06573748
79	0xbd5a532b	-0.05330197
80	0x3e1bdee8	0.1522175
81	0xbe2b538c	-0.1673109
82	0x3d82a8e6	0.06379871
83	0xbe20995d	-0.15683503
84	0x3e2e2395	0.17005761
85	0xbdf525af	-0.11970078
86	0x3da53bc6	0.080680415
87	0x3b94e9b4	0.004544461
88	0x3d6bf1b3	0.05760355
89	0x3d72038e	0.05908542
90	0xbd97dce2	-0.07415177
91	0x3ba5e3fb	0.005062578
92	0x3dd3b3a5	0.10336999
93	0xbdc0db1d	-0.094167925
94	0x3dbc57eb	0.091964565
95	0x3b49dc5f	0.0030801517
96	0xbe4e5daf	-0.20152925
97	0x3d0ef2c2	0.03489948
98	0xbdf7f4a6	-0.1210721
99	0xbe10f076	-0.14154229
100	0x3d55731d	0.052111734
101	0x3ddeb2b3	0.10873928
102	0x3dfc2a18	0.12312716
103	0x3e14ee83	0.1454411
104	0x3d94f7df	0.0727384
105	0xbd8397b6	-0.06425421
106	0x3d968836	0.07350199
107	0x3df25171	0.1183194
108	0xbdb87340	-0.09006357
109	0x3e1de70e	0.15420172
110	0x3dae3564	0.08506277
111	0x3d810bb9	0.06301064
112	0x3de86294	0.11346927
113	0xbe1b7f40	-0.15185261
114	0x3dcd6e22	0.10030772
115	0xbc96a04c	-0.018386982
116	0xbb436e43	-0.002982036
117	0xbdc91478	-0.09818357
118	0x3e0dfa7e	0.13865086
119	0x3ca6ce72	0.020362113
120	0x3cdc5653	0.026896631
121	0xbdc98827	-0.09840422
122	0x3e40376d	0.18771143
123	0xbe203adf	-0.15647458
124	0x3e107f5b	0.14111082
125	0x3d819fd3	0.06329312
126	0x3c7fbc24	0.015608821
127	0xbdbedd35	-0.09319536

output_net.bias f4 [2]
0	0xbf0030b1	-0.500743
1	0x3ee0c562	0.4390059
