src/pred_training/trained_rnn_models/T3_resnet50/pred_rnn/cosine_False_0.0005_0.9mammograms_pred_rnn_0.509_4.pth (torch, 43286 bytes, 10 tensors)

init_net.0.weight f4 [64, 15]
0	0xbaeff16c	-0.0018306202
1	0x3e0650a9	0.13116707
2	0xbe4e131d	-0.20124479
3	0xbe3843cb	-0.17994611
4	0xbdc0ded1	-0.09417499
5	0x3d86486a	0.06556781
6	0xbb9ebf28	-0.004844565
7	0x3e468632	0.19387129
8	0xbcb1c21e	-0.021699008
9	0x3d8481f0	0.06470096
10	0xbd975624	-0.07389477
11	0xbd44dd64	-0.048062697
12	0xbe6f3369	-0.23359455
13	0xbe25d29a	-0.1619362
14	0xbdce6ce6	-0.100793645
15	0x3c11cb3a	0.008898551
16	0x3dc6fab8	0.097157896
17	0x3e16c99c	0.14725345
18	0xbe29be4f	-0.16576503
19	0xbdda1021	-0.106476076
20	0x3db5e293	0.08881106
21	0x3e50e184	0.20398527
22	0xbd4e0ba2	-0.050304063
23	0x3e3b63b7	0.18299757
24	0xbd21699e	-0.039407365
25	0x3cd3f59e	0.025873955
26	0x3e62c18c	0.22144145
27	0xbe684548	-0.22682679
28	0xbe1c90c5	-0.152896
29	0xbd7d8cf0	-0.061901987
30	0xbdc21cf3	-0.09478178
31	0x3e5763ff	0.21034239
32	0xbe226323	-0.1585813
33	0xbde6845c	-0.11255714
34	0xbe2eed11	-0.17082621
35	0xbe6a7f28	-0.22900069
36	0xbe12d6f0	-0.14339805
37	0x3e5718bb	0.21005528
38	0x3ddf4fcb	0.10903891
39	0x3df2af5e	0.11849855
40	0x3c52ab46	0.012858218
41	0xbe0062a2	-0.12537625
42	0x3d28f2ee	0.0412473
43	0xbe6ad042	-0.22931007
44	0xbe34eaa6	-0.17667636
45	0xbe00a6e3	-0.12563662
46	0x3e1dbec1	0.15404798
47	0x3e129ccc	0.14317626
48	0xbdde15c6	-0.10843997
49	0xbc108ca1	-0.008822591
50	0x3e202240	0.15638065
51	0x3e787fa6	0.24267444
52	0x3dc6bb78	0.097037256
53	0x3d074c73	0.033031892
54	0x3e27dff3	0.16394024
55	0xbe136cb8	-0.14396942
56	0x3d3aa0b5	0.04556342
57	0xbe421f1c	-0.1895718
58	0xbe2df4ab	-0.16987865
59	0xbe0157ab	-0.12631099
60	0x3de23d6b	0.11046871
61	0x3dc8e9cb	0.098102175
62	0xbe145acf	-0.14487766
63	0x3d974899	0.07386894
64	0x3e0973b1	0.13423039
65	0xbcfcd1b1	-0.030861707
66	0x3c1601e7	0.009155727
67	0x3d67efd5	0.056625206
68	0x3e1b4f2c	0.1516692
69	0x3e706954	0.2347768
70	0xbe40f2fe	-0.18842694
71	0xbdb78430	-0.0896076
72	0x3dc4ba3c	0.09605834
73	0x3e4f2cd8	0.2023195
74	0x3e59e219	0.21277656
75	0x3e5cf51b	0.21577875
76	0x3d47ecd5	0.048809845
77	0xbe59a8d7	-0.21255814
78	0x3cb843db	0.022493294
79	0xbe1ca3b8	-0.15296829
80	0xbe6957e0	-0.22787428
81	0x3e5eab26	0.21744975
82	0x3e3e60b2	0.18591574
83	0xbe79c20c	-0.2439043
84	0x3d3b76a0	0.045767426
85	0xbd28b79d	-0.041190732
86	0xbd24d2fa	-0.040240265
87	0xbde533f2	-0.111915484
88	0x3dc1024a	0.09424265
89	0xbe144d20	-0.14482546
90	0x3db7e27f	0.089787476
91	0x3dfc9930	0.12333906
92	0x3e32de30	0.1746757
93	0x3dbb3d7c	0.091425866
94	0xbe77cf7e	-0.24200246
95	0xbe226bd0	-0.1586144
96	0x3df8ecf0	0.12154567
97	0x3d5172a2	0.051134713
98	0xbe43550b	-0.1907541
99	0xbe102dc5	-0.1407996
100	0x3e6b8b66	0.23002395
101	0x3e28b189	0.16473974
102	0xbdda750f	-0.106668584
103	0xbd7ed686	-0.062216304
104	0xbe6e8318	-0.23292196
105	0xbb900318	-0.0043949
106	0xbe3c8d27	-0.1841322
107	0xbe4121f3	-0.18860607
108	0xbc5cbbd7	-0.013472519
109	0x3d165fb2	0.036712356
110	0xbdcd13b3	-0.10013523
111	0x3e149206	0.14508829
112	0xbe185dc2	-0.14879516
113	0x3e633013	0.22186308
114	0x3e2b95fb	0.16756432
115	0xbe53244a	-0.20619312
116	0xbd794358	-0.06085524
117	0x3c34c3ed	0.0110330405
118	0x3d121f90	0.03567463
119	0x3d6d8911	0.057992045
120	0x3dc4c435	0.09607736
121	0x3c71b02b	0.014751474
122	0xbdf451d0	-0.11929667
123	0x3decf46a	0.11570056
124	0xbe702d60	-0.23454809
125	0xbe1466fa	-0.14492407
126	0xbd7a5286	-0.061113857
127	0xbdf3eb72	-0.11910142
128	0xbdaf2bb1	-0.08553255
129	0xbe4d37d7	-0.20040832
130	0xbd550a01	-0.052011494
131	0x3d56175d	0.052268375
132	0xbe231b7d	-0.15928455
133	0xbc4bbcbc	-0.0124351345
134	0x3e333c36	0.17503437
135	0xbcc94738	-0.024570093
136	0x3bb61655	0.0055568614
137	0xbcb751d9	-0.022377895
138	0x3d4ab081	0.049484733
139	0x3e1f33a8	0.15547049
140	0x3e6d2c15	0.23161347
141	0x3e1ce981	0.1532345
142	0x3e6d8a7b	0.23197357
143	0xbc91701e	-0.017753657
144	0xbe60ec1b	-0.21965067
145	0xbded6648	-0.11591774
146	0x3e2a6bfd	0.16642757
147	0xbae6d54e	-0.0017611177
148	0xbdfe118a	-0.12405689
149	0xbe3fde9e	-0.18737265
150	0xbe699a19	-0.2281269
151	0xbe538e68	-0.20659792
152	0xbd4cd19a	-0.05000458
153	0x3e094f65	0.13409193
154	0x3e075dad	0.13219328
155	0xbe71799f	-0.23581551
156	0x3e1b8caa	0.15190378
157	0xbe43ecd8	-0.19133317
158	0xbd53c51c	-0.05170165
159	0xbdcb0c9c	-0.099145144
160	0xbd40e89e	-0.04709684
161	0xbd44a881	-0.04801226
162	0xbe60ae5e	-0.21941516
163	0xbe58d6df	-0.21175717
164	0xbd1cb7b4	-0.03826113
165	0x3b2f8c52	0.0026786518
166	0xbde104a4	-0.10987213
167	0x3dbf36ee	0.09336649
168	0xbe615b7b	-0.22007553
169	0xbc872e10	-0.016501456
170	0x3e5c309a	0.21502915
171	0xbdc84216	-0.0977823
172	0x3e624145	0.22095211
173	0x3db57e6a	0.08862002
174	0xbe61f278	-0.2206515
175	0x3e1e6ae9	0.1547047
176	0xbce6937d	-0.0281465
177	0xbddf211e	-0.108949885
178	0x3e4abd53	0.19798784
179	0xbe4a54d7	-0.19758926
180	0x3cd66555	0.026171366
181	0xbd50bb23	-0.050959717
182	0x3e3309ba	0.17484179
183	0x3d8bc8ea	0.06825431
184	0x3df09e52	0.11748947
185	0x3db0d92f	0.086351745
186	0xbd6f5386	-0.058429264
187	0xbd527e02	-0.0513897
188	0xbe4e54ce	-0.20149538
189	0x3e07ab1a	0.13248864
190	0x3e46cc14	0.19413787
191	0x3e2b56fd	0.16732402
192	0xbe309330	-0.17243648
193	0x3c3a4ecb	0.011371325
194	0xbe308078	-0.17236507
195	0xbe0a0f98	-0.13482511
196	0xbe115b6c	-0.14195031
197	0x3dac57e1	0.08415199
198	0xbe153480	-0.14570808
199	0xbbaecdad	-0.005334577
200	0x3c28875f	0.010286181
201	0x3e225372	0.15852144
202	0xbe3d3a6c	-0.18479317
203	0xbe2bdb4f	-0.16782878
204	0xbe11615c	-0.14197296
205	0x3e2f404e	0.17114374
206	0xbdb3f288	-0.087864935
207	0x3e534e46	0.20635328
208	0x3db75f4d	0.08953724
209	0x3cfda342	0.030961636
210	0xbaf2e326	-0.001853083
211	0xbd45d8ff	-0.048302647
212	0x3cfb8905	0.030704984
213	0xbd64b149	-0.055833135
214	0xbae1302c	-0.0017180494
215	0x3cff931b	0.031198075
216	0xbe43d958	-0.19125879
217	0xbe033b7a	-0.12815657
218	0x3e4a32e9	0.19745983
219	0xbe4b3209	-0.19843306
220	0xbc8fd4c3	-0.017557507
221	0x3e77ba7b	0.2419223
222	0x3db4e4bb	0.088326894
223	0x3be4cf01	0.0069826846
224	0xbe58fb7c	-0.21189684
225	0x3df86ef3	0.12130537
226	0xbe3244fc	-0.17409128
227	0xbd8dd1bb	-0.069247685
228	0xbda80380	-0.082037926
229	0xbd145013	-0.036209177
230	0x3b2f477d	0.0026745491
231	0x3e4ebc41	0.20189
232	0x3cfa1d5d	0.03053158
233	0x3e60453a	0.21901408
234	0x3e1929bb	0.14957325
235	0xbe1e4b4e	-0.15458414
236	0x3de0987c	0.10966584
237	0xbe30fe41	-0.1728449
238	0xbdd3c31f	-0.10339951
239	0x3d9348ff	0.07191657
240	0x3da527ba	0.08064218
241	0x3e3c1679	0.18367948
242	0xbda0a4d2	-0.07843937
243	0x39cd38e7	0.00039143043
244	0x3e00e6df	0.1258807
245	0xbe722424	-0.23646599
246	0x3e357930	0.1772201
247	0xbe4f0a61	-0.20218803
248	0x3b5dad3c	0.003382518
249	0xbd2a4643	-0.041570913
250	0xbe03de57	-0.12877785
251	0x3d0466df	0.032324668
252	0x3e4f174f	0.20223735
253	0xbd915525	-0.07096318
254	0xbe14a644	-0.1451655
255	0xbdb86b86	-0.090048835

init_net.0.bias f4 [64]
0	0xbe32f0b5	-0.17474635
1	0x3d5bc063	0.05365027
2	0x3e62f2b3	0.22162895
3	0xbe76b250	-0.24091458
4	0xbe794108	-0.24341214
5	0x3d013223	0.031541955
6	0x3e3bd98f	0.18344711
7	0xbe185aa5	-0.14878328
8	0x3d5cef7f	0.05393934
9	0x3e2d6e3e	0.16936585
10	0x3d991722	0.07475115
11	0x3d62d3e1	0.055377845
12	0x3e7a49d3	0.24442224
13	0x3e24432c	0.16041249
14	0xbe0cc25d	-0.13746019
15	0x3caf072f	0.02136573
16	0x3e006fef	0.125427
17	0x3e5ab44a	0.21357837
18	0xbe797a41	-0.24363042
19	0x3e088008	0.1333009
20	0xbd907547	-0.07053619
21	0xbe756b61	-0.23966743
22	0x3d5abc0e	0.053402
23	0xbe09490c	-0.13406771
24	0x3d0cd708	0.034384757
25	0xbe22cd4e	-0.1589863
26	0xbe3d8933	-0.18509369
27	0xbca98aca	-0.020696063
28	0xbda7f26a	-0.08200534
29	0x3e129469	0.14314426
30	0x3ca82c98	0.020529076
31	0x3e42adc5	0.190116
32	0x3d3dcf01	0.046339992
33	0xbda1067f	-0.07862567
34	0x3e293588	0.16524327
35	0x3c710765	0.014711236
36	0x3d3bf4af	0.045887645
37	0xbda0ee44	-0.078579456
38	0x3a18e503	0.0005832465
39	0xbd475611	-0.048666064
40	0xbca89da2	-0.020582978
41	0xbe43cf5e	-0.19122073
42	0xbad027bf	-0.0015880986
43	0xbe4f9912	-0.20273235
44	0xbd5b5ace	-0.053553395
45	0x3e103593	0.14082937
46	0xbe2ed5e5	-0.17073782
47	0xbe293021	-0.16522266
48	0xbd7520fd	-0.059845913
49	0xbd898acb	-0.06715926
50	0x3d2a847f	0.041630264
51	0x3d29e690	0.041479647
52	0x3dfdaf4b	0.1238695
53	0xbe2c7847	-0.16842757
54	0xbc8ea7de	-0.01741403
55	0x3e0b9a04	0.13632971
56	0x3e584f0a	0.21123901
57	0xbc95390c	-0.018215679
58	0xbe107a87	-0.1410924
59	0x3d904074	0.070435435
60	0x3e0feb17	0.14054523
61	0xbe1c7792	-0.15279987
62	0xbe110aca	-0.14164272
63	0x3ddd69ef	0.10811221

init_net.2.weight f4 [64, 64]
0	0xbc07e383	-0.008293989
1	0xbde5ad84	-0.11214736
2	0xbd8c083b	-0.06837507
3	0x3d444891	0.047920767
4	0xbd24c353	-0.04022534
5	0x3da68961	0.08131672
6	0x3dbe5dcc	0.09295234
7	0x3c8d10ac	0.017219864
8	0xbc19d1bd	-0.009388384
9	0xbd1b42f9	-0.037905667
10	0xbbc78cd7	-0.0060897875
11	0x3cae01a2	0.021241013
12	0xbdba1cd3	-0.09087529
13	0xbced5705	-0.028972158
14	0xbdc9ab8f	-0.09847175
15	0x3d94a60e	0.07258235
16	0xbd9b4afb	-0.07582661
17	0x3ddba25a	0.107243255
18	0xbcfab436	-0.03060351
19	0xbd8be3ed	-0.06830583
20	0x3d68d33d	0.056842078
21	0x3c90550f	0.017618684
22	0x3da63e15	0.0811731
23	0x3d49db84	0.049281612
24	0xbde9a8e2	-0.11409165
25	0x3d992864	0.07478407
26	0xbcb7e1a3	-0.02244646
27	0xbd57fe3a	-0.052732684
28	0x3d99ed21	0.07515932
29	0x3db0a7ac	0.08625731
30	0xbdd56e93	-0.10421481
31	0xbc34dd3c	-0.0110390745
32	0x3dc6f863	0.09715345
33	0x3d3bc7a3	0.045844685
34	0x3dcc149e	0.0996487
35	0xbd27ccb8	-0.04096672
36	0xbd85c963	-0.06532552
37	0x3dd07101	0.10177804
38	0x3d4983b1	0.049197856
39	0x3de838e0	0.11338973
40	0xbd4adec7	-0.049528863
41	0xbd9bc6c2	-0.076062694
42	0xbc6521f6	-0.013985148
43	0xbde45bfa	-0.11150356
44	0x3d3d45e2	0.046209224
45	0x3db263ae	0.08710419
46	0x3ce77cb5	0.028257707
47	0xbc417fff	-0.011810302
48	0x3d6fac6f	0.058514055
49	0xbd99f948	-0.0751825
50	0x3dec039b	0.11524125
51	0xbdf20073	-0.11816492
52	0xbde94ae5	-0.11391238
53	0xbce52b93	-0.02797488
54	0x3dc5f6a3	0.09666183
55	0x3c41c0f0	0.011825785
56	0x3d3842f5	0.04498573
57	0xbdb257e9	-0.08708174
58	0x3d300609	0.042974506
59	0xbc60fb44	-0.013731781
60	0x3d406bfc	0.046977982
61	0x3dab3603	0.08359911
62	0x3d5293fa	0.051410653
63	0xbc250177	-0.01007115
64	0xbbeeef85	-0.0072917365
65	0xbd96bc24	-0.07360104
66	0xbd2e66e8	-0.042578608
67	0x3d9ddf68	0.07708627
68	0xbd41ce9d	-0.047316182
69	0x3d980a29	0.07423813
70	0xbd3b693b	-0.045754652
71	0xbce1d8c8	-0.02756919
72	0x3b289bce	0.0025727632
73	0xbddd2dc7	-0.10799747
74	0xba8043c7	-0.0009785824
75	0xbc3980f6	-0.011322251
76	0xbc1fe81b	-0.009759928
77	0xbcb759f0	-0.022381753
78	0x3dbf28d7	0.093339615
79	0x3db32a3c	0.0874829
80	0xbda2a5b7	-0.07941764
81	0x3d683ffb	0.05670164
82	0xbdbdd106	-0.09268384
83	0xbdcc7a6b	-0.09984287
84	0x3d146e7b	0.036238175
85	0x3aeaf7c2	0.0017926621
86	0xbd5bea01	-0.05368996
87	0xbde951a4	-0.11392525
88	0xbd3b4310	-0.045718253
89	0x3d22992b	0.039696854
90	0xbddfd027	-0.10928374
91	0xbde9dc8b	-0.11419018
92	0x3c7684d0	0.015046313
93	0xbdae5d50	-0.08513892
94	0xbdd3bb47	-0.10338455
95	0xbd384469	-0.044987116
96	0xbc9b49d9	-0.018956112
97	0xbddc4c28	-0.10756713
98	0xbda195c3	-0.07889893
99	0x3c0b6f01	0.008510352
100	0xbde4843c	-0.11158034
101	0xbc88179f	-0.016612826
102	0xbd9bf999	-0.07615966
103	0xbda71a0f	-0.08159267
104	0x3d3f3042	0.04667688
105	0xbdba60ae	-0.091004714
106	0xbdb74d9f	-0.08950352
107	0x3d8a6fa0	0.06759572
108	0x3cb8753b	0.022516837
109	0x3ddd9af6	0.10820572
110	0xbd006ac6	-0.031351827
111	0xbd694bb0	-0.056956947
112	0xbc2e4f68	-0.010639049
113	0x3a34b380	0.00068932027
114	0x3dbb2017	0.0913698
115	0xbdef9af7	-0.11699479
116	0xbbf47ff6	-0.007461543
117	0x3d568040	0.052368402
118	0xbd855d1b	-0.06511899
119	0xbd762bc1	-0.06010032
120	0x3d6e0a8b	0.058115523
121	0xbde71010	-0.112823606
122	0x3ce8cb24	0.028417177
123	0xbdb9c13d	-0.090700604
124	0x3d74a640	0.05972886
125	0xbdcf4753	-0.10121026
126	0x3d95365f	0.07285761
127	0xbde57b2a	-0.11205132
128	0xbdcbc74d	-0.09950123
129	0x3ad47516	0.0016209211
130	0x3dbef3ff	0.09323882
131	0xbdcfab71	-0.10140122
132	0xbd586196	-0.05282744
133	0x3dd4a1ba	0.103824094
134	0xbca4726d	-0.020074094
135	0x3d48deb9	0.04904053
136	0xbde93c95	-0.11388508
137	0xbd18f383	-0.037341606
138	0xbd765d3d	-0.060147513
139	0x3dcc2ca7	0.09969454
140	0x3d489492	0.048969813
141	0xbdb1631d	-0.086614825
142	0x3c9c51dd	0.019082004
143	0xbab61f5e	-0.0013894846
144	0xbd47dfcc	-0.048797414
145	0xbd8b1a41	-0.06792117
146	0xbd2102c3	-0.039309274
147	0x3dbeb8c8	0.09312588
148	0xbdadcf24	-0.084867746
149	0xbdacb64f	-0.0843321
150	0xbd16bc6c	-0.036800787
151	0x3b0385b8	0.0020068716
152	0x3d03e847	0.03220394
153	0x3b66a0b3	0.0035191
154	0xbce9e872	-0.028553221
155	0xbd9345eb	-0.0719107
156	0xbcae08ce	-0.021244433
157	0xbd434df4	-0.047681764
158	0x3dc3bb8d	0.09557257
159	0xbdec3bea	-0.11534865
160	0xbd9aaca6	-0.07552461
161	0xbdc53d15	-0.09630791
162	0xbcb174a6	-0.021662068
163	0x3dbca63e	0.09211396
164	0x3dd478e4	0.103746206
165	0xbdd30f69	-0.10305674
166	0xbba9b943	-0.0051795556
167	0x3d8e1c7c	0.06939027
168	0x3d559a39	0.05214903
169	0x3dc6883f	0.09693956
170	0xbb59cf54	-0.003323515
171	0xbda2e921	-0.07954622
172	0x3da03dd5	0.078242935
173	0xbd2692c7	-0.04066732
174	0x3d7acb63	0.06122912
175	0xbcef4e89	-0.029212253
176	0x3d4dd10e	0.0502482
177	0x3dda05af	0.10645615
178	0x3de10c3e	0.10988663
179	0xbddcf11a	-0.10788174
180	0xbda0ba9f	-0.07848095
181	0xbd487a2b	-0.048944633
182	0xbd9a9ee9	-0.07549841
183	0x3de898e0	0.113572836
184	0xbc2de99f	-0.010614782
185	0xbda103d7	-0.078620605
186	0xbd5805c3	-0.05273987
187	0xbd8646a9	-0.06556446
188	0x3d451fa4	0.048125878
189	0xbdd375cb	-0.103252016
190	0xbde212bd	-0.1103873
191	0xbdeefa57	-0.11668842
192	0x3d50be68	0.050962836
193	0x3d733831	0.05937976
194	0xbd95efc7	-0.073211245
195	0x3cf23af0	0.02956912
196	0x3db3625c	0.08758995
197	0x3c94fa77	0.018185837
198	0xbcc07a52	-0.023495827
199	0x3c0f4a57	0.008745751
200	0xbc4ebe55	-0.012618621
201	0x3d777f54	0.060424164
202	0xbda410d6	-0.08011024
203	0x3d78f71b	0.060782533
204	0x3d8aeb85	0.06783203
205	0xbd8f6f2a	-0.07003625
206	0x3dc5ff00	0.09667778
207	0x3dee7597	0.11643522
208	0xbd3a95ee	-0.04555314
209	0xbcfd5aeb	-0.030927142
210	0x3d728f46	0.059218667
211	0xbdbb7295	-0.09152714
212	0x3d400a93	0.046885084
213	0x3ce2cf77	0.027686818
214	0x3d9cdd84	0.07659438
215	0xbdd1e18e	-0.10248099
216	0xbdc91c52	-0.09819855
217	0x3d5aa38c	0.053378627
218	0x3d303f91	0.04302937
219	0xbddf8227	-0.109134965
220	0xbd871fc7	-0.06597858
221	0xbddd6c90	-0.10811722
222	0xbdacd040	-0.08438158
223	0xbd574b9a	-0.052562334
224	0x3dc8e72d	0.09809718
225	0xbcc1060b	-0.023562452
226	0x3d8ba427	0.06818419
227	0x3de84c45	0.11342672
228	0x3d5d3944	0.05400969
229	0xbdd8f3ba	-0.10593362
230	0x3d758b03	0.059947025
231	0x3d3b859c	0.045781717
232	0x3dbc550e	0.091959104
233	0xbdeed4d7	-0.1166169
234	0x3d95a925	0.073076524
235	0x3dc6a6f3	0.09699812
236	0xbde0926b	-0.10965427
237	0x3c537deb	0.012908439
238	0x3dcfba90	0.10143006
239	0xbdafc048	-0.085815966
240	0x3d20d974	0.03926988
241	0x3d56bbb0	0.052425086
242	0x3d04bff1	0.032409612
243	0x3df36356	0.11884181
244	0x3dc92203	0.0982094
245	0x3dd000e3	0.10156419
246	0xbc705feb	-0.014671306
247	0x3dcb7449	0.09934289
248	0xbddf7c95	-0.10912434
249	0xbd81335f	-0.063086264
250	0xbccb5be6	-0.024824094
251	0xbd0ac593	-0.033879828
252	0x3de2502e	0.11050449
253	0x3d64b5ba	0.05583737
254	0x3d9c4f6b	0.07632335
255	0x3da4e9ab	0.08052381

init_net.2.bias f4 [64]
0	0xbd7776fe	-0.060416214
1	0xbde1efb9	-0.110320516
2	0x3d81cfc3	0.063384555
3	0x3de635ec	0.112407535
4	0xbd15bcfb	-0.03655718
5	0xbde09059	-0.10965032
6	0x3d1eb34d	0.038745213
7	0xbda805d2	-0.08204235
8	0xbd9f99b6	-0.0779299
9	0x3d0a474b	0.033759397
10	0xbc614723	-0.0137498705
11	0xbc1c11e4	-0.00952575
12	0x3dd9cf35	0.10635225
13	0xbca8bf45	-0.020599017
14	0x3d965902	0.07341196
15	0xbd0fc3b3	-0.035098743
16	0x3daed7fe	0.08537291
17	0x3d1a3b18	0.037654012
18	0x3dd49101	0.1037922
19	0x3d3da10e	0.04629617
20	0xbd4519eb	-0.04812042
21	0x3d625c0e	0.05526357
22	0x3dcdb830	0.100448966
23	0x3ccc3c8e	0.024931218
24	0x3d654614	0.055975035
25	0xbdadff2b	-0.08495935
26	0x3d82ecc7	0.06392818
27	0xbde7459c	-0.11292574
28	0x3dd8b6ad	0.10581718
29	0x3d4ca819	0.049964998
30	0x3ba0a10c	0.004902011
31	0xbde5d091	-0.112214215
32	0x3de482a0	0.11157727
33	0x3d9eee16	0.07760255
34	0x3de3cd90	0.11123192
35	0x3d450d7b	0.04810856
36	0x3d1e3c1b	0.03863154
37	0xbcfce3de	-0.030870374
38	0xbd4316b7	-0.047629084
39	0x3d41c13f	0.047303434
40	0x3d292f5d	0.041304935
41	0xbb216170	-0.0024624728
42	0x3c8aa10e	0.0169225
43	0x3d23189c	0.03981839
44	0xbde2cf08	-0.11074644
45	0xbdd776d9	-0.10520715
46	0xbd02c0ef	-0.031922277
47	0x3da77c6c	0.081780285
48	0x3d62067a	0.055181958
49	0xbdedafba	-0.11605783
50	0xbd159e22	-0.03652776
51	0xbc3069e2	-0.010767432
52	0x3d2332db	0.03984342
53	0x3dc9797f	0.09837627
54	0xba42583d	-0.0007413661
55	0xbdc03896	-0.09385793
56	0x3bf05a9e	0.007335021
57	0xbd3e7ced	-0.046505857
58	0xbd993411	-0.07480634
59	0x3d87d829	0.06633026
60	0xbc7d139b	-0.015446569
61	0x3d5954e9	0.053059492
62	0x3dc67911	0.0969106
63	0x3c305cce	0.010764314

rnn.weight_ih_l0 f4 [64, 7]
0	0x3d88869e	0.06666301
1	0xbd77dc2d	-0.06051271
2	0x3d87506d	0.06607137
3	0x3b9a08d9	0.0047007618
4	0x3da149d9	0.078754134
5	0x3dd90917	0.10597437
6	0xbdc0a9d3	-0.094073914
7	0x3de62666	0.11237793
8	0x3dcc249d	0.09967921
9	0xbdc33cd2	-0.09533085
10	0x3d0e4f49	0.03474358
11	0xbdc59f1d	-0.09649489
12	0x3d503f3e	0.050841562
13	0x3cda9240	0.026681066
14	0xbde76dae	-0.113002166
15	0x3d3ba11e	0.04580795
16	0xbd0524ef	-0.032505926
17	0x3df1ad2d	0.11800609
18	0x3dec8975	0.11549655
19	0x3d367e76	0.044554196
20	0x3dc3fd20	0.09569764
21	0x3d2f40fa	0.042786576
22	0x3e06e6e0	0.1317401
23	0xbc32b481	-0.010907293
24	0x3cefdb70	0.02927944
25	0xbc9fb91d	-0.019497449
26	0x3cad8564	0.02118177
27	0xbc9717ca	-0.01844396
28	0xbd3fefa9	-0.046859417
29	0x3d7a0592	0.06104047
30	0x3d500500	0.05078602
31	0xbd561280	-0.052263737
32	0xbdd5b115	-0.10434166
33	0x3d48f3cd	0.04906063
34	0xbdec1ba6	-0.11528711
35	0xbbadf280	-0.0053084493
36	0xbe11eda5	-0.1425081
37	0x3dcaed82	0.09908582
38	0x3dc55c81	0.09636784
39	0xbdc7ad78	-0.097498834
40	0xbe1b7c47	-0.15184127
41	0xbdd404ed	-0.10352502
42	0x3d05eacb	0.03269462
43	0xbd0b7aa9	-0.034052525
44	0xbce6c6e2	-0.028171007
45	0xbcf5c91a	-0.03000312
46	0x3cb311d2	0.021859083
47	0xbcf2eee4	-0.029654928
48	0x3d98850a	0.0744725
49	0xbdad7b4c	-0.08470783
50	0xbc9a22e4	-0.018815465
51	0x3dcb33c1	0.09921981
52	0xbd85e963	-0.065386556
53	0x3dba1f4c	0.09088001
54	0x3d593eec	0.053038523
55	0xbd38644e	-0.045017533
56	0x3d283006	0.041061424
57	0xbd64cdf3	-0.05586047
58	0x3c1c19bd	0.009527621
59	0x3d093dc3	0.033506166
60	0x3dd209bb	0.10255762
61	0xbd2ca2fa	-0.042147614
62	0xbd4098e7	-0.04702082
63	0xbd722052	-0.059112854
64	0xbe00c21f	-0.12574051
65	0x3cc40a33	0.023930645
66	0xbdc8b7be	-0.09800671
67	0xbd025cc1	-0.03182674
68	0xbd8292af	-0.06375634
69	0xbb3208bb	-0.0027165848
70	0x3d131535	0.035908896
71	0xbdc76133	-0.09735336
72	0xbd0f281e	-0.034950368
73	0xbc3a6fe4	-0.011379216
74	0xbd8c278c	-0.068434805
75	0x3c7548f5	0.014971008
76	0x3d0ca0fd	0.034333218
77	0xbdacc700	-0.08436394
78	0x3da4957a	0.08036323
79	0x3dac3f80	0.08410549
80	0xbd11b2a1	-0.035570744
81	0x3c905c41	0.017622115
82	0x3a50c71d	0.00079642405
83	0xbcdb92a8	-0.02680333
84	0xbda2be05	-0.079463996
85	0x3dbc34c7	0.09189754
86	0x3d6e8f8a	0.05824236
87	0xbdca9db6	-0.09893362
88	0xbdbc0647	-0.09180885
89	0x3dda9832	0.1067356
90	0x3c609288	0.013706811
91	0xbcdf0937	-0.027226074
92	0x3da90a79	0.082539506
93	0x3d0b4815	0.03400429
94	0x3d2e09f5	0.042489965
95	0x3dc017b3	0.0937952
96	0xbbb52112	-0.005527624
97	0x3deacdcb	0.11465033
98	0xbdaa24d9	-0.083078094
99	0xbd732671	-0.059362832
100	0x3ca46ba3	0.020070856
101	0xbc6b5323	-0.014363083
102	0x3d8ad6fa	0.06779285
103	0xbc9b8926	-0.018986296
104	0x3cf3df29	0.029769497
105	0xbcc98a7f	-0.024602173
106	0x3de9aeab	0.114102684
107	0xbbfe03dd	-0.0077519254
108	0x3aec5ba7	0.0018032686
109	0x3db1afb5	0.086760916
110	0x3e101ae7	0.14072762
111	0x3e089a76	0.13340172
112	0xbded29ff	-0.11580276
113	0xbdccce6e	-0.10000311
114	0xbcd2cdc4	-0.025732882
115	0xbcc85e64	-0.024459071
116	0x3d8bca44	0.068256885
117	0x3c856c36	0.01628695
118	0xbd1dd158	-0.038529724
119	0x3b3d7519	0.0028908907
120	0x3d8656b8	0.06559509
121	0x3dd10a19	0.10207004
122	0x3d7b50f0	0.061356485
123	0xbd73356f	-0.05937713
124	0xbc83c6a8	-0.016085938
125	0x3d946d9b	0.07247468
126	0xbc441c15	-0.011969586
127	0xbd9eee0e	-0.07760249
128	0xbdeaa7f3	-0.11457815
129	0x3c8acfc2	0.01694477
130	0xbd0d53e5	-0.034503836
131	0xbd927c11	-0.0715257
132	0x3ca94191	0.020661147
133	0x3dec2f21	0.115324266
134	0x3e011a48	0.12607682
135	0x3d8a42a3	0.06750991
136	0xbdb6dac9	-0.08928449
137	0x3d8ad1b1	0.06778277
138	0x3dbb49c2	0.091449276
139	0x3d80b0ca	0.0628372
140	0xbcf23ab6	-0.029569011
141	0xbd502673	-0.050817918
142	0xbd83939a	-0.06424637
143	0xbcdace10	-0.026709586
144	0xbca180b8	-0.019714698
145	0xbd8c14b4	-0.06839886
146	0xbe213903	-0.15744404
147	0x3d2b3d67	0.041806605
148	0xbd818421	-0.0632403
149	0xbdb53d4b	-0.08849581
150	0x3d4512d1	0.048113648
151	0xbdc5ecb0	-0.09664285
152	0x3e111328	0.14167464
153	0x3e0d939f	0.13825844
154	0xbd1a4d14	-0.037671164
155	0xbd1f3b0f	-0.038874682
156	0xbdb97e83	-0.09057333
157	0x3bf007e4	0.0073251594
158	0x3caf1c99	0.021375941
159	0xbda96509	-0.08271224
160	0x3cb043f0	0.02151677
161	0xbb95b85c	-0.0045690965
162	0xbd56cf75	-0.05244394
163	0xb9dd4361	-0.00042202606
164	0xbdeb024c	-0.114750475
165	0xbdaaf33c	-0.083471745
166	0xbb58ef88	-0.0033101756
167	0x3dc96bec	0.098350376
168	0xbd8fb68e	-0.070172414
169	0x3d9c7487	0.07639413
170	0x3c318f8c	0.010837447
171	0xbd5099a8	-0.050927788
172	0x38aaaf1b	8.1388476e-05
173	0x3d6db774	0.058036283
174	0x3c6bfd65	0.014403676
175	0x3dd6867c	0.104748696
176	0xbd1a8620	-0.037725568
177	0xbda1e70f	-0.07905399
178	0x3ddb121b	0.10696813
179	0xbd0b07f0	-0.033943117
180	0x3d73896c	0.059457228
181	0x3d85a0cf	0.065248124
182	0x3cab9b61	0.020948114
183	0xbddf3737	-0.10899203
184	0xbdee0519	-0.11622066
185	0x3d662564	0.056188002
186	0x3cecbe86	0.028899442
187	0x3d640e8d	0.05567794
188	0xbdeb3943	-0.11485531
189	0xbc858eeb	-0.0163035
190	0x3dac6bef	0.08419024
191	0x3d7ea0ed	0.06216519
192	0x3dc95def	0.098323695
193	0x3dbea2d9	0.093084045
194	0xbd472fab	-0.048629444
195	0xbdc30bb3	-0.09523716
196	0xbd909614	-0.07059875
197	0x3cd7b6e1	0.02633232
198	0xbd407e35	-0.04699536
199	0x39f97eb1	0.00047587373
200	0x3c99d8eb	0.018780192
201	0x3d71091c	0.058846578
202	0x3d5cf720	0.053946614
203	0x3d8a5a31	0.06755484
204	0x3c0b0a58	0.008486353
205	0x3d88dbf8	0.06682581
206	0xbd631064	-0.055435553
207	0xbd41e421	-0.0473367
208	0xbc82a108	-0.015945926
209	0xbd874f1d	-0.066068865
210	0x3dd82ac3	0.10555031
211	0xbd20cf02	-0.039259918
212	0x3d0cd9c6	0.034387372
213	0xbb739a18	-0.0037170704
214	0xbadae6c3	-0.0016700852
215	0xbdafef8b	-0.08590611
216	0xbcd70397	-0.026246829
217	0xbdd8c8ab	-0.105851494
218	0xbd59a2fe	-0.053133957
219	0x3dba906d	0.09109578
220	0xbde35e73	-0.11101999
221	0x3ca0a01c	0.019607596
222	0x3cb354ce	0.021891024
223	0xbde198e0	-0.11015487
224	0x3cbda048	0.023147717
225	0x3daae752	0.08344902
226	0x3daf9f13	0.08575263
227	0x3cb57077	0.022148354
228	0x3dbde48d	0.09272108
229	0x3d1249b3	0.035714816
230	0x3d8de752	0.069288865
231	0x3d0f4652	0.034979172
232	0xbd996595	-0.07490078
233	0xbcd4ca2d	-0.025975311
234	0xbdaab11f	-0.083345644
235	0x3dbc7f5c	0.092039794
236	0x3d8e68c4	0.06953576
237	0xbd21966f	-0.039450105
238	0xbcb0d399	-0.021585273
239	0x3d56b98e	0.052423052
240	0xbdd35411	-0.10318769
241	0x3b5c2bdc	0.0033595478
242	0x3d6838d2	0.056694813
243	0x3d18cd3c	0.0373051
244	0x3bf1cb14	0.007378945
245	0x3d9bf26e	0.07614599
246	0x3d995af1	0.07488049
247	0xbdd779f7	-0.1052131
248	0x3d8eb1da	0.06967516
249	0xbdbed484	-0.09317878
250	0x3db8cced	0.090234615
251	0x3df3636a	0.11884196
252	0x3c328435	0.010895778
253	0xbd5ef8e8	-0.054436594
254	0xbd7a758b	-0.061147254
255	0xbd5737e0	-0.05254352

rnn.weight_hh_l0 f4 [64, 64]
0	0x3dbd8bd9	0.092551894
1	0x3cd4290e	0.025898483
2	0x3bb69d0f	0.005572922
3	0x3cc5e52d	0.024157131
4	0xbd8f138f	-0.069861524
5	0xbcc3b694	-0.023890771
6	0xbb7d4162	-0.0038643708
7	0xbd969a4a	-0.07353647
8	0xbb6863f5	-0.003545997
9	0xbc893caa	-0.01675256
10	0xbd313c07	-0.043270137
11	0xbd17d088	-0.037064105
12	0xbdf590f6	-0.1199054
13	0x3de60de7	0.112331204
14	0x3d6d9418	0.05800256
15	0x3db17bc3	0.08666184
16	0xbdd0b596	-0.10190885
17	0xbdec1a23	-0.11528423
18	0x3db18a78	0.08668989
19	0xbc9f045d	-0.01941126
20	0x3caab266	0.02083702
21	0x3d7451fe	0.059648506
22	0x3c0cbaaa	0.008589426
23	0xbbacc235	-0.0052721747
24	0x3d900e1e	0.07033943
25	0x3dc1c50e	0.09461413
26	0xbd0d9496	-0.03456553
27	0xbdcefa46	-0.101063296
28	0xbd862af5	-0.06551162
29	0x3db05249	0.08609445
30	0x3c0d9bfb	0.008643146
31	0x3dd23eca	0.10265882
32	0xbd2f993e	-0.042870753
33	0xbde314c8	-0.11087948
34	0x3d1bd096	0.03804072
35	0xbd519b31	-0.051173393
36	0xbd91b978	-0.071154535
37	0x3d9b02f2	0.07568921
38	0x3c128f8d	0.008945358
39	0xbc0b117e	-0.008488057
40	0x3decb11a	0.11557217
41	0x3dd5d2cc	0.10440597
42	0xbdc4f967	-0.09617882
43	0xbdddddb4	-0.10833302
44	0xbd712613	-0.0588742
45	0xbdbc4ec2	-0.09194709
46	0xbd83a04f	-0.06427061
47	0x3d9ec341	0.077520855
48	0xbda6e06d	-0.081482746
49	0x3de4faef	0.11180674
50	0x3d206981	0.039163116
51	0x3bd159de	0.006388887
52	0x3c953c3d	0.0182172
53	0x3ccff9f4	0.025387742
54	0x3d196b8e	0.037456088
55	0xbdc7fd13	-0.09765067
56	0xbab79f06	-0.0014009185
57	0x3da712f6	0.081579134
58	0x3df45288	0.11929804
59	0xbb970ca3	-0.0046096607
60	0xbdaca1e9	-0.084293194
61	0x3d589106	0.05287268
62	0xbde1a417	-0.11017626
63	0x3dd99596	0.106242344
64	0x3d903da4	0.07043007
65	0x3d5e63a7	0.054294255
66	0x3c95ab5f	0.018270193
67	0x3db7c23a	0.08972593
68	0xbd5275e2	-0.051381953
69	0xbdd3b41a	-0.10337086
70	0xbd6fd5a8	-0.058553368
71	0x3db2de12	0.08733763
72	0xbd6beb66	-0.05759754
73	0xbdc04c88	-0.09389597
74	0x3cd7c50f	0.026339082
75	0xbd9dc2c5	-0.07703165
76	0xbb755335	-0.0037433628
77	0xbd99df17	-0.07513254
78	0x3ce5078f	0.027957706
79	0xbc7c745f	-0.015408604
80	0x3c41b8c9	0.011823841
81	0x3d74af63	0.059737574
82	0xbd99bfd9	-0.07507295
83	0xbd14d245	-0.03633334
84	0xbdb7ac76	-0.08968441
85	0x3dd57bb0	0.10423982
86	0xbd3a365f	-0.04546201
87	0x3d29ef18	0.041487783
88	0x3ce48023	0.027893132
89	0xbdf2a511	-0.1184789
90	0xbdaa2c41	-0.08309222
91	0xbd0ed432	-0.034870334
92	0xbdbd1ab1	-0.092336066
93	0x3d7a2833	0.061073493
94	0x3d94ab41	0.072592266
95	0xbb646972	-0.003485289
96	0x3cb0019f	0.021485148
97	0x3d033230	0.032030284
98	0x3d2f3009	0.04277042
99	0xbc8e74ad	-0.01738962
100	0xbd4564f5	-0.048191983
101	0xbda2c155	-0.079470314
102	0x3ae8b29e	0.0017753427
103	0x3db63427	0.08896666
104	0xbc98d1b7	-0.018654687
105	0x3dd26c78	0.10274595
106	0x3d108a7f	0.03528833
107	0xbd8483dc	-0.06470463
108	0x3d41ed3b	0.04734538
109	0x3d2b7dd1	0.041868035
110	0xbd61cf23	-0.05512918
111	0xbcab7a4d	-0.020932341
112	0xbc70ad37	-0.014689735
113	0x3d2c924d	0.04213171
114	0x3db15f40	0.086607456
115	0xbcc6ef41	-0.024284007
116	0x3da28f8d	0.079375364
117	0x3d882373	0.066473864
118	0xbdda3d49	-0.106562205
119	0x3daf5993	0.08562007
120	0xbbde4e9f	-0.0067842747
121	0x3db86e5c	0.090054244
122	0x3dae7d29	0.08519966
123	0xbde2e282	-0.11078359
124	0xbdd5dc95	-0.10442463
125	0xbc644002	-0.013931276
126	0x3d28dd61	0.04122675
127	0xbca9660a	-0.020678539
128	0xbdea559c	-0.1144211
129	0x3d886389	0.0665961
130	0xbd88720f	-0.0666238
131	0x3d602c8d	0.054729987
132	0x3da89fab	0.08233579
133	0xbd2e7ac5	-0.04259755
134	0x3d978959	0.07399244
135	0x3c806945	0.015675196
136	0xbd140f45	-0.036147375
137	0x3bfe6af9	0.007764217
138	0x3d2b97c3	0.041892778
139	0x3d717b59	0.058955524
140	0xbd8bb4c1	-0.068215854
141	0x3db4d872	0.08830346
142	0xbd6175a0	-0.055043817
143	0xbdccd13c	-0.10000846
144	0xbd5a1d25	-0.05325045
145	0xbdd201c5	-0.10254244
146	0x3d060280	0.032717228
147	0x3c1baa20	0.00950101
148	0xbc282943	-0.010263744
149	0xbd9daa90	-0.07698548
150	0x3d792a7c	0.060831532
151	0x3c9052e8	0.017617658
152	0xbcefd190	-0.029274732
153	0x3cab7519	0.02092986
154	0x3d2a3a0d	0.041559268
155	0xbd960764	-0.073256284
156	0xbd101d1f	-0.035184022
157	0xbd5e793b	-0.054314833
158	0x3dd3fe43	0.10351231
159	0x3ce5f6ae	0.028071728
160	0xbdb178ba	-0.08665605
161	0x3dabed83	0.08394911
162	0xbc8efddb	-0.017455032
163	0x3c238ea8	0.009982742
164	0x3c731d55	0.014838536
165	0xbc830d6f	-0.015997617
166	0x3de49ab1	0.111623175
167	0x3d4c2316	0.049838148
168	0x3cc6daf6	0.02427433
169	0xbd2d5afa	-0.04232309
170	0x3cc92ac3	0.024556523
171	0xbdb348a6	-0.08754091
172	0xbd25a891	-0.04044396
173	0x3d6ebcb5	0.058285434
174	0xbdf03f79	-0.117308564
175	0xbb56015b	-0.0032654617
176	0xbd3ac2da	-0.04559598
177	0x3d7cdb43	0.06173254
178	0xbd9ba0fc	-0.07599065
179	0x3caed6e0	0.021342695
180	0xbd082b63	-0.0332445
181	0x3dccb185	0.09994797
182	0xbc9bd9cd	-0.019024754
183	0xbdb1c242	-0.0867963
184	0xbd19a57b	-0.03751133
185	0x3dab1b5f	0.0835483
186	0x3d2cc66d	0.04218142
187	0x3cd84c25	0.026403496
188	0x3d930d18	0.07180232
189	0x3d38e974	0.045144513
190	0xbc6e185b	-0.014532174
191	0xbd81c9e4	-0.06337336
192	0xbde6d394	-0.11270824
193	0x3d872841	0.06599475
194	0x3dc41ea2	0.09576155
195	0xbd17d139	-0.037064765
196	0xbd757ec0	-0.05993533
197	0x3c112a99	0.008860254
198	0x398512e7	0.0002538182
199	0x3dbd2f2f	0.09237515
200	0x3a0758af	0.0005163056
201	0xbb3a7a20	-0.002845414
202	0xbde7fd2d	-0.11327586
203	0x3ce9bff9	0.028533923
204	0xb834f777	-4.3145814e-05
205	0x3cdfe84b	0.027332446
206	0x3d9ba7be	0.07600354
207	0x3d7ebb61	0.062190417
208	0xbbcc903d	-0.0062427805
209	0x3af08134	0.0018349052
210	0xbd754095	-0.059876043
211	0x3df24d27	0.11831122
212	0x3d9e6722	0.07734515
213	0x3c5a96d4	0.013341624
214	0x3de51d4e	0.1118723
215	0x3dbf63c8	0.09345204
216	0x3d90d7ec	0.07072434
217	0x3d7797e7	0.0604476
218	0x3d3e22cd	0.046419907
219	0xbd073553	-0.03300984
220	0x3bdea016	0.006793986
221	0x3dc4b1e1	0.0960424
222	0xbcd537ee	-0.026027646
223	0x3cf0d936	0.02940045
224	0xbcb9182f	-0.02259454
225	0x3c9ffc2e	0.019529428
226	0x3d9efbd3	0.077628754
227	0x3dacbda7	0.08434611
228	0x3d5f8861	0.05457342
229	0x3d3aeb42	0.045634516
230	0xbd0b7676	-0.03404852
231	0x3dcedc44	0.10100606
232	0x3d9ecd0c	0.07753953
233	0x3dee9f29	0.11651451
234	0xbddf362b	-0.108990036
235	0xbd73786a	-0.059441008
236	0xbdc8a00f	-0.09796154
237	0xba3637c0	-0.00069510564
238	0x3db0931e	0.086218104
239	0xbda84f1f	-0.08218216
240	0x3cb75be7	0.02238269
241	0x3b478209	0.0030442497
242	0xbdf670e3	-0.1203325
243	0xbb270deb	-0.0025490473
244	0xbc44afc2	-0.012004795
245	0xbd51d642	-0.051229723
246	0xbda591aa	-0.08084424
247	0x3d85e46e	0.0653771
248	0xbc80155c	-0.015635185
249	0xbcc8b9f0	-0.024502724
250	0xbd45d571	-0.048299257
251	0xbc06dfa4	-0.008232031
252	0xbd35dba5	-0.044398922
253	0xbd94b5a6	-0.07261209
254	0x3d57f00f	0.052719172
255	0xbba668bb	-0.005078403

rnn.bias_ih_l0 f4 [64]
0	0xbd576f72	-0.052596517
1	0x3da180ba	0.07885881
2	0x3da5d7ad	0.080977775
3	0x3d065c77	0.032803025
4	0x3c966e1f	0.018363057
5	0x3b9000e1	0.004394636
6	0x3e0612b6	0.13093075
7	0x3d369db1	0.04458398
8	0x3e044b28	0.12919295
9	0x3cb0fda2	0.021605317
10	0x3c0ef943	0.008726421
11	0xbe124261	-0.14283134
12	0xbd0eaeca	-0.03483466
13	0xbcf13844	-0.029445775
14	0x3d580e16	0.05274781
15	0x3c8aeac5	0.01695765
16	0xbe36e5bb	-0.17861073
17	0x3e3cb7bf	0.18429469
18	0xbd6399e3	-0.05556668
19	0xbd5dc1f3	-0.054140043
20	0xbe199ae5	-0.15000494
21	0x3db333e5	0.087501325
22	0xbd9d4ee4	-0.07681063
23	0xbe1e9a19	-0.15488471
24	0x3d28725d	0.04112469
25	0x3c6d3df6	0.014480105
26	0x3dae400c	0.0850831
27	0xbe1e4d54	-0.15459186
28	0xbd5126d5	-0.051062424
29	0xbd1e3264	-0.038622275
30	0xbdae49cb	-0.08510169
31	0x3c174c27	0.009234465
32	0x3e2e6d11	0.17033793
33	0x3c581a11	0.013189808
34	0x3e1476e8	0.14498484
35	0x3d829f7a	0.06378074
36	0xbdb9624a	-0.0905195
37	0xbd99a7c8	-0.07502705
38	0x3d2a2d60	0.04154718
39	0x3d0ed22e	0.03486841
40	0xbd87ba75	-0.06627361
41	0x3c19b4fc	0.009381529
42	0xbe1bdfb2	-0.15222052
43	0xbe011762	-0.12606576
44	0xba91b904	-0.0011117761
45	0xbb47a305	-0.0030462157
46	0xbcd6330e	-0.026147392
47	0x3d038257	0.032106724
48	0xbe0ce6f0	-0.1375997
49	0x3d6dff7a	0.05810497
50	0xbe0fd437	-0.14045797
51	0x3cba9651	0.022776755
52	0x3dbff630	0.093731284
53	0x3d3c6428	0.045993954
54	0xbe07f4a0	-0.13276911
55	0xbe12ebd2	-0.14347771
56	0xbd3f423b	-0.04669402
57	0xbcd58118	-0.026062533
58	0xbe2c3143	-0.16815667
59	0x3e03553d	0.12825485
60	0xbd777a02	-0.06041909
61	0xbd76abb4	-0.060222343
62	0x3ddc3bfe	0.1075363
63	0xbddd7ff8	-0.10815424

rnn.bias_hh_l0 f4 [64]
0	0x3cd539a9	0.026028471
1	0x3ddffe72	0.109372035
2	0x3d034ec2	0.03205753
3	0x3dda559f	0.10660862
4	0xbd6ee05e	-0.058319442
5	0xbe46e6b1	-0.1942394
6	0x3e262a8a	0.16227165
7	0xbe098a5c	-0.13431686
8	0x38931541	7.013465e-05
9	0x3dafb8ac	0.08580145
10	0xbda49be2	-0.08037545
11	0xbd4bcbe0	-0.049754977
12	0xbd940f7d	-0.07229517
13	0x3cf5ebe3	0.030019706
14	0xbc86830f	-0.016419915
15	0x3dc2c738	0.09510654
16	0x3d3785bf	0.044805285
17	0xbb7104d8	-0.0036776569
18	0x3d95fac3	0.073232196
19	0x3ce95dec	0.028487168
20	0xbe60025e	-0.21875903
21	0x3de9ce0e	0.11416255
22	0xbded109c	-0.115754336
23	0x3d072d97	0.033002462
24	0xbc9aa57e	-0.018877741
25	0xbdd2294d	-0.10261784
26	0xbe03435b	-0.12818663
27	0xbc46ae82	-0.012126567
28	0xbe12231e	-0.14271209
29	0x3d928714	0.0715467
30	0x3a987b78	0.0011633476
31	0xbdc00980	-0.09376812
32	0x3df99094	0.12185779
33	0xbd8abae5	-0.067739286
34	0x3d63f901	0.05565739
35	0x3c58f4d5	0.013241966
36	0x3d4e0160	0.05029428
37	0xbe27a811	-0.16372706
38	0xbd67f409	-0.056629214
39	0xbd9deda8	-0.07711345
40	0xbd185e77	-0.037199464
41	0x3d12dcd1	0.03585512
42	0xbe025864	-0.12729031
43	0xbd0d93d8	-0.034564823
44	0x3d118c95	0.03553446
45	0xbe08dfac	-0.13366574
46	0xbbaf92b6	-0.0053580655
47	0x3d677c6b	0.05651514
48	0x3cb5352c	0.02212008
49	0x3d938c69	0.072045155
50	0xbdc68403	-0.09693148
51	0xbce7d222	-0.028298441
52	0x3d8af4eb	0.06784996
53	0x3d72f45d	0.059315074
54	0xbd0f2763	-0.03494967
55	0x3d08cf5b	0.033400875
56	0xbd860457	-0.065437965
57	0xbdc703e0	-0.09717536
58	0xbe0ee0f2	-0.13952997
59	0xbd4210d7	-0.04737934
60	0x3c3255bb	0.010884698
61	0x3cf5ee6e	0.030020919
62	0xbd1c2739	-0.038123343
63	0xbcb8839b	-0.022523692

output_net.weight f4 [2, 64]
0	0x3c7a5360	0.015278667
1	0x3d5ab61f	0.05339634
2	0xbd744294	-0.059633806
3	0x3dc0ab30	0.094076514
4	0xbdc284fe	-0.094980225
5	0xbe292ed1	-0.16521765
6	0x3dac2918	0.084062755
7	0xbcac969b	-0.021067908
8	0x3d55b784	0.052176967
9	0xbb7fb439	-0.0039017333
10	0xb9e92222	-0.00044466654
11	0x3c77aef2	0.015117394
12	0xbdff35ef	-0.12461459
13	0xbd68d360	-0.056842208
14	0x3e0d268e	0.13784239
15	0x3dcfd8b8	0.10148758
16	0xbd8e1382	-0.069373146
17	0x3e31841e	0.17335555
18	0x3dac292f	0.08406293
19	0x3e086512	0.13319805
20	0xbe74cf6b	-0.23907249
21	0x3e5f76fd	0.21822734
22	0xbe132030	-0.14367747
23	0xbe5ed95d	-0.21762605
24	0x3d31fe85	0.04345562
25	0xbcf4e8d4	-0.029896177
26	0xbdf19f1b	-0.11797925
27	0xbb9d6851	-0.0048036953
28	0xbcfc6217	-0.030808492
29	0xbd73cb44	-0.05952002
30	0xbc4855c1	-0.012227477
31	0x3cb06288	0.021531358
32	0x3dbfc789	0.0936423
33	0x3dbe3453	0.09287324
34	0x3e1cd4c4	0.15315539
35	0x3dbd1191	0.09231866
36	0xbdae3d90	-0.08507836
37	0xbe1c51b6	-0.15265545
38	0xbd0f6f42	-0.035018213
39	0xbd8866e2	-0.06660248
40	0xbe144589	-0.1447965
41	0xbd98fb80	-0.07469845
42	0xbe372288	-0.17884266
43	0xbd0185f8	-0.031621903
44	0xbd6049ac	-0.05475776
45	0xbe365715	-0.17806657
46	0xbd6f7edc	-0.058470592
47	0xbd9c4067	-0.07629471
48	0xbded2a04	-0.115802795
49	0x3e0a9f94	0.13537437
50	0x3c0ae853	0.008478242
51	0x3dc02027	0.093811326
52	0x3df76a41	0.12080813
53	0x3d68d933	0.056847762
54	0xbdfd05b6	-0.12354605
55	0xbd6e687a	-0.058205105
56	0xbc1c3e98	-0.009536408
57	0xbd1c4c62	-0.03815878
58	0xbc3b3c9c	-0.011428025
59	0x3df305a8	0.11866313
60	0xbe2814aa	-0.16414133
61	0xbb77b259	-0.0037795512
62	0x3c4d07b1	0.012514041
63	0x3c7b150e	0.015324844
64	0xbdf3960b	-0.11893853
65	0x3c74311c	0.014904287
66	0xbd800f00	-0.06252861
67	0xbc48d557	-0.012257895
68	0xbbb52e32	-0.0055291886
69	0x3e0374f8	0.12837589
70	0xbdd2c3a9	-0.102912255
71	0xbdb66add	-0.08907101
72	0xbe09e427	-0.1346594
73	0x3d285fe4	0.041107073
74	0x3d60ab89	0.05485109
75	0x3dcb8615	0.099376835
76	0xbd35eeee	-0.044417314
77	0x3cd38de1	0.02582449
78	0xbd8fc055	-0.07019106
79	0xbd81a620	-0.06330514
80	0x3e244a05	0.16043861
81	0xbe375321	-0.17902805
82	0x3d83fcac	0.06444678
83	0xbe2bffc3	-0.16796784
84	0x3e3a7191	0.18207385
85	0xbe064a0f	-0.13114189
86	0x3dadbcff	0.08483314
87	0x3c40baaf	0.011763259
88	0x3d6c5e6d	0.05770724
89	0x3d7e4992	0.06208188
90	0xbd969545	-0.0735269
91	0x3c596607	0.013268954
92	0x3de0f56c	0.109843105
93	0xbdc6782e	-0.09690891
94	0x3dccaa6c	0.09993443
95	0x3bc984d3	0.006149867
96	0xbe595b62	-0.21226266
97	0x3cffaa0c	0.031209014
98	0xbe04acbc	-0.12956518
99	0xbe19f0a5	-0.15033205
100	0x3d6b7fb9	0.057494853
101	0x3def41de	0.11682485
102	0x3e0415fd	0.12899013
103	0x3e1a66e8	0.15078318
104	0x3da21b9b	0.079154216
105	0xbd900a89	-0.070332594
106	0x3daacc15	0.08339707
107	0x3dfc6de3	0.12325647
108	0xbdb9ec1d	-0.09078238
109	0x3e279450	0.1636517
110	0x3dbdc363	0.09265783
111	0x3d8e8a3a	0.069599584
112	0x3dfdaf00	0.12386894
113	0xbe25f1ba	-0.16205493
114	0x3ddc2927	0.10750037
115	0xbcc29344	-0.023751862
116	0xba98687d	-0.001162782
117	0xbdd44b01	-0.10365868
118	0x3e15ad5b	0.14616911
119	0x3cd59bf6	0.026075345
120	0x3cf0f370	0.029412955
121	0xbdd76a14	-0.1051828
122	0x3e496a2a	0.19669405
123	0xbe29b98c	-0.16574687
124	0x3e1b303f	0.15155123
125	0x3d88fd56	0.06688945
126	0x3c889d3a	0.016676534
127	0xbdbee349	-0.09320695

output_net.bias f4 [2]
0	0xbf050499	-0.5196014
1	0x3eea123f	0.45717046
